Unity_diploma_Impl/Assets/LPNN/Models/lightprobe_model.onnx (onnx, 838127 bytes, 11 tensors)

functional_1/conv1d_5_1/convolution/ExpandDims_1:0 f4 [1, 128, 1, 1]
00000000: d8fe 0f3e 24f6 dabd dc1a 16bd cd3f b0bc
00000010: 403c 4f3d 368a 2f3d 89ca 743a bebd a53d
00000020: 36e7 013e d563 503e 4bf0 c5bd 66e8 913d
00000030: a800 aa3c 2616 b83b f051 5d3c 1f8d 74bc
00000040: 6b69 dd3d bcb4 18be 304c 423e 2493 053e
00000050: 86e3 f9bd 1b35 133e 56ee a2bd 48da 55be
00000060: 44ef 25be 069d 073d e2e4 e5bd 74d1 26be
00000070: cf30 11be 9c6e 54bd 20f4 5abc 80fb 22bb
00000080: 5149 f73d f9b9 19be deb1 f9bd 615a 9d3d
00000090: dd34 15be 7e36 923d 1d04 d03d dbad 3d3e
000000a0: 6adb 2c3e cbaa 18be c051 0b3d 2b0a 1c3e
000000b0: 77c1 b23d 21eb 243e 7749 0dbe f84b 2abe
000000c0: 6fd3 c83d 7a5a 44be dd4f 533d 53db acbd
000000d0: 4397 1dbe 22a8 25be 3e18 913c b388 eb3d
000000e0: 7dc8 0f3d 3e31 3bbe b06e 923d 2685 603d
000000f0: 28b1 4f3e 2852 873d 97e8 393e 7e0a 473d
00000100: d390 36be 696d 12be f22f 50be fbb2 f13d
00000110: 1c8c 59be 56ee 313e 77fd 493e 407a 31bc
00000120: d8ba 8abd b570 e5bd 73b7 093d 5ffd 2bbe
00000130: d068 9cbc 0a01 50be 3222 abbd 2061 08bd
00000140: b468 043e 2b76 03be 3c9a 5cbe 683d fb3c
00000150: 8624 d9bd 5eb4 e93d 9783 8b3d 01f3 30be
00000160: 7f08 343e 78a6 6cbd 47bc ff3b ca1f 063e
00000170: 226e 25be 441c f0bd 0027 14bb d157 3d3d
00000180: 4b98 3a3d ab83 8abd 9583 0e3e 5b96 87bd
00000190: 245d 0fbe 92ea ae3c 5610 fe3c 777b 55be
000001a0: acbf 3b3e 3c1d f03d 284b bc3c 396f 22bd
000001b0: 1dd9 443c e1a3 933c 8bab 5dbd c84d 2dbe
000001c0: f807 553e b5c7 00be 2009 9abb 0c03 a9bc
000001d0: 3e25 04be cc9e 07be 581d 85bd 60dd 38bd
000001e0: 1602 2f3e 1b99 33be 9774 05be 9af4 473e
000001f0: ed9f 3dbe f13b 293e 7cdd de3d c138 033e
0.14062059 -0.10691479 -0.03664671 -0.021514798 0.05059457 0.042856418 0.00093380414 0.08092831
0.12685856 0.20350583 -0.09664973 0.071244046 0.020752266 0.0056178747 0.013508305 -0.014926224
0.108111225 -0.14912695 0.18974376 0.13044411 -0.122016 0.14375727 -0.07955615 -0.20884049
-0.16204554 0.033108734 -0.112252966 -0.16290838 -0.14178775 -0.051863298 -0.013363868 -0.0024869144
0.12074531 -0.15012349 -0.121921286 0.07683254 -0.14570947 0.071393 0.101570345 0.18523352
0.16880575 -0.14908902 0.03401351 0.15238254 0.08728307 0.1610532 -0.13797556 -0.16630542
0.09805953 -0.19175139 0.051589835 -0.0844027 -0.15389733 -0.16177419 0.017711755 0.11500683
0.03510331 -0.18280503 0.07150018 0.05481448 0.20282423 0.06607467 0.18155132 0.04859399
-0.17828684 -0.14299549 -0.2033079 0.11801716 -0.21244854 0.17376074 0.19725595 -0.010832369
-0.06773919 -0.11203138 0.033622216 -0.16795872 -0.019092947 -0.20312896 -0.083561316 -0.03329575
0.12930566 -0.12838046 -0.2154321 0.03066893 -0.106026694 0.114113554 0.06812208 -0.17280199
0.17581366 -0.057775944 0.007804427 0.13098064 -0.16155294 -0.11724141 -0.0022606254 0.046226326
0.045555394 -0.06763395 0.13917382 -0.06620475 -0.14000374 0.021352086 0.031013649 -0.2084788
0.18334836 0.11724326 0.022985056 -0.03965685 0.012014654 0.01802248 -0.054118674 -0.16924202
0.20803821 -0.12576182 -0.004700795 -0.020631336 -0.12904832 -0.1324417 -0.064997375 -0.045132995
0.1709064 -0.17538874 -0.13032757 0.19526902 -0.18518038 0.16526772 0.108820885 0.12814619

functional_1/conv1d_4_1/convolution/ExpandDims_1:0 f4 [128, 256, 1, 1]
00000000: 393b f8bd c613 783d e609 d43d c0c0 6f3d
00000010: adab e13d 2093 32bd bc6c c9bd b0bc 31bd
00000020: 6900 debd 33dc 03be 34e3 f53d e279 a4bd
00000030: 6ca3 ee3d 2c7d 9bbd 00d8 553a f82a f13d
00000040: 0b9e c93d 6a4e a8bd dfa1 46bd f9d6 743d
00000050: ccf2 b53d 0018 85bc 98e0 c0bd b6f2 013d
00000060: 0297 b1bd 5017 febd 2d55 93bc 3e20 e53d
00000070: 206c 643c 1251 bf3d 11a2 993d 70b2 523d
00000080: b804 3fbd d8ed e13d 2487 e0bd d724 8e3d
00000090: 65eb 553d 7fdc c7bc 80cf f6bd 0be4 c0bd
000000a0: 815e 98bc 5431 063d 08a8 c83d 2881 fbbd
000000b0: 841a c5bd 97ed 8e3d 2035 103d 50a0 943c
000000c0: 10ec 713d f4a2 4fbd 68af b6bd f8bb b43d
000000d0: 60a8 f23d a0c0 c6bb d426 1ebd d853 02be
000000e0: fd26 12bd e006 dd3d 9892 f6bd 0436 f83d
000000f0: 805d 16bc efb7 a7bd 424f ce3b c08c a3bd
00000100: b67d 59bb d8db a7bd 8463 f7bd 38ef 763c
00000110: b285 df3d 5a86 373c b3a3 dabd 80c8 883b
00000120: 8823 c83d 6003 9f3c 6abb a63c 860e 5abd
00000130: 85f3 86bd 5074 c93d 62a9 edbc 8248 883d
00000140: d54e 83bd a91b ed3d 9032 a53d 63a4 143d
00000150: 606e 1dbc 40ce febb 19a9 9f3d 8b72 b03b
00000160: b01a 3f3d e044 b3bd 50e7 3dbd c888 9ebd
00000170: c81a 80bd 89d7 953d 15f1 84bd 7625 a53c
00000180: 642c a8bc 5616 dc3d 344a ec3d 64a6 ae3d
00000190: 312a e8bd ee47 b9bd c09d b93c 77ae 9d3d
000001a0: 001d 8e3a 788d 27bd 762e e0bc 9ee0 ddbd
000001b0: c5cc 4ebd 8248 be3d 40bc b6bc 49b2 8abb
000001c0: 2199 a23d e624 8a3d b6d7 89bd 687f ca3d
000001d0: c0fe 5b3c 0898 4fbd 80ac 6b3d 3fb2 afbd
000001e0: e014 6b3d e5b4 83bc 20d4 d63c 80af 313d
000001f0: c04c d3bc c195 63bd b14e 633c 60d1 573d
00000200: 0334 e43d a054 fdbd 25b8 223c 6785 16bd
00000210: a5c4 f1bd af1e 76bd d0ae 763d 38bc b73d
00000220: e8fd 90bc 6c5b 913d c04b 8bbd c00e 8cbb
00000230: 13d1 46bd dd9d c0bd f21d 7ebd 5868 c2bc
00000240: 306a dc3d 24f0 c4bd 209a 863c 9125 f1bd
00000250: cf4f 6a3d 8764 dfbc 70d3 8abd e03f e83d
00000260: 1b34 c33c 9830 f5bd 337d 8c3d bc3e 9d3d
00000270: 47cd 4a3d 0ce0 a0bd cfe4 02bc 0e80 cf3d
00000280: f048 80bd 8043 5bbd 304c 083d 7ca3 2d3d
00000290: 661e 553d 5af8 433d 40b6 5a3d 9577 a33c
000002a0: 161d e13c 4b42 b1bc 0cfb efbc c060 a53c
000002b0: 6892 bcbd 6041 bcbd a019 f33d 70c9 963d
000002c0: e061 873d 488e 693d 46b9 00be 0021 b2bb
000002d0: 60cb 11bc bb62 c03d 6868 9dbd 508b d9bc
000002e0: ec1d f03d 8559 41bd 3c86 a13d 9c06 b3bd
000002f0: c84e 64bd 75f5 a7bd 9226 a73d 6c4f 0d3d
00000300: 309e 803d 9d80 23bd f09a d9bd a0f1 ecbc
00000310: b287 cf3d d0d7 c3bc fbbd eb3d e366 ffbd
00000320: 98ca abbd d814 4abd 3499 8f3d 5b82 ae3d
00000330: 7898 17bd b219 3d3d 1088 8a3d c848 5cbd
00000340: 00b0 203b 5fe0 c7bd 28c5 a5ba 6aae a93c
00000350: b30c 8dbd 20ff 083c d480 d4bd 148b f23d
00000360: af89 d13d 6c06 f33d dc79 10bd fceb f13d
00000370: 18f5 5cbd ce27 5a3d 0479 8abd 42f3 3a3d
00000380: f03c 1dbd d9e0 81bd 809f c13c d565 243d
00000390: 08e5 7dbd 4003 5abd a11a 91bd 80ec 043b
000003a0: 80f5 bbbc 547f 8fbd c071 dfbb bd75 803d
000003b0: 76aa 33bd fda2 683d c7bc 4fbd b87e d3bd
000003c0: ae35 323d b49f fbbd f0fa b1bc afaf dc3c
000003d0: 14ad f43d 18fa 233d e006 03bc 3891 acbc
000003e0: f021 d23d 9131 cf3d dba7 e53d 245a fb3c
000003f0: 6008 c63c 19ad 04be e041 953c 50fe 053d
-0.12120671 0.060565732 0.103534505 0.05853343 0.11019073 -0.04359734 -0.098351926 -0.043392837
-0.10839922 -0.12876968 0.12006226 -0.0803106 0.11652264 -0.07592234 0.00081574917 0.11775774
0.098445974 -0.08218081 -0.048494216 0.059775326 0.088842005 -0.016246796 -0.09417838 0.031725608
-0.086713806 -0.1240679 -0.01798495 0.1118779 0.013941795 0.09341635 0.07501615 0.051439703
-0.04663536 0.11031693 -0.10963276 0.069406204 0.052226443 -0.024397133 -0.12051296 -0.09418496
-0.01859975 0.032761887 0.097976744 -0.12280494 -0.09624198 0.069789104 0.035206914 0.01814285
0.059063017 -0.050692514 -0.08920175 0.08824915 0.11848521 -0.006065443 -0.038611248 -0.12727296
-0.035681713 0.10792327 -0.12039679 0.12119678 -0.009177566 -0.081893794 0.0062960694 -0.0798583
-0.0033186502 -0.08196229 -0.12079528 0.015071683 0.10914172 0.0112014655 -0.106757544 0.004174292
0.09772402 0.019410789 0.020353038 -0.053236507 -0.065894164 0.09836638 -0.029011432 0.06654455
-0.064115204 0.115775414 0.08066285 0.036289584 -0.009608835 -0.0077760518 0.07795925 0.0053847483
0.04665631 -0.08753371 -0.046363175 -0.07740933 -0.06255108 0.07316501 -0.06491295 0.020159464
-0.02052898 0.10746448 0.115375906 0.0852783 -0.11336172 -0.090469226 0.022658229 0.07699292
0.0010842383 -0.0409064 -0.027365904 -0.10833858 -0.050488252 0.092911735 -0.022306561 -0.004232679
0.07939363 0.06745319 -0.06730597 0.09887582 0.013427436 -0.050682098 0.057537556 -0.085789196
0.057392955 -0.016077468 0.026224196 0.04338026 -0.025793433 -0.05556274 0.013873742 0.05268991
0.11142733 -0.123696566 0.009931599 -0.036748316 -0.11805085 -0.060087856 0.060225308 0.08971447
-0.017699197 0.070975155 -0.068015575 -0.0042742193 -0.048539232 -0.0940511 -0.062040277 -0.023731396
0.10762441 -0.09616116 0.016430914 -0.11774743 0.057205018 -0.027269615 -0.0677861 0.11340308
0.023828557 -0.11972159 0.06859817 0.07677981 0.049512174 -0.078552336 -0.0079891225 0.10131846
-0.06263912 -0.05353117 0.033275783 0.04239224 0.052030943 0.04784427 0.053396463 0.019954482
0.02747969 -0.021638056 -0.029294513 0.020187736 -0.09207612 -0.09192157 0.11870122 0.0736264
0.06610465 0.057020456 -0.12570676 -0.005436063 -0.008898586 0.09393831 -0.076859295 -0.026555687
0.11724457 -0.047204513 0.07886931 -0.08741495 -0.055739194 -0.08201114 0.081616536 0.03449957
0.06280172 -0.039917577 -0.10625255 -0.02892381 0.10133304 -0.023906618 0.11510845 -0.12470796
-0.08388251 -0.049336284 0.07011643 0.08520957 -0.03701064 0.046167083 0.06764233 -0.053780347
0.0024518967 -0.09759592 -0.0012647258 0.02071305 -0.06887188 0.008361608 -0.103761345 0.11842933
0.10231339 0.11866459 -0.035272464 0.118125886 -0.053944677 0.053260617 -0.06761363 0.045642145
-0.038388193 -0.063417144 0.023635626 0.040136177 -0.061986 -0.053225756 -0.07085157 0.0020282567
-0.022944212 -0.07006708 -0.00681898 0.06272457 -0.043863736 0.056796063 -0.05071714 -0.10326904
0.043508224 -0.1228632 -0.021726102 0.026939241 0.119470745 0.04003343 -0.007997245 -0.02106534
0.10260379 0.10116876 0.112136565 0.03068263 0.024173915 -0.12956657 0.018219888 0.032713234

functional_1/conv1d_3_1/convolution/ExpandDims_1:0 f4 [256, 512, 1, 1]
00000000: d498 98bd 3184 70bb a5a0 6bbd 2b88 0ebd
00000010: 118a 0d3d 153e 953c 7253 94bb f178 4f3d
00000020: 0a34 82bd 0aea 2e3d 036e 61bd 2082 27bc
00000030: 274d 833d d6cf 4b3d 534e c13d 04f6 8a3c
00000040: 223d 983d 185e 973d 64c2 4d3b 3712 12bc
00000050: 3b9b 9c3d 2797 8abd a3e6 8b3d dd40 be3d
00000060: 5394 4fbd 8042 b73a a1d3 9e3c 59a6 a7bd
00000070: e98a a23b 3c13 b63c 17c9 163d 950f b03d
00000080: a7f1 90bd 80db 0e3b 05f6 11bd 8fee 9e3d
00000090: 4a97 653d 0298 aabd 2f93 49bd 9ffe 3bbd
000000a0: 8320 103d 50e9 33bd e130 1c3d 68ee 70bd
000000b0: 5bd5 873c 98d8 833c 2690 0abd 2419 02bc
000000c0: f0dd 84bb 5020 6c3d 9d25 48bd cef9 d63c
000000d0: 7fd7 523c 32e2 92bd b936 393d b048 a7bc
000000e0: 0c7c 8bbc 20b8 e4bb ca31 a3bd 7039 87bd
000000f0: 4db8 323c de21 6c3d 4ed5 183d 4857 4d3c
00000100: 7e73 503d a02b 583b 3cd3 59bd 2689 6d3d
00000110: e27f cdbc 40cd feba cba7 0cbd 80fa ab3c
00000120: 7a07 51bd d7ad 97bc c448 31bd 5058 3fbd
00000130: 60fb 2f3c 4e18 0b3d b3c2 b0bd 8b24 2bbd
00000140: 1757 27bd 7991 723c ccc9 953d e07a b1bc
00000150: 6e51 733c bcef 033d bb20 babb 6b0d 843d
00000160: fb9b 2bbd a954 c8bc 90cd 97bd 9f34 053c
00000170: 28a8 64bd 6ad6 163d 8816 713d 9163 b13d
00000180: 03c1 933d 6c98 34bc c9d9 19bd b8da cf3c
00000190: e935 39bd b834 5abb 0ceb bc3d b00c 093c
000001a0: 38a3 40bd 81fd a2bd bc2e 8e3a f7ac 563c
000001b0: 103f f13c 393d 023d 5966 25bd 7140 8e3d
000001c0: 6fc8 e5bc d614 4c3d fbc2 873d 7feb be3d
000001d0: bd99 0cbb 90a0 363d 2c1a be3d 3078 9a3d
000001e0: df19 87bc f80a 393d 09ae 913d 379a a1bd
000001f0: 098f 63bd bb75 9a3d 80c4 113c 80fd 26bc
00000200: 0f2f 59bd 1740 08bd 3899 403c 9b2b b1bc
00000210: a1d3 9f3d 2ff8 53bd 1cab 85bc a342 d8bc
00000220: 7552 553d 0b42 813d 1054 ab3d 8269 753d
00000230: ba90 6b3d 1989 f73c 9a8d 563d 2ac7 1f3d
00000240: 6308 6bbd 12a8 9cbd 74ad 81bd d5aa 103d
00000250: f3b1 41bd dd4c 393d da94 a3bd 3da1 3abd
00000260: 9e68 2bbd 82cc 6b3d 00b0 373d 2263 8f3a
00000270: 7219 773d 4a9f f13c 3513 21bd 9fe5 80bd
00000280: b251 7bbd 0078 09bc 80bc 77ba 50e6 bdbb
00000290: 53b4 b93d fbd4 7fbd c2a1 513d 8544 443c
000002a0: 948f e1bc 6f9a 6cbd aaaa 9e3d d20b 98bd
000002b0: bc77 023d ef9c 2cbd 625b 9c3d a8a8 82bd
000002c0: 8497 c13c 9439 903c 09dd 983d 97a7 3c3d
000002d0: 695f b3bc 66da 82bb 2b02 a63d fcd7 e73c
000002e0: bd23 7b3d 9518 55bd da37 2b3d 7f6f 983d
000002f0: e630 adbc 90b4 f43b 5365 ad3d 025b 053d
00000300: a534 06bd fb6c c43d 6a42 9f3d f403 0a3d
00000310: f638 32bd a7d5 5abd e251 463d ee52 7c3c
00000320: 7b53 7f3d b1be 6dbd ab10 62bd 04be e9bc
00000330: 01fa 5f3d 10b7 ae3c 59a8 cebc d7ad fb3c
00000340: 76eb 3a3d 945d 8cbc 1aec fabc 59bf b1bd
00000350: 8ef7 753c 37f4 5e3d fb21 973d 1487 91bd
00000360: 2c2a 9f3d 4fec 45bc 5004 b2bc 0a3e b5bd
00000370: 948f 53bd c038 3abb c1da 7d3d 2116 1ebd
00000380: f0c7 94bb f5d9 a9bd 3f52 b3bd 0741 c5bc
00000390: c8c5 9e3c 6f62 a93d 4fdf 853d 9116 2e3d
000003a0: a871 44bd ff1f ac3c 6d3a 8fbd 50b2 5e3c
000003b0: b963 c33d bcaf 84bd 6992 5c3c 7ba8 9d3d
000003c0: 7f2c b73d 3209 8abd 5751 153d 5552 7ebb
000003d0: c301 6c3d 58df ab3c ade3 ca3b edca a7bd
000003e0: 1aed 07bd 438c 653d 48af a3bd 0157 483c
000003f0: 2db5 82bd 187b 2d3d 7d31 bd3d e84e 30bd
-0.07451025 -0.0036699886 -0.05752625 -0.03479783 0.0345555 0.01821808 -0.004526549 0.050652448
-0.06357582 0.042703666 -0.055036556 -0.010223895 0.064112 0.049758755 0.09438767 0.016963013
0.07433535 0.07390994 0.0031396383 -0.008915476 0.07646795 -0.06767111 0.068311 0.092897154
-0.050678562 0.001398161 0.019388022 -0.08186025 0.004960407 0.022225969 0.036812868 0.08596722
-0.070773415 0.0021798313 -0.035635013 0.07760345 0.056052484 -0.083297744 -0.04921263 -0.045897122
0.035187256 -0.043923676 0.038132552 -0.058821112 0.016581228 0.01609449 -0.033828877 -0.007940564
-0.0040547773 0.057648003 -0.048863996 0.026242163 0.012868761 -0.071720496 0.045218203 -0.020420402
-0.017026924 -0.006979957 -0.07968481 -0.06602752 0.010908199 0.057649486 0.0373128 0.0125330165
0.050891392 0.0032984987 -0.053179964 0.057992123 -0.025085393 -0.0019439831 -0.034339707 0.020993471
-0.05103252 -0.01851551 -0.043282285 -0.04671508 0.010741085 0.033958726 -0.08630886 -0.041782897
-0.04085454 0.014805191 0.0731388 -0.021665037 0.014850957 0.03221105 -0.0056801713 0.06447872
-0.0418968 -0.024454432 -0.07412255 0.008130222 -0.05582443 0.036825575 0.058859378 0.08661569
0.072145484 -0.011022668 -0.03756121 0.025372848 -0.04521743 -0.0033295583 0.09224519 0.008364841
-0.047030658 -0.07958508 0.0010847668 0.0131027615 0.029449016 0.031796668 -0.04038081 0.06945885
-0.028049676 0.04982456 0.066289864 0.09322261 -0.002145394 0.044586718 0.09282336 0.07542455
-0.016491828 0.045176476 0.07113273 -0.07890742 -0.05555633 0.075419866 0.008896947 -0.010192275
-0.053023394 -0.033264246 0.01175528 -0.021627238 0.07804037 -0.05175036 -0.016316943 -0.026398962
0.05208059 0.06311425 0.08365643 0.059915073 0.05751107 0.03021674 0.052381136 0.039008297
-0.057381045 -0.07649244 -0.06331912 0.035319168 -0.047288846 0.04523932 -0.079873756 -0.045563925
-0.041847818 0.05756808 0.04484558 0.0010939578 0.060327 0.0294949 -0.039324958 -0.06293797
-0.061357208 -0.008390427 -0.0009450391 -0.0057952777 0.09067597 -0.062458973 0.051179655 0.011979227
-0.027534284 -0.057764467 0.07747395 -0.074241295 0.03185247 -0.04214185 0.076346174 -0.06379825
0.023631819 0.01760558 0.07464034 0.046058264 -0.021896081 -0.0039933203 0.08105882 0.028301232
0.06131338 -0.052025396 0.04180131 0.07443141 -0.02114148 0.007467814 0.08466592 0.032557495
-0.03276505 0.09591099 0.07776339 0.033695176 -0.043511353 -0.05342641 0.048417933 0.015400631
0.062335473 -0.058043186 -0.055191677 -0.02853299 0.05468178 0.021327525 -0.025226759 0.030722542
0.04563471 -0.017134465 -0.03063016 -0.08679075 0.015012635 0.05443212 0.07379528 -0.07105842
0.077717155 -0.012080266 -0.021730572 -0.08849724 -0.0516506 -0.0028415173 0.061976198 -0.038595323
-0.004540436 -0.08293525 -0.087559216 -0.024078859 0.019381419 0.08270728 0.06536733 0.04250199
-0.047959954 0.02101135 -0.06993566 0.013592318 0.09540505 -0.06478831 0.013462641 0.07698151
0.08944034 -0.06740035 0.036454525 -0.0038806398 0.057618868 0.020980522 0.006191692 -0.08193002
-0.033185102 0.056041967 -0.079924166 0.012227775 -0.06382213 0.04235372 0.09237955 -0.043044

functional_1/conv1d_2_1/convolution/ExpandDims_1:0 f4 [256, 128, 1, 1]
00000000: bbf4 d3bc 9beb c73c 58f0 7f3d 67ad e4bd
00000010: cabd bd3d a0d6 16bd 384b dcbd 2d5e c63d
00000020: 80e5 5dbd 30b4 b9bd 9445 c33d 2001 edbc
00000030: d8fd e1bd f4ae cc3d 2049 163d fca8 813d
00000040: 774d bebc d499 a83d 8805 0cbd d82b 1c3d
00000050: c92c fb3c 9863 de3d 9f4b 08bd dc8f e63d
00000060: 6c34 67bd c9e7 28bd c857 f8bd b8de 993d
00000070: 5031 0e3d dfde dbbd 7d0d ca3a 0490 883d
00000080: a8aa a43d 348b 8f3d 2a29 eb3c 9599 b83d
00000090: b07d c73d 1780 15bb e616 d43d ff9e c23c
000000a0: 0d58 d03d 07d5 bebd d078 45bd 50bf bbbc
000000b0: 84f6 98bd d0f4 eebd c08d 1c3d 8868 33bd
000000c0: c4e0 fbbd d452 c33d fa24 edbb 8014 d7bb
000000d0: 3a98 5d3d 154a b43d d62f d43c 2f63 acbc
000000e0: c872 c23d 7845 61bd 27b1 cb3d 683c 96bd
000000f0: 0e57 fcbd 819e 1cbd 90e7 893d 03e5 d83c
00000100: 92cc a93d 9ed7 05bd 003f c03d 58d2 0abe
00000110: 10f1 503d 281b dd3d f271 cdbd 5850 c83d
00000120: fcfb cf3d a02c 693d 90a9 0bbd 9087 bfbd
00000130: 5a3c 893c c64c c2bc 5172 90bc 389f 38bd
00000140: c0e5 053c 67a6 a5bd 1b12 57bd 22d6 4cbb
00000150: 5131 963d 6460 a0bd 74ce 883d e011 6a3c
00000160: e94f cf3d f846 17bd 9a85 a2bd 804a 623d
00000170: d822 9cbd 88d3 8bbd a980 813d e141 dc3d
00000180: d0fb 95bd ae8f ddbc 0482 dabd 6ce4 edbd
00000190: d9b9 afbc 44e8 b3bd 9c5b cabd 36e5 d93d
000001a0: a92e f73c 6db9 d63d 575a 973c bb9c 84bd
000001b0: cf8e de3d d661 99bd 920c f0bd 006f 25bd
000001c0: c0e8 e73c f020 d8bc b00e eb3d 71f4 203d
000001d0: 5cc3 ecbd 2c8a 853d d721 21bc e5c2 c6ba
000001e0: 825b 65bd b4d8 d53d f0f9 82bc fa46 0c3d
000001f0: 3694 f4bd e068 3abd baac c33d e047 57bd
00000200: 472f cebd 1534 52bc 5cdb d4bd 64d4 f73d
00000210: 5176 253c 8083 4c3d 50e3 36bd 1b91 3c3d
00000220: 409d c33d 485a e1bd 57a4 013d 80c6 103b
00000230: 84ac c9bd d8d7 023d 84a1 91bd 3c66 afbd
00000240: a990 38bd 482e da3d c8e0 813d 76c5 cfbd
00000250: c54f d2bc ac8b c3bd 747a dcbd 96e7 fcbc
00000260: afc3 dcbd a969 b5bd 6c18 f73d 00b8 023c
00000270: 2887 12bd f9ca 16bd a6f1 94bd b415 85bd
00000280: ab60 76bc 5860 15bd 6b5f a7bd 7cce d43d
00000290: d03e c73d 891e b43d a647 dbbd 7fb7 aabb
000002a0: 762e f4bd e500 f13d 8b2a d5bd c024 16bd
000002b0: 53ad d23d 6d60 b5bb 8025 3fbd f00c abbc
000002c0: 3de7 003e 4d7a bd3d 947e 0b3d f83e c23d
000002d0: fe78 2a3d 09ce 033d cadf bfbd 33be 8e3c
000002e0: b0ba 94bc a0ae 84bc 5cca 00bd 0002 bebb
000002f0: f0c2 c8bd 5673 3b3d 5854 f03d 4311 023e
00000300: 8439 38bd 849c 873d 8059 f53d da6a cebd
00000310: a88c cf3d 9802 173d 3060 70bd 4f87 d8bd
00000320: e451 6f3d 9cc5 ddbd 319f bf3c 705b f8bc
00000330: 82ef 9abd d248 f63d 976d c93d c482 a73d
00000340: b04c 4f3d 7f36 513d 5768 dcbc 7609 debd
00000350: 5181 f53d b873 ecbd c8a3 e83d ec72 82bd
00000360: 92c6 58bd 0cfd 89bd 22c1 663c 0882 c5bd
00000370: 781f 01bd 0424 f7bd ef44 983d b884 783d
00000380: 40f8 f9bc 1109 043d a48c bebd 076b 58bd
00000390: 249e a73d fbc3 e23c 2cf4 cabd d061 6a3d
000003a0: 52ac 1abd e33b b4bd 9146 b1bb 7dc5 4fbd
000003b0: 5d89 97bc bd86 df3d 76f6 7d3c a052 633c
000003c0: a191 3abd 104c 76bd 8ca4 e7bd cead c83d
000003d0: 4ce8 ee3d 7798 55bd d32e a0bc 8599 b0bd
000003e0: 6ccf 9abc f010 7b3d e97d e93d 3817 b83d
000003f0: a31b 9d3d 0cf0 d93d 4100 d0bd 4cce 8ebd
-0.025873533 0.024404338 0.06248507 -0.11165886 0.09264715 -0.036825776 -0.10756534 0.09685931
-0.054173946 -0.09067571 0.09534755 -0.0289312 -0.11034745 0.09994307 0.03669083 0.06331059
-0.023230297 0.082324654 -0.034184963 0.03812775 0.030661004 0.1085884 -0.033275243 0.11257908
-0.056446478 -0.041236673 -0.12126118 0.07513183 0.034714997 -0.10735869 0.0015415397 0.06668094
0.080403626 0.07008973 0.028706152 0.090136684 0.0974077 -0.0022811943 0.1035593 0.023757456
0.10173044 -0.093179755 -0.04821092 -0.022918373 -0.07468894 -0.11667788 0.03822112 -0.04380086
-0.1229873 0.095372826 -0.007237074 -0.006563723 0.054100253 0.088031925 0.025901716 -0.021043388
0.09494549 -0.05499789 0.099458985 -0.0733574 -0.12321292 -0.0382371 0.0673362 0.026476389
0.08290972 -0.03267633 0.09387016 -0.13556802 0.051011145 0.10796195 -0.10031499 0.09780949
0.10155484 0.056927323 -0.034097254 -0.09352028 0.01675241 -0.023718249 -0.017632635 -0.045073718
0.008172452 -0.08088379 -0.0525075 -0.0031255563 0.07333625 -0.07830885 0.06680003 0.014286488
0.101226635 -0.036932915 -0.07935639 0.05524683 -0.076238334 -0.06827456 0.06323368 0.10754753
-0.0732342 -0.02704605 -0.1066933 -0.11615834 -0.021450924 -0.087845355 -0.09880754 0.10639422
0.030173616 0.10484586 0.018475695 -0.064752065 0.10867082 -0.07489364 -0.117211476 -0.04038906
0.028309226 -0.026382893 0.11477411 0.039295617 -0.11560699 0.06520495 -0.009834728 -0.0015164284
-0.05599547 0.104417235 -0.01598832 0.034247376 -0.119423315 -0.045510173 0.09554429 -0.05255878
-0.10067611 -0.0128298 -0.10393402 0.12101057 0.01009901 0.049930096 -0.044650376 0.04603682
0.095514774 -0.11003548 0.031650867 0.0022090971 -0.09847358 0.031944126 -0.07110885 -0.085644215
-0.045059834 0.10653359 0.06341702 -0.101450846 -0.025672803 -0.09548125 -0.107655436 -0.030872148
-0.10779511 -0.08858044 0.12065205 0.007978439 -0.035773426 -0.036814664 -0.07272653 -0.0649828
-0.015037696 -0.036468834 -0.081724964 0.10390946 0.097287774 0.087948866 -0.10707025 -0.0052098627
-0.11922924 0.11767749 -0.10408505 -0.03665614 0.10286965 -0.0055351765 -0.046666622 -0.020880193
0.1258821 0.09251843 0.03405626 0.094846666 0.041619293 0.032178912 -0.09368856 0.017424678
-0.018155426 -0.016196549 -0.031442985 -0.0057985783 -0.098028064 0.04576429 0.11734837 0.12701897
-0.044976726 0.0662165 0.119799614 -0.10078974 0.1013425 0.036867708 -0.05868548 -0.10572683
0.058427706 -0.108287066 0.023391338 -0.030317038 -0.07565214 0.12025608 0.09835356 0.081792384
0.050610244 0.051077362 -0.026905222 -0.10841648 0.11987556 -0.11545509 0.11359364 -0.06369576
-0.052923746 -0.06737718 0.014084132 -0.09643942 -0.03152415 -0.12067416 0.07435023 0.060673445
-0.030513883 0.03223521 -0.09304169 -0.052836444 0.0818446 0.027681341 -0.09909853 0.057222188
-0.037761994 -0.08800485 -0.0054100235 -0.05072545 -0.018498117 0.10914371 0.015500655 0.01387468
-0.04554904 -0.060131133 -0.11310682 0.097987756 0.11665401 -0.052147355 -0.019553578 -0.086230315
-0.018897735 0.06129545 0.114009686 0.089888036 0.07671287 0.106414884 -0.101562984 -0.06972942

functional_1/conv1d_1_2/convolution/ExpandDims_1:0 f4 [128, 64, 1, 1]
00000000: 3921 91bd 1054 9bbc a364 523d 8a49 9c3c
00000010: 8deb e33c 03c0 a6bd 4c9c 1d3e b147 b7bd
00000020: 995d 2abe da19 9c3c 92ec b03d 7662 b1bd
00000030: c504 b33d ed7a acbd 0cb1 9bbd 0e0f e33d
00000040: 3351 003d 11e8 083e c415 4bbd a7d8 173e
00000050: 89f3 063e 4167 043c 1db6 13be bd36 40bd
00000060: 22ce 72bd 87cf 323e 4a71 af3d 60bc 26bd
00000070: e0d4 90bc 5bee 8fbd 55ce d33d 8dac 2cbe
00000080: 2fde 023e 24db dc3d 8304 06be 8bdd 213e
00000090: e285 f93d 50b5 ebbc 0d73 1a3e 5625 ed3d
000000a0: fdef 08be 84ae 17be 083c 843d ffe9 2a3e
000000b0: 2b90 00be 2a98 e7bd c031 acbd dc54 343d
000000c0: a846 013d 7c7a 09be 57b5 983d ca84 96bd
000000d0: 0ce5 843d c59f 93bc 2207 cbbd 3b57 c6bc
000000e0: e63b d43d 2a1a ff3d 9349 13bd 76ed e4bd
000000f0: 200c 3b3d e5ad 2abe 5e44 adbd 817d b63d
00000100: f6a9 f53d d592 90bd 0cf4 243e ee3c aabd
00000110: 2605 263d 937d c2bd 5fd4 6f3d 06ec 133d
00000120: fe60 f6bb 6039 323d 30a3 143d 0887 01be
00000130: 87de 643c 58ad 81bc d0d1 9f3c 5079 a0bc
00000140: 40a6 7b3d 09fb 813d 15e0 00be b302 c8bd
00000150: e859 653d 0a3f cdbd 1319 183e 0c0d d13d
00000160: 7ad5 f5bd b4be 08be 8a0e 8c3d f4f8 263d
00000170: fc04 053d 6a8f 873d de28 adbd 2cc9 1b3d
00000180: 64e1 1cbe 70f5 41bd 93e3 113e 3dd1 203e
00000190: 9688 ac3d 9420 72bd e9c2 c8bc 862c 03be
000001a0: c6bb d93d 173c 1d3e 40b4 1fbb ca00 ff3d
000001b0: c82b a43d 6981 33be 406f 06be 9a6e 21bc
000001c0: 9804 1d3d e241 d13d 6afd 30be 3fdf 073e
000001d0: 2a98 003d 3527 dc3d 77f2 34be c2f8 f1bd
000001e0: 821b 94bd a0bc b4bd b17f 303e 68d2 343d
000001f0: 3473 33be 5f17 1cbe ae87 02be ebaa 0c3e
00000200: 5141 143e b02d 3f3d 76b5 ecbd 308b 46bd
00000210: 9625 f4bd f587 b2bd 2f86 0dbe 2dbb 203e
00000220: f48c f5bd 048a 8c3d 1899 1b3d 6c4d 223d
00000230: ba8b ab3d 1876 d83c 1d11 91bd 48d4 d33c
00000240: 6cfa 29bd 443f d2bd 756a f1bd b86b 29be
00000250: 0ef9 823d 9b1e 053e d0fe af3c 1673 c53d
00000260: dd6d 2dbe 08ea 39bd 8087 cbbb 4ce7 2bbe
00000270: 9cd1 5a3d a862 b53c 12ee f83d 13c2 21be
00000280: f59d 2b3e c021 03be 6430 03bd c0f7 5ebc
00000290: 40da bebd 14e9 423d 4810 53bd 725e 7cbd
000002a0: f005 1d3c 45f2 013e 3676 2ebe 1bcb 243e
000002b0: c442 a6bd dc3c fcbd b098 5f3d 0462 04be
000002c0: a465 babd 202c 45bc c0ea 84bd 4c27 09bd
000002d0: 7221 04be ae86 a03d 9763 b5bd e236 b13d
000002e0: 27e3 153e a5e2 e4bd 9479 8f3d 2cbf 713d
000002f0: a24a e63d 3667 58bd 88a9 4d3d 76d6 ddbd
00000300: 1e17 b0bd 5d44 e0bd 6799 ca3d f8a7 14be
00000310: 2a60 323e 00c1 ecba 9d88 993d 0286 87bd
00000320: 2ead cfbd 7a89 c73c 9aa3 bebd 4cf6 babd
00000330: e706 0bbe f2a0 ea3d e433 3dbd f69d e13d
00000340: ac54 c83c 4c20 29be 5e9c d439 db9d 9fbd
00000350: c6b8 ad3d 4d55 233e 34c9 0a3d 97d2 d53d
00000360: 3a50 f03d b0a3 ab3c 1c8b 083e a458 5e3d
00000370: b502 31be bf5e cf3a 43d8 2bbe df91 1f3e
00000380: 2f5c b1bc 8ebd a43d 6b0c 9dbc 9ab1 d93d
00000390: 1e24 f93d 1820 b13c e8f1 0dbe f0dd 42bd
000003a0: 1b67 2c3e 1bd2 e6bd ecb1 643d 05b0 88bd
000003b0: b449 b53d 78dc 21be 063c a5bd ec0c 1b3e
000003c0: fe7b a33d 2b48 9abd 6de7 aebd 1a44 903d
000003d0: 13b7 743d 5ca0 ca3b fe2e 9a3d 93b6 37bd
000003e0: 56cc e63d 5edf 85bd 0772 983b 3309 0bbe
000003f0: 6267 0f3d 8fdd d63d 0cb8 e33c dc81 8dbd
-0.07086415 -0.018960983 0.051365506 0.019078035 0.02782228 -0.08142092 0.15391654 -0.08949221
-0.16637267 0.019055296 0.08638872 -0.08661358 0.08741144 -0.08421884 -0.076021284 0.11086856
0.031327438 0.13369776 -0.049581304 0.1482874 0.13178839 0.008081258 -0.1442494 -0.046927202
-0.059278615 0.17461978 0.0856653 -0.040706992 -0.017679632 -0.070278846 0.10342089 -0.16862698
0.12780069 0.10783985 -0.13087659 0.15807168 0.12183739 -0.02877298 0.15082951 0.11579387
-0.13372798 -0.14812666 0.064567626 0.16690825 -0.12554996 -0.1130832 -0.084079266 0.04402624
0.031561524 -0.1342563 0.07456463 -0.07349546 0.06489 -0.01802052 -0.0991347 -0.024211517
0.10362987 0.12456162 -0.035958838 -0.111781046 0.04566586 -0.16667898 -0.08460306 0.08910657
0.11995308 -0.07059256 0.16108721 -0.08312403 0.040532254 -0.09496608 0.058552142 0.03611376
-0.0075188866 0.04351175 0.03628844 -0.12649167 0.01396907 -0.015829727 0.019509226 -0.019589096
0.061437845 0.06346709 -0.1258548 -0.0976614 0.055993944 -0.10021789 0.14853315 0.102075666
-0.12003608 -0.13353997 0.068387106 0.040764764 0.032475457 0.06619151 -0.084550604 0.03803365
-0.15320355 -0.047353208 0.14246969 0.15704818 0.08424489 -0.0591131 -0.024507003 -0.12809953
0.10631518 0.15354954 -0.0024368912 0.124513224 0.08016163 -0.17529835 -0.13128376 -0.00985303
0.03833446 0.10217644 -0.1728417 0.13268755 0.031395115 0.10749666 -0.17670618 -0.11815025
-0.07231809 -0.0882504 0.1723621 0.04414597 -0.17524415 -0.1524329 -0.1274707 0.13737075
0.14478041 0.04667443 -0.115580484 -0.048472583 -0.119212314 -0.08717338 -0.13820718 0.15696402
-0.11989775 0.06862262 0.0379878 0.039624617 0.0837626 0.026423499 -0.07083342 0.02585806
-0.041498587 -0.10265973 -0.11787883 -0.16544998 0.0639516 0.12999956 0.021483809 0.096410915
-0.16936441 -0.045389205 -0.006211221 -0.16787452 0.053422555 0.02214177 0.12154783 -0.1579669
0.16759475 -0.12805843 -0.03202857 -0.013608873 -0.09318972 0.047585562 -0.0515292 -0.061613508
0.009583935 0.12690075 -0.17037281 0.16093104 -0.08118203 -0.123162955 0.054588974 -0.12928015
-0.09101418 -0.012034446 -0.064900875 -0.033484742 -0.12903383 0.07838188 -0.08856886 0.08653046
0.14637433 -0.111760415 0.07005611 0.059020206 0.11244704 -0.052832805 0.050210506 -0.10831921
-0.08598159 -0.10950539 0.098925404 -0.145172 0.17419496 -0.001806289 0.0749676 -0.06617357
-0.10140453 0.024357546 -0.09308548 -0.09129009 -0.13576852 0.11456479 -0.046192065 0.11016457
0.024454437 -0.16516227 0.00040552294 -0.077937804 0.08482508 0.15950508 0.03388329 0.104405575
0.11734052 0.020952076 0.13334316 0.054283753 -0.17286189 0.0015821083 -0.16781716 0.15582989
-0.021650402 0.08043967 -0.01917096 0.10629578 0.12165092 0.021621749 -0.13861811 -0.047574937
0.16836207 -0.11270543 0.055833742 -0.06674198 0.088519484 -0.15806758 -0.08068089 0.15141648
0.07982634 -0.07533296 -0.08540235 0.07044239 0.059744906 0.006183667 0.07528494 -0.04485185
0.11269443 -0.065367445 0.004652265 -0.13577728 0.035010703 0.10491478 0.027797721 -0.06909534

functional_1/conv1d_1/convolution/ExpandDims_1:0 f4 [64, 24, 1, 1]
00000000: 1e1e 753e 7ebc 2d3e 6012 043e 5814 083d
00000010: abe1 833e 10d4 063d 3081 733e f000 013e
00000020: bc14 0dbe 800e ed3d 4e86 193e 5ce5 eabd
00000030: d08a 0a3d 0b7c 06be ce41 013e a2af 7bbe
00000040: d6d3 4bbe a5c9 6fbe 8626 5bbe 33ec 62be
00000050: a8d1 2dbe 9423 7bbe 20c6 053e 6453 3a3e
00000060: 4473 65bd 8c94 c53d 26c5 87bd c80b f4bc
00000070: a5be 4ebe d83c 663d 628d 43be b41e f8bd
00000080: 10c0 193e 7eab acbd 7c26 77bd c05d f53b
00000090: 402f 84bb 401f 1a3c 06ca bfbd 54a7 41be
000000a0: f24c e9bd 602c ce3c 884b 263e d866 063e
000000b0: 486a 683e 68a5 20be 941f 563e f4ae ea3d
000000c0: 9c3c f73d f388 9dbd 1e32 593e 7007 023d
000000d0: 4e28 ecbb ffe8 c73d e43c 6a3d 8cce 06be
000000e0: 1470 84bc 94c9 813e aef4 3fbe 9e86 5c3e
000000f0: 2a46 f0bd e9b9 db3d f560 42be 9a05 273e
00000100: 89ab 5f3e dca4 543d 6423 15bb 98b2 423e
00000110: dcb5 bbbb bd39 2d3e bc0f 163e a440 17be
00000120: c7a4 e73d 5f48 c53d 32e0 dfbd f279 d4bd
00000130: d23a 04be 76ef 843e 8e16 3b3e b25a 703d
00000140: 4b13 3abe 4a71 303e 9f78 2bbe b3e2 ac3c
00000150: 5de7 db3d bf13 973d 5e65 403e d5e3 573d
00000160: ee58 06be 10ab 3abe a391 543e d6bc d7bd
00000170: 0e21 1dbe c4e7 f63c 6c00 9b3d db64 6bbd
00000180: b62d 023e 3a63 ab3c 1c60 463e 63be bb3d
00000190: f583 70be 294a 06bb a209 5f3e 9266 1a3e
000001a0: 7370 873b 6d36 7ebd a0ee 573e fc7c 6abe
000001b0: c3d7 82be 6fb2 4abd 0870 443e 77a0 c3bd
000001c0: a854 c63d d650 25bd 8e74 253e 3a99 5c3e
000001d0: 72e9 4c3e 032d 803e 037e 20bc a128 dcbc
000001e0: 8c13 5f3e 0453 10be 440a c3bd 8253 7dbe
000001f0: 1c76 3b3e 809e 5abe 61ab 05be 609a b6bd
00000200: 3172 3fbe efcf 84be 80ae 61bd d4d4 8e3d
00000210: 70b2 f7bc 6811 82bd 3cf5 75be a0b6 1abc
00000220: 21bf 34be ccee 8bbd 3a36 6fbe c410 e73d
00000230: 441d 9e3d f18c 72be 2697 13be b893 8dbd
00000240: 3d7b 683c a205 d83d a2e6 773e 389a 723e
00000250: 8c34 1bbe a661 9a3c 9f9c 033e 9e12 f0bd
00000260: 83bf 4a3e 9dac 5e3e 55ce 6bbe c013 6f3e
00000270: 4bf6 013d 8676 663c afb9 6abe da0c 1b3e
00000280: 03c9 f63d ef94 35bd b384 45be d23e 5abe
00000290: 8645 3abe 9d9d f5bc 37cf 84be 5446 863d
000002a0: 97d9 293d 7f88 7b3e 137d 81be c4b0 e13d
000002b0: bd1d bc3d 7fb3 913d bfda 31be e475 813d
000002c0: 6489 0cbe 8570 ad3d 8e93 13be 37df 28be
000002d0: 70a0 373d a20c cfbc 02af 153e 48e8 843e
000002e0: ed7f 3a3e 7089 ee3d fa72 c83d f7a8 79be
000002f0: 45a5 463d ca6a e23d 9b9b 0bbe cc48 203c
00000300: a55b a33d 6315 16be 4a93 44be a3b3 663e
00000310: 4d51 513e ae63 4fbe 9ac5 fa3d 0f3f 2b3e
00000320: 8903 b23d f189 063d ead5 c0bd 9182 19be
00000330: ef7b e93c 9c94 55be 45e6 aebd 2911 50be
00000340: 0899 77be 5443 193e 0f5c da3d d3b8 0c3e
00000350: e24c 5c3e 2fa8 76bd 81a0 1cbe bbe4 9c3d
00000360: 7ab4 1bbe 0610 b93d cc4a 0cbe 2b11 5a3e
00000370: 6f10 863e 7ea5 ebbd a53a 6e3e 7c4a f1bd
00000380: c379 aebd 6ca1 d8bd 447b 1dbd 10bb d4bd
00000390: 7a63 3cbe 79f2 1abe 9717 7c3e 84f9 663d
000003a0: 21af 0dbe 96d3 2ebe 947b 3cbc 5b5e 813e
000003b0: f857 0bbe 443b c0bb c67b b1bc 8919 223c
000003c0: 80a9 633c 0085 383c 139f 81be 2893 7fbe
000003d0: afdf 6cbe be1e 2d3e aa69 633e 6c52 09be
000003e0: 708e c23d f89a 633d 6971 80be 046a 393e
000003f0: b824 00bd c005 463d a0df 493c 08ad fabc
0.2393727 0.16966435 0.12897635 0.033222526 0.25758108 0.032917082 0.2377975 0.12598014
-0.13777441 0.11575031 0.1499264 -0.11469528 0.03382379 -0.13133256 0.12622759 -0.24578717
-0.19905028 -0.23416765 -0.21401414 -0.22160415 -0.16974509 -0.2452529 0.1306386 0.18195873
-0.05601813 0.09647474 -0.066294 -0.029790774 -0.20189913 0.05621037 -0.19096902 -0.12115231
0.15014672 -0.08431147 -0.060339436 0.0074879825 -0.004033953 0.009406865 -0.09364705 -0.18911487
-0.11391629 0.025167644 0.1623975 0.1312517 0.22696793 -0.15688097 0.20910484 0.11459151
0.12072107 -0.076921366 0.21210524 0.031745374 -0.007206953 0.09761237 0.057186976 -0.13164729
-0.016166724 0.25349104 -0.18745682 0.21535727 -0.11732133 0.10728819 -0.18982299 0.1631073
0.21842779 0.051915035 -0.002275669 0.1901344 -0.0057284664 0.16916557 0.1465444 -0.14770752
0.11310726 0.09632944 -0.10931434 -0.10374822 -0.12913063 0.25963944 0.18270323 0.058680244
-0.18171422 0.17230716 -0.16745232 0.021104192 0.107374884 0.07376813 0.18788669 0.052707512
-0.13119861 -0.18229318 0.20758681 -0.105340645 -0.1534464 0.030139811 0.0756844 -0.05746923
0.1271275 0.020921338 0.193726 0.09167173 -0.23487838 -0.002049098 0.21781018 0.1507819
0.004133278 -0.062063623 0.21087122 -0.2289924 -0.25555238 -0.049486574 0.19183362 -0.095520906
0.09684116 -0.040360294 0.16157743 0.21542826 0.20010927 0.2503434 -0.009795669 -0.026874842
0.217848 -0.14094168 -0.095234424 -0.24738887 0.18306774 -0.21349525 -0.13053657 -0.089161634
-0.18695904 -0.2593989 -0.055098057 0.069741875 -0.030236453 -0.06350976 -0.2401933 -0.009442955
-0.17651035 -0.06832656 -0.2336053 0.11282495 0.07720426 -0.23686577 -0.14413127 -0.06912941
0.014189539 0.105479494 0.24209073 0.23691642 -0.15156764 0.01884539 0.12852715 -0.11722301
0.19799618 0.21745534 -0.23027928 0.23347378 0.031729024 0.014066344 -0.22922395 0.15141621
0.12050059 -0.044331487 -0.19288902 -0.21313027 -0.18190584 -0.029982382 -0.25939342 0.06556383
0.041467275 0.24563788 -0.25290737 0.110200435 0.091853596 0.07114314 -0.17368601 0.06321314
-0.13724285 0.08468727 -0.14411756 -0.164914 0.04483074 -0.025274578 0.14617541 0.25958467
0.18212862 0.11647308 0.09787555 -0.24380861 0.048497457 0.11055525 -0.13633578 0.009782981
0.07976464 -0.14656596 -0.19196811 0.22529463 0.2044117 -0.20252869 0.12244721 0.16723274
0.086920805 0.032846395 -0.09415801 -0.14991213 0.028501479 -0.20857471 -0.08540014 -0.20319046
-0.2417947 0.1496709 0.1066209 0.1374238 0.21513703 -0.060218986 -0.15295602 0.076608144
-0.15205565 0.09036259 -0.13700408 0.21295612 0.26184413 -0.115061745 0.23264559 -0.11781785
-0.08519318 -0.10577664 -0.038447633 -0.10387242 -0.18397322 -0.15131558 0.24618374 0.0563903
-0.13836338 -0.17072901 -0.011504073 0.252673 -0.13607776 -0.00586644 -0.021665465 0.009893783
0.013895392 0.011262178 -0.25316676 -0.2495848 -0.23132204 0.16906258 0.22208276 -0.13410348
0.09499824 0.05556771 -0.25086525 0.18106848 -0.031285018 0.048345327 0.012321383 -0.030600086

const_fold_opt__183 f4 [1, 256, 1]
00000000: fb2a 2e3c 1b91 07bc 0e15 03bc 0000 0000
00000010: abce 38bc 0000 0000 f18c b7bb 6463 b8bb
00000020: 00a2 293c aa15 01bc 0000 0000 46ac 2f3c
00000030: 0000 0000 0000 0000 0000 0000 0000 0000
00000040: c7b0 4a3c 52c3 2c3c b325 b8bb 61e9 79bb
00000050: 0f23 f53b 0000 0000 cab1 81bb 5368 c3bb
00000060: 32f2 913b 0000 0000 7a9f 373c 6199 043c
00000070: ebea 9dbb dc5d c3bb c64d c3bb 0000 0000
00000080: 13d7 b0bb 0000 0000 996f 13bc 8c97 36bb
00000090: ce19 2bbc 013d f6b9 0000 0000 e762 c3bb
000000a0: 0f90 8c3a 6d5d c3bb 19b2 d63b 0000 0000
000000b0: 6080 8fbb be72 1b3c 92a6 eabb 0aa7 bcba
000000c0: 0000 0000 4611 ebbb ade7 42bc 0000 0000
000000d0: 5bda 81bb 938e b03b f16d 07bc 0f84 323c
000000e0: da46 bb3b 0000 0000 0000 0000 0000 0000
000000f0: 0000 0000 bde3 313c 20fd 2a3c 2b73 93bb
00000100: a7ce 103c 0000 0000 0000 0000 1598 bfbb
00000110: c3b3 c639 c4f2 0dbc 8975 80bb 0000 0000
00000120: 0000 0000 dfbb dabb ca71 c3bb ae22 363c
00000130: 9443 293c 0000 0000 7f93 c7bb 03de 383c
00000140: e0a5 083c d1d0 fa3b 37a7 bc39 9e72 31bc
00000150: 0000 0000 fdd3 d93b 2f1e 41bc 39ae 373c
00000160: 0000 0000 2a66 0f3c 2f82 b2bb 0000 0000
00000170: c2dd 9abb 0a7a 06bc 7902 d63b 685a 2e3c
00000180: a7f6 403c 5a5e 9fbb 4b4d 81ba 0000 0000
00000190: 8f9e 183c 006c c3bb 0000 0000 7e30 a53b
000001a0: 0000 0000 0000 0000 cd78 283c 574f 89ba
000001b0: dd42 c6bb 4775 bcbb 0000 0000 8973 1f3c
000001c0: 5b5f c3bb 836a c3bb 8ab4 1abc 0000 0000
000001d0: 0000 0000 0000 0000 0000 0000 3162 d93b
000001e0: 8fa1 70bb 7af0 bfbb 0000 0000 cacf 2dbb
000001f0: dc0d f8ba 7175 ff3b 76e1 c3bb 0000 0000
00000200: 82f8 e0bb 0000 0000 087b e43b 5831 1cbc
00000210: 6b54 a33b 41b2 fdbb 0000 0000 0000 0000
00000220: 432b 083c eb07 0ebb 324e c3bb 13f5 1aba
00000230: b5e9 1e3c a700 47bc 8504 08bc 565a c3bb
00000240: 0000 0000 0000 0000 4e2b 20bc 33ab 8eba
00000250: 6beb 1f3c 78ef c1bb 0000 0000 0000 0000
00000260: 3aa6 1e3c 0000 0000 9b1b fbbb 096b c3bb
00000270: d430 0c3c 2f09 a3bb baa3 473c 98fe cbbb
00000280: 0000 0000 3044 babb 0000 0000 b9f3 4ebc
00000290: 2e3d 09bc f3a5 ec3b 9679 043c 8b6f 333c
000002a0: 0a11 0a3c 6947 4939 e819 fdbb 0000 0000
000002b0: 0000 0000 0000 0000 98f5 b3bb 0000 0000
000002c0: a620 203c 0000 0000 fdcf 4c3c 0000 0000
000002d0: 3736 53bb 8b02 483c 0000 0000 0000 0000
000002e0: 44dd d7bb f6df a53b 0000 0000 3042 1f3c
000002f0: 0000 0000 921b 1a3c 8ad2 1b3c 948c 51bc
00000300: 228e 11bb be35 44bc 0000 0000 0000 0000
00000310: 5e1f f33b dfdf dfbb c9c4 28bc 7e0b 2ebc
00000320: 0000 0000 0000 0000 0000 0000 fa1b 1cbc
00000330: d9ae 9dbb c43d c3bb f8df 373c 0000 0000
00000340: 0000 0000 2f39 03bc 7446 eabb 0b51 263c
00000350: 295a 203c 0000 0000 0000 0000 86e2 09bc
00000360: a432 3dbc 0000 0000 a967 5cba 0000 0000
00000370: 0000 0000 38c3 09bc 0000 0000 08e4 343c
00000380: 0000 0000 fdaa 58bb 0000 0000 1af7 483c
00000390: 0000 0000 0000 0000 a16c c3bb 0000 0000
000003a0: 0000 0000 0000 0000 0000 0000 3b76 e2bb
000003b0: e722 073c 7292 05bc 42c5 8ebb 0000 0000
000003c0: 96fa a9bb 0000 0000 0000 0000 0c60 db3b
000003d0: 0000 0000 0000 0000 0000 0000 7f9e 203c
000003e0: a64c 93ba 2e7f 893b dd96 aabb 0554 2fbc
000003f0: 0000 0000 0e64 2d3c 916d c3bb 0000 0000
0.0106303645 -0.008274342 -0.008000625 0.0 -0.011279742 0.0 -0.0056015183 -0.0056270827
0.010353565 -0.0078787 0.0 0.0107222255 0.0 0.0 0.0 0.0
0.012371249 0.010544615 -0.0056197285 -0.003813349 0.007480986 0.0 -0.0039579617 -0.005963364
0.0044539208 0.0 0.011207456 0.008093209 -0.004819264 -0.0059621166 -0.005960199 0.0
-0.0053967326 0.0 -0.008998775 -0.0027861325 -0.010443164 -0.00046966228 0.0 -0.005962718
0.0010724085 -0.005962065 0.0065519926 0.0 -0.004379317 0.009487806 -0.00716097 -0.0014393043
0.0 -0.00717369 -0.011896056 0.0 -0.0039627976 0.00538809 -0.008265958 0.010895743
0.0057152333 0.0 0.0 0.0 0.0 0.01085752 0.010436326 -0.004499813
0.008838332 0.0 0.0 -0.005846987 0.00037899436 -0.008663837 -0.0039202613 0.0
0.0 -0.006675228 -0.0059644924 0.011116667 0.010331053 0.0 -0.006090581 0.0112834005
0.008340329 0.0076542874 0.0003598274 -0.0108305495 0.0 0.0066475854 -0.0117869815 0.0112109715
0.0 0.008752385 -0.005447648 0.0 -0.0047261426 -0.008207807 0.0065310565 0.010641672
0.0117775565 -0.0048635425 -0.0009864954 0.0 0.009315147 -0.0059638023 0.0 0.005041181
0.0 0.0 0.010282707 -0.0010475916 -0.006050451 -0.0057512852 0.0 0.009732136
-0.005962295 -0.005963625 -0.009442458 0.0 0.0 0.0 0.0 0.00663402
-0.003671739 -0.0058575245 0.0 -0.0026521557 -0.0018925029 0.0077959825 -0.005977805 0.0
-0.006865562 0.0 0.0069726743 -0.009533249 0.0049844286 -0.007742197 0.0 0.0
0.008311096 -0.00216722 -0.0059602493 -0.00059111527 0.009699275 -0.012146152 -0.008301859 -0.0059616966
0.0 0.0 -0.00977595 -0.0010884762 0.009760718 -0.0059184395 0.0 0.0
0.009683186 0.0 -0.007663203 -0.0059636873 0.008556563 -0.00497546 0.012185032 -0.0062254183
0.0 -0.005684398 0.0 -0.01263135 -0.008376403 0.007221931 0.008085629 0.010951887
0.008426914 0.00019195456 -0.0077240355 0.0 0.0 0.0 -0.0054919235 0.0
0.009773409 0.0 0.01250076 0.0 -0.003222836 0.012207638 0.0 0.0
-0.006587656 0.0050620986 0.0 0.00972037 0.0 0.009405987 0.009510646 -0.012789864
-0.0022209962 -0.011975704 0.0 0.0 0.0074195107 -0.0068321074 -0.0103008235 -0.010622857
0.0 0.0 0.0 -0.0095281545 -0.004812103 -0.005958291 0.011222832 0.0
0.0 -0.008009239 -0.007149512 0.010151158 0.009787121 0.0 0.0 -0.008415824
-0.011547718 0.0 -0.00084077806 0.0 0.0 -0.00840836 0.0 0.011040695
0.0 -0.0033060901 0.0 0.012265945 0.0 0.0 -0.0059638773 0.0
0.0 0.0 0.0 -0.006911067 0.008248067 -0.008152591 -0.004357011 0.0
-0.005187343 0.0 0.0 0.0066947993 0.0 0.0 0.0 0.009803413
-0.0011238053 0.004196069 -0.0052059726 -0.010701184 0.0 0.010582937 -0.005963989 0.0

const_fold_opt__182 f4 [1, 256, 1]
00000000: 00be 37bc fecf 0d3c a2ea 09bc 0000 0000
00000010: 695a c3bb 124c 1d3c a31d 0d3c 095e c3ba
00000020: 0000 0000 298c 843b b8a8 7e3b 0000 0000
00000030: 31ff 063c d191 81ba 5243 e5ba 0000 0000
00000040: 93e5 07bc 2c05 b13b fe49 283c eebb 153c
00000050: 0000 0000 ab65 913b 0000 0000 3e3a d3b8
00000060: 047c fbbb 0000 0000 5f37 d33b ea72 30bc
00000070: d89e b4bb 0000 0000 c702 243c 0000 0000
00000080: 4469 83ba 0000 0000 6997 1fbc 0000 0000
00000090: 0000 0000 cca7 f4ba 87cb 0abb 7804 44bc
000000a0: 60ad ee3b 0000 0000 e7ce 16bc 0000 0000
000000b0: 0db8 053c 2af8 23bc a471 023c d8e9 ec3b
000000c0: 0000 0000 73f3 2dbc 18e5 2abc 646d c3bb
000000d0: c08f cabb da45 1abc 46fb 133c 0000 0000
000000e0: 0000 0000 0000 0000 0000 0000 0000 0000
000000f0: cf09 42bc 6a47 803b 9c08 1039 0000 0000
00000100: 0000 0000 0000 0000 0000 0000 0000 0000
00000110: c5c6 aabb 0000 0000 fcb8 38bc 0000 0000
00000120: 0000 0000 6fce 2fbb f80c 273c 0000 0000
00000130: 0000 0000 0000 0000 0000 0000 2f72 cebb
00000140: dd74 a5bb 5183 23bc 8732 f63b 0000 0000
00000150: af53 2dbb 86f0 0abc 97c4 bfb9 9af0 a7bb
00000160: 3e07 263c af8f d0ba ae2b 2cba 62b3 34bc
00000170: a7a1 edbb 0000 0000 168e 273c 88c2 d03b
00000180: 0000 0000 4903 233c c0a4 0cbc 0000 0000
00000190: a5af fa3b 1e79 c33a 55a2 7fbb 0000 0000
000001a0: 0000 0000 0520 0c3c 713d fa3b f645 b5bb
000001b0: 0000 0000 15df 7b3b 0000 0000 f0b5 2a3b
000001c0: ae51 193c 8353 cd3b 0000 0000 4e06 a2bb
000001d0: 55ee 4abc c59b 2c3c eec7 a13b 99b0 a8bb
000001e0: 4ba1 7cb9 08e6 31bc ac6b 8c3b a5a1 5c3a
000001f0: 0000 0000 e6dc 13bb 0000 0000 3f26 d7bb
00000200: 8ac2 25bc 0e26 913b 0000 0000 070f fd3b
00000210: 0000 0000 1453 1a3c 0000 0000 6e17 113c
00000220: a97c 70bc 2ce2 fdbb d26d a8bb 064a bd3b
00000230: 79c5 1e3c 4022 db3b 0000 0000 0000 0000
00000240: 409c 27bc 0000 0000 c2b3 1abc f997 dfbb
00000250: 0000 0000 63e3 00bc 0000 0000 0000 0000
00000260: 0000 0000 0000 0000 ae9b 833b 33f9 b93b
00000270: 0000 0000 0e3c d83b 05a5 9a3a 516d 07bc
00000280: a9a2 c93b 0000 0000 0000 0000 0000 0000
00000290: d6ad f13b 0000 0000 2984 27bc 7fa4 093c
000002a0: 0000 0000 0000 0000 80c7 fa3b 0000 0000
000002b0: 1573 c3bb 2969 d73b fccb 943a 0000 0000
000002c0: 0000 0000 0000 0000 0000 0000 6ee2 47bc
000002d0: 7009 f838 a721 8e3b 0000 0000 0000 0000
000002e0: 6337 2e3c 0000 0000 0000 0000 42bf 103c
000002f0: 38e3 1f3c e3d4 0d3c 4662 10bc 0000 0000
00000300: c871 9b3b 03b8 d9bb 4a0b 043c cddd ea3b
00000310: 0000 0000 3128 8a3b 58fc 1abc b507 5ebb
00000320: 85bf 753b 0000 0000 0000 0000 e13b c03b
00000330: 2587 863b ed6b 133c 511b 3cbc 1e72 a9bb
00000340: 0000 0000 0000 0000 0000 0000 0000 0000
00000350: 8dfe 833b db2c 51ba 38c1 143b 6250 b4ba
00000360: f71f 9fbb f3a7 b4bb 1a71 ffbb 15ed 173c
00000370: 8269 e9bb 0000 0000 e6cb 2a3b 0000 0000
00000380: 0000 0000 9fae 1c39 0000 0000 8006 a0bb
00000390: 0000 0000 a42a abbb b947 453a 5857 2c3c
000003a0: 0000 0000 b9c7 113c 0000 0000 0000 0000
000003b0: e3ab 20bc 0825 a03b f55b 1cbc 0cae bdbb
000003c0: 0f60 303b 0000 0000 cd5f fa3b d08a adbb
000003d0: d84b 46bc 1e40 0a3c 931b 4cbc 0000 0000
000003e0: 0000 0000 6ecc 213b 0000 0000 a529 813b
000003f0: 0000 0000 ed45 363c 6ab4 223c 0ff6 f03b
-0.011214733 0.008655546 -0.008417757 0.0 -0.0059617055 0.009600656 0.008613023 -0.0014905344
0.0 0.0040450287 0.0038857888 0.0 0.008239553 -0.0009885376 -0.0017491376 0.0
-0.008294481 0.005402228 0.010271547 0.009139044 0.0 0.0044371686 0.0 -0.000100721125
-0.007674696 0.0 0.0064458097 -0.010769585 -0.0055120997 0.0 0.010010428 0.0
-0.0010025878 0.0 -0.009740689 0.0 0.0 -0.001866573 -0.002117844 -0.011963956
0.0072838515 0.0 -0.009204603 0.0 0.008161557 -0.010007897 0.007961664 0.007230025
0.0 -0.010617125 -0.010430597 -0.005963968 -0.006181687 -0.009416068 0.009032076 0.0
0.0 0.0 0.0 0.0 -0.011843159 0.003914763 0.00013736117 0.0
0.0 0.0 0.0 0.0 -0.0052116835 0.0 -0.011274572 0.0
0.0 -0.0026825925 0.010195963 0.0 0.0 0.0 0.0 -0.006300233
-0.0050493316 -0.009980039 0.0075133475 0.0 -0.0026447584 -0.008480197 -0.0003657683 -0.0051251175
0.010133563 -0.0015911962 -0.0006567788 -0.011029096 -0.0072519365 0.0 0.010226747 0.006370846
0.0 0.009949514 -0.008584201 0.0 0.007650333 0.0014913415 -0.003900667 0.0
0.0 0.008552556 0.007636719 -0.0055320216 0.0 0.0038432528 0.0 0.0026048385
0.009357853 0.006266059 0.0 -0.0049445992 -0.012385924 0.010535185 0.0049371636 -0.005148005
-0.00024092679 -0.010858066 0.0042852964 0.0008416421 0.0 -0.0022562086 0.0 -0.0065658386
-0.0101171825 0.0044295853 0.0 0.0077227387 0.0 0.009419221 0.0 0.008855684
-0.014678159 -0.007747909 -0.0051400447 0.0057766465 0.009690636 0.0066874325 0.0 0.0
-0.010230124 0.0 -0.009442272 -0.0068235365 0.0 -0.007866713 0.0 0.0
0.0 0.0 0.004016361 0.005675459 0.0 0.006598956 0.0011798447 -0.008265809
0.006153424 0.0 0.0 0.0 0.007375459 0.0 -0.0102243805 0.008401035
0.0 0.0 0.007653177 0.0 -0.0059646466 0.0065738154 0.0011352296 0.0
0.0 0.0 0.0 -0.012199981 0.000118273194 0.0043375078 0.0 0.0
0.010633322 0.0 0.0 0.008834662 0.009758763 0.008656713 -0.008812493 0.0
0.0047437884 -0.0066442504 0.008059332 0.007167554 0.0 0.004216217 -0.0094595775 -0.0033879105
0.0037498188 0.0 0.0 0.005866513 0.004105466 0.0089978995 -0.011481122 -0.0051710745
0.0 0.0 0.0 0.0 0.0040281476 -0.0007979401 0.0022698175 -0.0013756866
-0.0048561054 -0.005513185 -0.007795465 0.009272833 -0.007123173 0.0 0.0026061474 0.0
0.0 0.00014942371 0.0 -0.0048835874 0.0 -0.005223589 0.0007525641 0.010518871
0.0 0.008897715 0.0 0.0 -0.009806606 0.004887227 -0.009543409 -0.0057885703
0.0026912724 0.0 0.007640815 -0.0052960888 -0.0121030435 0.008438138 -0.012457746 0.0
0.0 0.00246885 0.0 0.003941732 0.0 0.01112507 0.009930709 0.007353551

const_fold_opt__176 f4 [1, 64, 1]
00000000: 0000 0000 0000 0000 ca07 d2bb c1a5 9eba
00000010: 1c94 393a 0000 0000 24e3 10bc a0fd c53b
00000020: f8ac 053c c0de 3d3a 0000 0000 3b83 40bb
00000030: b9fa 4cbb 40b1 24bc 0000 0000 0000 0000
00000040: 088b 4bbb ef36 42bc 2e37 453b c8bf 973b
00000050: 0000 0000 b5da 10bb 0000 0000 0f97 443a
00000060: 0000 0000 0000 0000 3b83 713b 0000 0000
00000070: 0000 0000 76bc 71ba 7e0c 063c 6a22 8f3b
00000080: 10d0 b1ba a5ac bcbb 25cb ddba 0000 0000
00000090: 0000 0000 0000 0000 caa0 3ebc 0000 0000
000000a0: 0000 0000 0000 0000 0000 0000 0000 0000
000000b0: 2064 143b 0000 0000 15da ea3a 5bb9 b53b
000000c0: bda5 8fbc f96c 02bc d10c 093b 0000 0000
000000d0: 44d6 a13b d6ee e43b 0000 0000 ff33 fabb
000000e0: 0000 0000 0000 0000 9c35 49bc f5e5 8938
000000f0: b901 1e3b 74d0 e0bb 4061 19bb c050 c8ba
0.0 0.0 -0.00640962 -0.0012103842 0.000707926 0.0 -0.008843217 0.0060421973
0.008158915 0.000724297 0.0 -0.0029375094 -0.0031277372 -0.010052025 0.0 0.0
-0.003105821 -0.0118539175 0.0030092704 0.0046310164 0.0 -0.0022103016 0.0 0.0007499316
0.0 0.0 0.00368519 0.0 0.0 -0.0009221503 0.008181689 0.004368116
-0.0013566036 -0.0057578855 -0.0016921504 0.0 0.0 0.0 -0.011635015 0.0
0.0 0.0 0.0 0.0 0.0022642687 0.0 0.0017917777 0.0055457777
-0.017535085 -0.007960551 0.002091218 0.0 0.0049388725 0.0069864793 0.0 -0.007635593
0.0 0.0 -0.012280848 6.575502e-05 0.0024109914 -0.006860787 -0.0023403913 -0.0015282854
