Unity_diploma_Impl/Assets/LPNN/Models/lightprobe_model.onnx (onnx, 837079 bytes, 11 tensors)

functional_1/conv1d_5_1/convolution/ExpandDims_1:0 f4 [1, 128, 1, 1]
000000 f1 4d bd bc 71 8e 55 be 99 f0 50 be f0 f4 7b 3d
       -0.023108454 -0.20855118 -0.2040428 0.061512887
000010 bc b3 10 3e 3a 62 ce bd b8 96 f4 bd 54 3f d6 bc
       0.14131063 -0.10077329 -0.1194281 -0.026153244
000020 42 84 52 bd 86 cc ba bc 58 d9 e7 bd 80 35 cd bd
       -0.051395662 -0.022802602 -0.11320752 -0.1001997
000030 22 cf 81 3d c8 4d c1 bd 14 6e 41 be 64 99 08 3e
       0.063383356 -0.09438664 -0.18889648 0.13339764
000040 61 00 60 be 65 bf ca bd c0 19 75 bb 30 a6 43 bd
       -0.21875145 -0.09899787 -0.0037399381 -0.04776591
000050 42 8a 09 be 3e d2 f1 3d 0b 6f f2 bc d8 4a 83 3d
       -0.13431647 0.11807679 -0.029593965 0.0641076
000060 10 3f 5e 3d 01 5d 41 3e 60 a3 96 3d ce 22 04 3e
       0.05425936 0.18883134 0.0735538 0.12903902
000070 a4 9e ad 3d a5 d0 73 3d ad 67 5a be ff c1 9a 3d
       0.08477524 0.05952515 -0.21328612 0.07556533
000080 0d 43 da 3d 52 c5 1c 3e d8 26 2c 3d 9d 9b e6 bd
       0.1065732 0.15309647 0.04202923 -0.1126015
000090 c9 d1 ea bd b6 3e 2d 3e f9 24 5f be b0 27 35 bd
       -0.114657946 0.16918454 -0.21791448 -0.044227302
0000a0 86 ea da 3d 34 a8 bb 3d 00 62 68 bb 00 a5 d5 ba
       0.10689263 0.091629416 -0.0035458803 -0.0016299784
0000b0 41 d4 42 3e b3 bd 4e 3e 5a 89 cc bc 48 db 3a 3d
       0.19026281 0.20189552 -0.024967838 0.04561928
0000c0 e4 72 5a be 2f 1f 05 be d2 0d cb 3d d8 76 c3 3d
       -0.2133289 -0.13000177 0.099147454 0.09544152
0000d0 d4 d4 1b be 50 e9 f5 bc 40 55 0c be 9b da 8a bd
       -0.15217906 -0.030018479 -0.13704395 -0.06779977
0000e0 6b 0d f6 3d 26 1b 29 3e a3 c6 33 be 64 68 cc 3d
       0.12014278 0.16514263 -0.17556243 0.099808484
0000f0 b9 8c 06 3e 90 f5 41 be 40 8a f7 bb a8 fa 0a be
       0.13139619 -0.18941331 -0.0075543225 -0.1357218
000100 bc 19 94 bb a1 b0 60 bd ad d4 1b be 24 fc 9e 3d
       -0.0045196693 -0.054855946 -0.15217848 0.07762936
000110 06 c4 18 bd 0e 0f 1e 3e ce e9 38 3e ac dc 2a bd
       -0.037296318 0.1543543 0.1805794 -0.041714355
000120 ef 7d b8 3d c4 83 17 3e 52 b1 34 3d ee 5d 24 3e
       0.09008395 0.14796358 0.04411442 0.16051456
000130 fa 36 39 3e 81 41 05 3e 74 48 23 bd 40 a3 99 bc
       0.18087378 0.13013269 -0.03986402 -0.018754601
000140 c3 33 45 be ec 39 42 be a8 d9 1c be 58 36 c1 3c
       -0.19258027 -0.18967408 -0.15317404 0.023585483
000150 7e e8 3b 3e 10 fb 58 be 20 46 50 be 8a 02 52 3e
       0.18350407 -0.21189523 -0.2033925 0.20508781
000160 57 77 42 bb 60 c5 5c bd a6 c8 0a be 0a ab 94 bd
       -0.0029673183 -0.05389917 -0.13553104 -0.072591856
000170 82 50 83 bd 21 b3 a3 3c cc 7d c7 3d ba 9e 81 bd
       -0.0641184 0.019982876 0.09740791 -0.06329103
000180 10 a5 36 bd c3 15 28 be a6 ed 40 be 05 b7 55 3e
       -0.04459101 -0.16414551 -0.18840656 0.20870598
000190 dc 44 44 3e b0 fb 20 be c1 7c 35 be f1 2a ee bd
       0.19166893 -0.15721011 -0.17723371 -0.11629284
0001a0 c3 40 e1 bd 22 01 7c bd 1f 46 44 3e c0 59 50 be
       -0.109986804 -0.061524518 0.19167374 -0.20346737
0001b0 b6 f5 92 3c 3a ae 34 be 1b 93 2b 3e 53 17 49 be
       0.01793943 -0.17644587 0.16755335 -0.19637804
0001c0 b1 82 2b ba 2b 5b 02 3d 2c 08 3f 3e 75 9a 14 be
       -0.0006542607 0.031825226 0.18655461 -0.14512046
0001d0 af 36 89 bd 6c 3d 33 3e 86 7a 53 3e a0 db 8b bc
       -0.06699883 0.175039 0.20652208 -0.017072499
0001e0 9b 54 9b bc f8 b9 25 be ce bd 26 be b4 36 3b bd
       -0.018961241 -0.16184223 -0.16283342 -0.045706466
0001f0 9d 84 9c bd 34 62 54 be 0a 2d 55 bd 63 09 56 bd
       -0.076424815 -0.20740587 -0.052044906 -0.052255046

functional_1/conv1d_4_1/convolution/ExpandDims_1:0 f4 [128, 256, 1, 1]
000000 68 50 cc 3d 78 5a f0 bd 62 63 46 3d f5 cc cb bd
       0.09976274 -0.117360055 0.048434623 -0.09951202
000010 6d 69 a9 3d 23 43 af bd a5 a1 bc bc ee 81 3b 3d
       0.082720615 -0.08557727 -0.023026297 0.045778207
000020 dc e2 c3 3d e4 db 8c 3d 30 e5 6e bd 06 c8 62 bb
       0.09564754 0.06877878 -0.05832404 -0.0034604087
000030 39 7c c5 3d b8 6d f4 bd 78 48 21 3d 20 bc 24 3c
       0.09642834 -0.1193499 0.039375752 0.010054618
000040 5b e0 c9 bd b7 60 c6 3d 5d e3 9f 3d 00 6a de bc
       -0.098572455 0.09686416 0.07807038 -0.027150154
000050 f8 64 be bd 51 67 8e 3d 09 a3 da bd 44 86 00 3d
       -0.09296602 0.069533 -0.10675628 0.031378046
000060 f4 64 e6 3d c0 19 f8 3c 64 81 ee 3d c2 d6 ad bc
       0.11249724 0.030285716 0.11645773 -0.021220569
000070 04 6b 9c 3d 64 33 87 3d e7 21 33 3d 28 af 97 3d
       0.07637599 0.06601599 0.043733504 0.07406455
000080 6f e7 75 3d e4 46 93 bd f0 7d 24 bd 1c 4d 8a 3d
       0.060035165 -0.07191256 -0.040159166 0.06752989
000090 1f 48 4b 3d 22 3c e7 bd 98 9c 26 bd fb 5d e6 bd
       0.049629327 -0.11290766 -0.040676683 -0.11248394
0000a0 64 b2 f9 bd 98 3d 64 bd f2 33 c1 bc 67 e8 c7 3c
       -0.121922284 -0.055722803 -0.02358434 0.02440281
0000b0 20 df 87 bd 11 9a 85 bd c0 ad 14 3d d4 37 fa 3d
       -0.066343546 -0.065235265 0.036298513 0.122176796
0000c0 49 bf 67 3d 58 11 a5 bd 08 b5 82 3d 6f 41 64 bd
       0.056578908 -0.08059949 0.06382185 -0.055726465
0000d0 a0 5a d2 3c 50 1f e6 bd 80 93 26 bb 35 02 20 3d
       0.025677979 -0.11236441 -0.0025417507 0.039064605
0000e0 4f a2 e9 bd d5 e9 2f bd a0 26 6b 3c 8e c3 9d 3d
       -0.11407911 -0.04294761 0.014352471 0.07703315
0000f0 30 6b dc 3d 20 65 b4 bc 30 4f 8c 3d 10 50 b8 bd
       0.10762632 -0.022020876 0.06851041 -0.08999646
000100 0e 41 b9 3d 81 16 a5 3d e0 e6 a4 3d 40 6f af 3b
       0.09045611 0.08060933 0.080518484 0.005353838
000110 71 ac bd bd 2f c1 9f 3d cd 59 90 3d f9 fb 60 3d
       -0.09261406 0.07800519 0.07048378 0.0549278
000120 74 e8 f4 bd 57 42 3e 3d a0 f8 c4 bd 80 81 2f 3c
       -0.119583994 0.046449985 -0.09617734 0.010712028
000130 f3 6b 70 3b a8 29 ac bd 50 7d a4 bd 7f af df bc
       0.0036685436 -0.08406383 -0.08031714 -0.027305363
000140 c0 bf a1 3c 00 8c e4 39 ed 84 33 3d 80 ef f5 3d
       0.019744754 0.00043591857 0.04382794 0.120085716
000150 83 bc 70 bd 83 5b b0 3d 44 09 94 bd a9 27 88 bd
       -0.05877353 0.086112045 -0.0722833 -0.066481896
000160 5f b3 66 bd 9d b4 0f bd 60 8e 5f 3d 4d 94 85 bd
       -0.056323405 -0.035084356 0.05457914 -0.06522427
000170 91 b8 d9 3d 41 ce d8 bd b0 77 94 3c f8 d4 70 bd
       0.106309064 -0.10586215 0.018123478 -0.058796853
000180 b4 22 72 3d 48 8c 45 bd 80 6c cc 3c c8 32 8d 3d
       0.059115127 -0.048229486 0.02495408 0.068944514
000190 41 2d 24 3d bc 39 f0 3d 00 8c 68 bb a0 81 d1 3d
       0.04008222 0.11729762 -0.0035483837 0.10229802
0001a0 00 bc 80 ba 5b cb a5 bc f3 4e d9 3d 88 03 eb 3d
       -0.0009821653 -0.020238569 0.106107615 0.11475283
0001b0 c0 9c b5 bb 0a 3d 33 bd c4 5f f3 bc e7 cb 6f bd
       -0.0055423677 -0.043759383 -0.02970875 -0.058544066
0001c0 f3 7b 8f bd 8a ca 3c 3c 4f e5 79 3a e8 4d 08 3d
       -0.07006063 0.011522898 0.0009532766 0.033277422
0001d0 02 21 13 3d d7 32 d2 bd a4 36 ae 3d 80 81 d1 bd
       0.03592015 -0.10263603 0.085065156 -0.10229778
0001e0 74 6d bd 3d 60 76 b7 3c e5 ab 2a bd 20 0c 29 bd
       0.09249392 0.022395313 -0.041667838 -0.04127133
0001f0 d8 31 b1 bd d4 91 9f bd f8 9c be 3d a0 be 2a 3d
       -0.08652085 -0.077914864 0.09307283 0.0416857
000200 10 6a 86 3c 4c 12 b0 bd 00 36 ec 3b 1a f0 b5 3c
       0.016407996 -0.0859724 0.0072085857 0.022209216
000210 72 1f aa 3c 20 e6 23 3d 8c 20 af 3d 2c 37 87 3d
       0.020766947 0.040014386 0.0855113 0.0660232
000220 98 33 db 3d f1 e3 f3 bc 5c 5a 98 bd c3 9b b8 bd
       0.107032 -0.029771777 -0.0743911 -0.09014084
000230 7c eb b0 3d 14 4e af bd f7 36 ee 3d d2 92 a9 bd
       0.08638665 -0.08559814 0.116315775 -0.08279957
000240 44 6f 8f 3c 64 04 f8 3d d2 e6 de bd 69 7c 6c 3c
       0.01750911 0.121102124 -0.10883869 0.014433959
000250 00 7b 9e bc f5 8a 69 bd 51 fd e4 3d 30 3a e5 3c
       -0.01934576 -0.057017285 0.11181129 0.027981848
000260 00 f1 af bc 93 62 39 bd ea 25 f2 3d d4 d7 b9 bd
       -0.021477222 -0.045260023 0.11823638 -0.09074369
000270 ca b3 91 bd 74 ac df 3d 1a 2b 26 bd a8 31 af bd
       -0.0711437 0.10921565 -0.04056845 -0.08554393
000280 71 c9 c8 bd c9 08 63 bd 78 d6 08 bd 20 bc 95 bc
       -0.09804047 -0.0554283 -0.03340766 -0.018278182
000290 20 32 d2 3d 90 2d 68 bd 18 e7 97 3c 80 69 9d 3d
       0.10263467 -0.056684077 0.018542811 0.07686138
0002a0 f4 8e ca bc 96 30 e0 3b 15 e0 b8 bc 22 4b 08 bd
       -0.024726368 0.0068417294 -0.022567788 -0.033274777
0002b0 6d 68 84 bd e4 24 92 bd 48 e3 01 bd 98 46 84 bd
       -0.0646523 -0.071359426 -0.031710893 -0.06458777
0002c0 a1 b6 91 bd 50 c0 44 3d 4f 40 87 bd 4f 1b 81 3d
       -0.07114912 0.048034966 -0.06604063 0.06304037
0002d0 2e bc 41 bd c4 c6 a8 bc 60 5e c2 3d 10 9b 27 bd
       -0.047298603 -0.020602591 0.09490657 -0.040919363
0002e0 c8 40 cb 3b 8c 88 cb 3d 83 a3 0d ba cc e9 84 bd
       0.006202791 0.099381536 -0.0005403088 -0.06489906
0002f0 03 3c e3 bb 22 eb eb bd e4 ff f2 3d 08 78 74 3d
       -0.006934644 -0.115194574 0.118652135 0.059684783
000300 dd 4a ce 3d 95 83 e7 bd a8 1e 70 bd 29 9f a0 bc
       0.10072873 -0.11304394 -0.058622986 -0.019607143
000310 ef aa 7d bd 3b 23 00 3e a0 31 b2 bd 1f 31 78 3d
       -0.061930593 0.1251344 -0.087008715 0.06059372
000320 e0 5a 91 bd 54 03 eb 3d e2 8e 1f 3d bd fa ee bd
       -0.07097411 0.11475244 0.038954623 -0.11668918
000330 60 01 71 bd ce 07 b3 3b 38 1e d6 bd c0 9e 78 bd
       -0.058839202 0.005463577 -0.104549825 -0.06069827
000340 7f f4 8f bb b7 20 e5 3d 0b 4b 9c 3d 73 59 80 bc
       -0.00439316 0.111878805 0.07631501 -0.015667653
000350 90 cc a0 bc cb 2a b5 bd fc 48 99 bd da 5d df 3b
       -0.019628793 -0.08846053 -0.07484624 0.006816608
000360 1e 32 e0 bd ac 4f e7 bd 9c a3 92 3d e9 cc 43 3d
       -0.10947059 -0.11294493 0.07160112 0.04780284
000370 3b 08 ca 3d 7b 6c 20 3d 81 a0 62 3d 06 71 87 bd
       0.09864851 0.039165955 0.05532885 -0.066133544
000380 2b f1 79 bd 99 48 55 bd b1 dc 57 3d 70 b8 11 bd
       -0.06102101 -0.052071188 0.052700702 -0.035576284
000390 56 32 c6 3d 80 de 79 3c 2e 5c a9 3d 35 87 02 3e
       0.096775696 0.015250802 0.08269535 0.1274689
0003a0 00 29 c7 3b ec 4f d5 3d e8 6a 42 bd f9 bb 3a 3d
       0.0060778856 0.104156345 -0.047465235 0.04558942
0003b0 00 67 c7 3b 60 39 60 bc cd 64 b9 bd bc f9 d4 bd
       0.0060852766 -0.013685554 -0.09052429 -0.103991956
0003c0 2b 1c 2c 3c f8 a6 aa 3d 70 21 4a bd 80 dc 07 3b
       0.010504763 0.08332628 -0.049348295 0.0020730793
0003d0 b2 a0 0a 3d 80 73 e7 3d 32 48 b3 bd d0 f8 c2 bd
       0.033844657 0.11301327 -0.087540045 -0.095201135
0003e0 b0 33 ef bd e4 6a 9f 3d 79 a5 ac bd f2 b6 b2 bd
       -0.116797805 0.0778406 -0.08429999 -0.087263
0003f0 d8 4b 92 bd a0 ab f2 3d 88 92 d5 bd 60 bc a9 3c
       -0.07143372 0.11849141 -0.10428339 0.020719707

functional_1/conv1d_3_1/convolution/ExpandDims_1:0 f4 [256, 512, 1, 1]
000000 76 77 63 3d d5 34 96 bd d6 4c 24 3d 63 f2 b4 bd
       0.05553385 -0.07334296 0.04011234 -0.08835294
000010 d0 9c 8e 3c 8c 1d 82 bc aa a2 3b 3d a2 78 67 3d
       0.017408758 -0.01588323 0.045809425 0.05651153
000020 55 d4 88 3d 60 b0 13 3c 3b c9 99 bd d3 22 31 bd
       0.06681124 0.009014219 -0.07509085 -0.0432461
000030 40 dc 74 bb ce 1a 6c 3d 52 9c 6a 3d 50 05 c8 3c
       -0.0037362725 0.05764275 0.057277985 0.024416596
000040 ec ef 2a bd c8 71 73 bd b1 20 1e bd 04 d0 e4 3c
       -0.041732714 -0.059434682 -0.038605396 0.02793122
000050 d0 75 e5 3b e8 0e 30 bc 14 33 76 bd cb e8 a0 bd
       0.0070025697 -0.010745741 -0.060107306 -0.07856902
000060 3a d0 7c 3d 04 e2 96 bc 28 96 39 3c 9d 71 00 bd
       0.061722018 -0.01841832 0.011327304 -0.03135835
000070 37 f8 b3 bd 93 7c 93 bd 50 ed cb 3b 24 c4 a8 bc
       -0.087875776 -0.07201495 0.006223358 -0.02060134
000080 b0 10 8c bd b0 47 38 bd 38 5c e3 3c 97 0b 37 bd
       -0.068391204 -0.04499024 0.027753934 -0.044688787
000090 0a a6 16 3d e8 e8 69 3c 32 10 25 3d b6 e9 dd bc
       0.03677944 0.014276721 0.04029865 -0.027088981
0000a0 6e 71 49 3d 20 3a 1e bd 73 d7 95 3d b8 9c 0e 3c
       0.04918044 -0.03862965 0.07316484 0.008704357
0000b0 40 50 ca 3c 10 d4 3e 3c cf 3b 3f bd 82 27 af bd
       0.02469647 0.011647239 -0.046687897 -0.085524574
0000c0 8a 9b 74 3d 82 56 50 3d ba 75 6d bd c1 8f 86 3d
       0.059718646 0.05086375 -0.0579736 0.06570388
0000d0 cf 8d ae 3d 91 72 88 3d d1 eb 9e 3d 30 52 7d 3c
       0.085231416 0.06662477 0.07759822 0.01546149
0000e0 bc 6a 1f bd 68 09 51 bc 16 4a 5b 3d e0 ee 13 bb
       -0.03892015 -0.01275859 0.05353745 -0.00225728
0000f0 09 6c 99 bd d4 ef 6e bd b4 85 c8 bc c9 49 a1 3d
       -0.07491309 -0.058334187 -0.024477817 0.078754015
000100 72 18 23 bd f6 77 2c 3d 58 75 a3 3c be da 97 bd
       -0.039818235 0.04210659 0.019953415 -0.07414769
000110 66 33 fc bc ea 0e 96 bd 49 a6 8c bd b4 da ee 3c
       -0.030786227 -0.073270634 -0.06867654 0.02915702
000120 f2 f7 24 3d ef 05 91 bd 1e d8 05 3d 87 82 9b 3d
       0.04027552 -0.0708121 0.03267681 0.075932555
000130 7d cf 94 bd 36 7c b0 bd 42 0c e5 bc c1 84 21 bd
       -0.07266138 -0.08617441 -0.027959947 -0.039433245
000140 3c 22 5e bd 9e e3 3d 3d d8 69 20 bc 89 c1 7f bd
       -0.054231867 0.04635965 -0.00979086 -0.06244043
000150 00 33 cb ba b8 e6 48 3c ed e6 86 3d 3c 08 93 bd
       -0.001550287 0.012262039 0.06587014 -0.07179305
000160 18 1a 14 bc b1 fb 96 3d 4c 3b 8a bc 5c 65 20 bd
       -0.009039424 0.07372225 -0.016873978 -0.039159164
000170 1a 8e 5d 3d 5a c8 f5 bc 12 8a 8b bd 72 27 99 bd
       0.054090597 -0.030002762 -0.06813444 -0.07478227
000180 3d ad 9f 3d 84 bb 91 bd 74 d5 c7 3c 14 f5 a4 bc
       0.077967145 -0.07115844 0.024393775 -0.020136394
000190 60 bb db 3b e8 f9 80 bd 10 a2 c9 bb 7d e8 0a bd
       0.0067056865 -0.06297666 -0.0061533526 -0.033913124
0001a0 a8 c8 b3 bc b0 b3 5f 3c 30 6e 93 bd 76 30 67 3d
       -0.021946266 0.013653681 -0.07198751 0.0564427
0001b0 fc e6 b9 bc 92 3a 2a 3d 89 85 06 bd c4 8e 9c bd
       -0.02269315 0.041559763 -0.032842193 -0.07644418
0001c0 6f 5d 40 bd 20 51 70 bb 80 72 b6 3a 80 86 7b ba
       -0.046964105 -0.0036669448 0.0013919622 -0.0009594932
0001d0 a0 16 b1 bd e0 86 15 bb 96 41 24 3d db 42 48 bd
       -0.086468935 -0.0022815987 0.04010161 -0.048891883
0001e0 f2 8c 59 bd 58 18 47 3c e6 40 93 bd d8 f4 e7 3c
       -0.05311293 0.0121518 -0.07190113 0.028314993
0001f0 96 a6 4f bd b0 d8 f6 bb 83 ff 8f 3d 66 de 15 3d
       -0.050695978 -0.0075331554 0.07031157 0.03658905
000200 83 c9 89 3d 5d a7 a2 bd 28 80 32 bc e6 51 4e 3d
       0.067278884 -0.07942078 -0.010894813 0.050371073
000210 6b 13 53 bd f4 bf 92 bd 55 fd a4 3d 74 ac 89 bc
       -0.05153219 -0.071655184 0.08056132 -0.016805865
000220 b2 5b 84 bd da 00 58 3d da a6 a9 bd 4f e1 96 3d
       -0.06462802 0.052735187 -0.082837775 0.07367193
000230 25 6c 93 bd 1e 61 aa bd 81 7c 98 bd 98 52 6d bd
       -0.07198361 -0.08319305 -0.07445622 -0.057940096
000240 82 f3 4b 3d 4b 06 18 bd 2a a4 44 3d f2 54 6b bd
       0.049792774 -0.037115376 0.04800812 -0.057454057
000250 a9 e7 99 3d 86 4f 63 3d 31 06 9d bd a2 ab 38 3d
       0.07514889 0.05549576 -0.076671965 0.045085557
000260 3c 99 e5 bc 0a 42 55 3d a7 03 a7 3d fb 74 ab bd
       -0.02802717 0.052064933 0.081549935 -0.08371922
000270 ea 9d 72 3d fd 09 0f bd f9 6a a6 3d 49 d2 7f bd
       0.05923263 -0.034921635 0.08125872 -0.062456403
000280 9a 7c 1c 3d 0b 3f 4a bd a5 6a 5a bd 26 d6 6e 3d
       0.038204767 -0.04937653 -0.05332436 0.058309697
000290 20 8f 45 bd 7d 6a 8a 3d 21 22 44 bd 38 d9 97 bd
       -0.048232198 0.06758592 -0.04788411 -0.07414478
0002a0 e6 e2 63 3d c0 bc 5d 3c 80 84 2b bb cf 50 9a 3d
       0.05563631 0.013533771 -0.0026171505 0.07534944
0002b0 e6 fe 27 3d 86 0e 12 3d d2 14 38 bd 8d 68 87 3d
       0.041014574 0.035658382 -0.04494173 0.06611738
0002c0 72 a3 d8 bc 04 b2 d7 bc 6c 47 5e bd 7a 7d 11 3d
       -0.026445124 -0.026330002 -0.054267332 0.035520054
0002d0 58 53 47 bd 12 eb 55 3d 2a 65 20 3d ee af 0c 3d
       -0.048663467 0.052226134 0.039158978 0.034347467
0002e0 1a 6b 89 bd 00 3f a6 39 06 9c 4e 3d 18 b8 02 bc
       -0.06709881 0.00031708926 0.050441764 -0.007978462
0002f0 60 0c 95 3b 4c e2 39 bd e9 ae 3f bd 91 7d 87 3d
       0.0045485944 -0.04538183 -0.046797667 0.06615747
000300 3c 08 ac bd 32 ed 56 3d 3c 62 82 bd 04 16 b3 3c
       -0.08400008 0.0524723 -0.06366393 0.021861084
000310 04 27 88 bd 45 1c 81 bd 14 3b 3f bd e3 ad 56 bd
       -0.06648067 -0.0630422 -0.0466872 -0.052411925
000320 7f 8b 5b bd e0 72 fe bb 0b 62 9c 3d 30 90 34 3c
       -0.05359983 -0.007765159 0.07635888 0.011020705
000330 f6 04 7b 3d 12 aa 6e bd 34 bf be bc a2 f6 01 3d
       0.061284028 -0.05826766 -0.023284532 0.031729348
000340 ea f8 7f 3d 2b 00 aa 3d 0e 42 73 bd f4 d6 83 3c
       0.062493242 0.08300813 -0.059389167 0.016093709
000350 8f eb b2 3d cc 64 95 bc 32 a5 4a 3d 7c 77 6a bd
       0.087363355 -0.01823654 0.04947395 -0.057242855
000360 ae a1 47 3d dd 66 78 bd e0 fc 18 3c 61 a0 20 bd
       0.048738174 -0.060644973 0.009337634 -0.03921545
000370 7f 93 4a bd 70 d2 85 3b c8 e3 0e bd 04 44 0f 3d
       -0.04945707 0.004083924 -0.034885198 0.034976974
000380 7d 72 ae 3d 20 47 0f bc e0 e9 88 bb f3 4f ac bd
       0.08517931 -0.008744985 -0.0041782707 -0.084136866
000390 30 47 84 bd 45 4d b4 3d d7 82 88 3d f0 63 8b 3b
       -0.064588904 0.088038005 0.06665581 0.004253857
0003a0 a6 e1 43 bd 97 2c 80 3d 96 b8 5c 3d 86 54 eb bc
       -0.047822617 0.06258505 0.053886972 -0.028726827
0003b0 d6 95 fd bc d2 09 11 3d 55 c9 87 3d d0 de b4 bc
       -0.030955236 0.035409756 0.06630198 -0.022078902
0003c0 a8 98 79 3c ad 6d 9c bd 9e 94 1c 3d 6a 8d 58 bd
       0.01523415 -0.076381065 0.03822767 -0.052869238
0003d0 6c 17 9a bd e4 90 f3 3c de e5 4f 3d e4 7a 92 bc
       -0.075239986 0.029732175 0.050756328 -0.017880864
0003e0 97 b7 01 bd bc 63 a4 bd 7a e4 19 bd 88 d5 3f bc
       -0.031669226 -0.08026835 -0.037571408 -0.011708625
0003f0 9c 45 f4 bc 3e 58 12 3d 00 65 0f 3c 48 a7 91 3c
       -0.029818349 0.035728686 0.008752108 0.017779961

functional_1/conv1d_2_1/convolution/ExpandDims_1:0 f4 [256, 128, 1, 1]
000000 60 34 06 bd d8 c5 24 bd 6a 9f 5f bd 09 68 fc bb
       -0.032764792 -0.04022774 -0.05459539 -0.0077028316
000010 90 b2 b0 3c 53 2c a9 bb 97 1f 9e 3c 53 77 96 3d
       0.02156952 -0.0051627546 0.019302173 0.07346978
000020 3e 96 3d 3d a4 24 80 bd 81 11 bf bd ed fa 25 bb
       0.04628586 -0.06256989 -0.093295105 -0.0025326565
000030 40 d1 17 bc 87 30 9c 3d 6c f3 b6 bd 0b a9 29 3d
       -0.009266198 0.07626443 -0.08933148 0.041420978
000040 e1 3a 81 bd ff a5 4e bd 4d 04 d3 3c 8e b6 8d bd
       -0.063100584 -0.050451275 0.025758887 -0.06919585
000050 c8 c4 16 3d bb 12 34 3d 88 5b 69 bd c8 df 0e bd
       0.03680876 0.043963175 -0.056972057 -0.034881383
000060 22 b5 20 3d 10 c8 dc bd 21 6b 45 bd 28 a2 d2 3d
       0.03923524 -0.107803464 -0.04819787 0.10284835
000070 e3 cb 8b 3a e4 b0 d5 bd ba 56 aa 3d b8 4a 90 3d
       0.0010665621 -0.1043413 0.08317323 0.070455015
000080 17 cb 71 3c 1b 58 bd 3d 2e 80 fc 3d 24 54 a5 3c
       0.014757893 0.092453204 0.12329136 0.020181723
000090 35 8e fe 3d 20 65 12 bc b0 5b b6 3d 10 de d9 3d
       0.124294676 -0.008935243 0.08904207 0.10638058
0000a0 a2 9e f0 3d ba 24 ee bd 00 24 2d 3c 9f 41 b3 3d
       0.11749007 -0.11628099 0.010567665 0.087527506
0000b0 00 a2 e9 3d 60 70 03 3e f1 47 d8 3d b6 3b b4 3d
       0.11407852 0.12835836 0.10560597 0.088004515
0000c0 96 11 cf 3c af fd 3d bd d8 37 8e 3d 0c 53 86 bd
       0.02527694 -0.04638451 0.06944245 -0.06558809
0000d0 1f e6 9a 3d 45 05 a3 3d 28 36 94 bc 4f 9b c2 bd
       0.07563423 0.079599895 -0.01809223 -0.09502279
0000e0 02 56 e5 bd 94 94 21 3d 30 9c d9 bc b4 69 dd bd
       -0.11198045 0.039448336 -0.026563734 -0.10811177
0000f0 00 86 ee bc 34 6f a2 3d b0 6c f2 3d ec 8e 89 bd
       -0.02911663 0.079313666 0.11837137 -0.06716713
000100 3c 26 91 3d c7 ea ee 3d 06 e5 53 3d a0 7a da 3c
       0.07087371 0.11665874 0.051732086 0.0266698
000110 44 64 f6 3d 79 85 91 3d 34 01 c0 bd f6 6f 5b 3d
       0.12030843 0.07105536 -0.093752295 0.05357357
000120 d0 34 58 3d 30 49 0e bc 83 f8 bd 3d d0 7e db bc
       0.05278474 -0.008684441 0.092759155 -0.026793867
000130 c0 ce 7c bd 54 e1 f7 bd 9a 48 ab 3d 10 84 52 bd
       -0.06172061 -0.12103525 0.08363457 -0.051395476
000140 a0 ad d2 3c 12 54 da 3d 50 08 9d 3c 2e 17 2c 3d
       0.025717556 0.106605664 0.019169003 0.042014293
000150 00 2f c5 bd b4 f6 2f bc 45 0c 57 3d c5 fa 01 3e
       -0.09628105 -0.010739971 0.052501936 0.12693317
000160 8e 98 2b 3d 7b 89 f7 3d 90 d6 ca 3d 30 5d ee bc
       0.041893534 0.12086769 0.09904206 -0.02909717
000170 b0 eb 9a 3d 3b 19 57 bd 30 4d 1a 3d cb e2 27 bd
       0.07564485 -0.052514296 0.037671268 -0.04098777
000180 40 48 76 3d e0 58 14 bd a4 bb 9c bd 40 b6 4a 3c
       0.060127497 -0.03621757 -0.07652977 0.012372553
000190 52 75 6d bc 73 20 d5 bd d0 5b b7 bd 38 d6 67 bd
       -0.014493303 -0.1040658 -0.08953059 -0.05660078
0001a0 80 61 1e 3b ac 92 a3 bd 3e e6 1b 3d 77 72 33 bd
       0.0024167001 -0.0798696 0.038061373 -0.043810334
0001b0 00 ee 31 3d 74 6a a5 bd 25 ba bc bd f9 38 38 3d
       0.043439865 -0.08076945 -0.09215192 0.04497621
0001c0 f8 29 01 3e f4 a7 85 bd 06 eb 83 3d b0 d4 93 bd
       0.12613666 -0.06526175 0.064413115 -0.07218301
0001d0 24 64 96 3d a4 12 c1 bd 11 ed 24 bb 38 0f dc bd
       0.07343319 -0.094273835 -0.0025165717 -0.1074509
0001e0 5c c1 08 3d d7 6f 9f bd 06 08 99 bd 24 50 e7 bc
       0.033387527 -0.07785004 -0.074722335 -0.028236456
0001f0 40 14 fc 3d f4 0d e2 3d bc aa 4a bd 02 20 f5 3d
       0.1230855 0.110378176 -0.04947923 0.11968996
000200 54 dd d2 bd 3c 55 e3 3d b2 3d 9e 3d b3 24 53 bd
       -0.10296121 0.111002415 0.07726611 -0.05154867
000210 6c 8c b8 bd 59 bb c3 3d 22 82 2a 3d 05 31 a4 3d
       -0.09011158 0.09557218 0.04162801 0.08017162
000220 36 cc 8c bd 48 d2 c6 bd 4f 8e 84 3d 0c 2b 45 b9
       -0.06874888 -0.09708077 0.06472456 -0.0001880342
000230 a0 49 b5 bd 73 7a ee 3d 04 5a df bd 9d 14 c8 bd
       -0.088519335 0.11644449 -0.10905841 -0.09769557
000240 8f 9e d9 bd 0c 38 53 3d c7 f4 47 3c f1 c1 9a bd
       -0.10625946 0.051567122 0.012204356 -0.07556523
000250 c0 66 ee bc 6d aa 95 3d cc 1e c4 bd 38 f8 17 3d
       -0.02910173 0.07307897 -0.095761865 0.037101954
000260 c0 19 50 bd 00 ca eb ba dc 4d 85 3d d2 ce bf 3d
       -0.050805807 -0.0017989278 0.06508991 0.0936562
000270 42 25 61 3d 78 32 72 bd 81 38 f6 3d fc 16 b3 3d
       0.054967172 -0.059130162 0.12022496 0.08744618
000280 c9 45 80 bd 08 a8 88 bc e5 3e c4 bd 45 4e 2e 3d
       -0.062633105 -0.016681686 -0.09582309 0.042555112
000290 93 1b 0b 3d c0 69 b1 3c e7 a4 a8 bd 30 23 d6 3c
       0.033961844 0.02165687 -0.082345776 0.026139826
0002a0 0d bb 95 3d b3 16 d7 bd 6c fe aa 3d bc df b9 3d
       0.07311068 -0.105023764 0.08349308 0.09075877
0002b0 d8 af 2e bd 77 99 9f 3d 02 8d cc 3c 5c b1 0f 3d
       -0.042648166 0.07792943 0.024969582 0.035081252
0002c0 91 04 bf 3d 1d 7b 59 3c c4 92 96 3d 80 91 bb 3d
       0.09327043 0.013273981 0.07352212 0.09158611
0002d0 a9 1c 17 bd 0b 33 cf 3d 02 ef c9 bd 51 25 bc bd
       -0.036892567 0.101171575 -0.0986004 -0.09186805
0002e0 60 cf a3 3d 11 94 4e 3d 88 b8 31 3d 90 2b 1c 3d
       0.07998538 0.050434176 0.043388873 0.038127482
0002f0 c0 54 e9 bd a0 30 4c bd 1c 4f a7 3d d4 e6 cd 3d
       -0.11393118 -0.04985106 0.08169386 0.100537926
000300 30 ad e7 3d b1 a1 16 bc 80 de e4 3d c8 ea 49 bd
       0.1131233 -0.009193824 0.11175251 -0.04929617
000310 d7 c0 46 bd 59 b7 8b bd 75 63 87 bd 8f 8e e2 3d
       -0.04852375 -0.0682208 -0.06610767 0.11062347
000320 c0 fa f8 3d 57 44 3e bd 1e 25 d9 bd fc e9 92 bd
       0.12157202 -0.046451893 -0.10602783 -0.07173535
000330 90 35 d2 3d b0 91 b1 3d 5e 01 d7 3d f4 ee bb bd
       0.102641225 0.08670366 0.10498308 -0.09176436
000340 68 ad 7d 3d 80 fb b8 bd 00 84 2e ba ff 8c 92 bd
       0.06193295 -0.09032345 -0.0006657243 -0.07155799
000350 00 fe 10 3a 66 13 f0 bd 6f 1a f8 3d 3a 7b b0 bd
       0.0005531013 -0.1172245 0.12114417 -0.086172536
000360 d0 18 f6 3d bb 0d 74 3a 97 84 2f 3d 60 bb da bc
       0.12016451 0.00093099073 0.042851057 -0.026700675
000370 90 63 b1 bd dc 95 8a 3d 60 3b e5 3c d1 ec fe bd
       -0.08661568 0.06766865 0.027982414 -0.12447513
000380 7c e3 f0 3d 20 16 da bd 86 b7 af bd 98 1e ea bd
       0.11762139 -0.10648751 -0.08579926 -0.114316165
000390 9e f9 90 bd 45 eb 69 3d 10 45 ea 3d d8 13 cd bd
       -0.07078861 0.057109136 0.11438954 -0.100135505
0003a0 80 f7 f1 3c 20 65 4a bd cb 34 46 3d 87 55 f6 3d
       0.029536963 -0.049412847 0.04839019 0.12028032
0003b0 a0 83 76 bd 30 84 20 bd 4c 13 bd 3b 3d e7 3a bd
       -0.06018412 -0.039188564 0.0057701226 -0.045630682
0003c0 c7 f7 30 bd 88 73 5c bd 4f b4 12 3d 68 78 73 3d
       -0.04320505 -0.053821117 0.035816487 0.059441
0003d0 8c 74 d8 3d a0 23 32 bd fb fd c0 bd 88 8d a6 3d
       0.105691046 -0.043491006 -0.09423443 0.08132464
0003e0 20 ee 86 3c 01 8d f0 3d 59 20 1e bd b6 88 28 3d
       0.016470969 0.11745644 -0.038605068 0.041146003
0003f0 78 74 5a 3d 00 b8 3f ba 03 25 e9 bd ba bf 0e 3a
       0.05333373 -0.000731349 -0.113840126 0.00054454396

functional_1/conv1d_1_2/convolution/ExpandDims_1:0 f4 [128, 64, 1, 1]
000000 78 07 1a 3c 0b 3d 30 be a6 e0 b2 3d 1d e8 19 3e
       0.009401195 -0.17210786 0.087342545 0.1502995
000010 25 aa 9f 3d 23 8c 27 be 7c 8f 63 3d fc d7 32 bd
       0.07796124 -0.16362052 0.05555676 -0.04366301
000020 b3 c6 c1 bd 94 d1 fa 3d cb 8c 2e 3c c4 eb 00 3e
       -0.09461727 0.12247005 0.010653685 0.12589937
000030 1b 16 3a be 58 2b dd ba 51 9b d7 bd 18 e6 75 3d
       -0.18172495 -0.0016873879 -0.10527671 0.060033888
000040 90 d3 51 3c 7f 18 eb 3d 3a bd c7 3c c7 55 16 3e
       0.012806788 0.11479282 0.024382222 0.14681159
000050 61 a6 0f 3e 9b 86 8f bd c2 9c c9 3d d5 54 0d 3e
       0.14028312 -0.07008096 0.09844352 0.13801892
000060 5d 22 27 3d 20 61 e3 bc a8 0c 11 be e5 9d 1e 3e
       0.040804256 -0.027756274 -0.14164984 0.1548992
000070 70 2a d7 bd ca d1 00 3e 22 4c 73 bd 38 91 4c bd
       -0.10506141 0.12580028 -0.059398778 -0.04994318
000080 08 cc b4 3c b3 7e c1 3d 92 64 40 bd b1 fb 8d bd
       0.022069946 0.09447994 -0.04697091 -0.06932772
000090 3c 49 92 3c f8 f8 39 bd 2f 28 b7 bd f7 50 0b be
       0.017857186 -0.04540345 -0.08943211 -0.13605104
0000a0 37 c0 9e bc 37 27 f7 3d 4c cf 0d bd 74 82 ca 3d
       -0.019378765 0.120680265 -0.03462152 0.09888163
0000b0 82 ba b7 3d 5b 09 01 3e ae 08 f1 bd c4 ee b5 bd
       0.089711204 0.12601225 -0.11769234 -0.088834316
0000c0 e6 87 bd bd d2 a1 73 bd 21 c2 ab bd a8 97 cf 3c
       -0.09254436 -0.059480496 -0.083866365 0.02534087
0000d0 c8 8a 72 bd cd a4 13 3e 3b 30 61 3d 4f fe c3 bd
       -0.059214383 0.14418335 0.054977637 -0.0956999
0000e0 58 91 8e 3d c0 7f 27 3b 3f 27 04 3e d0 34 e7 3c
       0.06961316 0.0025558323 0.12905596 0.028223425
0000f0 8a 46 10 3c 85 91 26 3e 5c fc 2c be 36 1f 1b 3e
       0.00880588 0.16266449 -0.16893142 0.15148625
000100 d9 a2 12 3e 60 fb 9a bb 62 49 2f be 83 cc 9b bd
       0.14319934 -0.0047296733 -0.17117837 -0.07607367
000110 9a 8d b8 3d b6 31 a0 3d d4 eb 3b 3d f0 cf 99 bc
       0.09011383 0.078219816 0.0458792 -0.01877591
000120 da 87 b5 bd 55 49 1d 3e 08 2a 8a bd fc a7 4d bd
       -0.08863802 0.15360005 -0.06746298 -0.05020903
000130 3c c4 38 3d a0 83 f4 bb 42 3f 1d be 9a a3 ed 3d
       0.04510902 -0.00746198 -0.15356162 0.1160347
000140 ac 1c cc bd eb dc a6 bd 83 a9 27 3e c6 16 8d 3d
       -0.09966406 -0.081476055 0.16373257 0.06889109
000150 65 22 22 be 71 95 0d 3e b7 0c 9a bd ac ad 51 3d
       -0.15833433 0.13826539 -0.075219564 0.051191017
000160 0f de 30 3e 2f ae 32 be a6 bf e8 3d 00 78 23 39
       0.17272209 -0.17449258 0.11364679 0.00015589595
000170 88 db 02 bd f1 c4 28 be cd 2e ce bd 90 c3 d2 bd
       -0.031947643 -0.16481377 -0.1006752 -0.10291207
000180 f0 7f e1 bc ba 65 9a 3d 90 7e 2e 3c 00 bf 6c bc
       -0.027526826 0.07538934 0.010650292 -0.014449835
000190 3a 63 f9 3d 17 24 34 be 6c 07 35 bd ee 35 89 3d
       0.12177129 -0.17591892 -0.04419653 0.066997394
0001a0 f4 fe 2d be 34 93 c3 bd b6 74 08 be de 6a 08 be
       -0.16991788 -0.09549561 -0.13325772 -0.13322017
0001b0 b5 bb 0a 3e fe d3 90 3d d4 85 3d bd c6 d8 0d be
       0.13548167 0.07071684 -0.046270207 -0.13852224
0001c0 f4 80 03 3d 18 f7 55 3d 9b 01 02 be b9 c8 c7 bd
       0.0321054 0.0522376 -0.12695925 -0.09755082
0001d0 10 5b 9e 3c c8 3e 06 be 6e fc 84 bd 99 66 19 3e
       0.019330531 -0.13109887 -0.0649346 0.14980544
0001e0 d0 1f c2 3c 25 dc b2 bd 55 6d 0e be c0 b3 c9 3b
       0.02369681 -0.087333955 -0.13908894 0.006155461
0001f0 98 85 54 bd fe 31 ea bd 24 fb 4c bd 66 7e 9b bd
       -0.051885217 -0.114353165 -0.050044194 -0.07592468
000200 fd a0 02 3d 7c 47 2a 3e 72 f0 ef bd 80 72 16 3c
       0.03189181 0.16628832 -0.11715783 0.009182572
000210 44 72 56 3d d4 76 2c be 88 0a fe bd 8b 19 e4 bd
       0.052355066 -0.16842204 -0.124043524 -0.111376844
000220 3d 56 01 3e 40 5f bb bd 95 b4 e9 bd fc 67 9c bc
       0.12630554 -0.09149027 -0.114113964 -0.019092552
000230 01 9c 1d 3c 51 47 cf 3d 44 ed 0f bd 92 7b 2a be
       0.009619714 0.101210244 -0.035138384 -0.16648701
000240 6e f4 30 be b3 6c bb bd 78 9f 69 3d 14 a7 09 3e
       -0.17280743 -0.09151592 0.057036847 0.13442641
000250 97 6d 09 3e cd e9 09 bc 26 a5 27 be c4 88 1a bd
       0.13420711 -0.008417559 -0.16371593 -0.037728086
000260 c5 3a e9 3d 06 3c c0 3d 86 32 a1 3d da 3f 80 3d
       0.113881625 0.093864486 0.07870965 0.06262179
000270 10 c3 25 3e ff 39 c3 3d a0 c6 f2 3c ef 79 04 3e
       0.16187692 0.09532546 0.029635727 0.12937139
000280 35 50 2c 3e b7 2e 15 bb 3f bd d6 bc 70 60 2b 3d
       0.16827472 -0.002276344 -0.026213286 0.041840017
000290 62 f1 fe bb 5f 4f 2b be c2 b4 eb 3d 10 b9 11 be
       -0.00778024 -0.16729496 0.11509086 -0.14230752
0002a0 62 d1 87 bd 74 e7 cb bd 25 a2 23 3e 28 ce 23 3e
       -0.066317335 -0.099562556 0.15979822 0.15996611
0002b0 f0 70 b6 3c 62 48 19 be 8c 01 ca bd a3 6c 44 bd
       0.02227065 -0.14969018 -0.09863576 -0.047955167
0002c0 3e e8 b0 bd 9c 51 17 bd 38 ba ed bc b5 fb 1c 3e
       -0.08638047 -0.036943063 -0.02901946 0.15330394
0002d0 fc 96 0a be 8f 18 23 3e 05 ce 2a bc a2 06 7c bd
       -0.13534158 0.15927337 -0.010425095 -0.061529763
0002e0 02 aa 91 bd 8c 3d 61 3d 2f 25 bc bc 14 ec 18 3d
       -0.071125045 0.054990336 -0.02296695 0.037334517
0002f0 f8 67 3c bd d0 20 70 bd 2b f4 8c 3d 69 61 9c 3d
       -0.04599759 -0.058625042 0.06882509 0.07635767
000300 96 fb 93 bd 92 f6 a6 3d 4a 22 b9 3d c8 ad 11 3d
       -0.072257206 0.08152498 0.09039743 0.03556612
000310 81 b5 f9 bc 38 14 07 be 6a 12 89 3d c8 65 07 be
       -0.030482056 -0.13191307 0.06692965 -0.1322242
000320 4a b5 b7 3d f3 97 27 bd 5c b5 24 3e cb b4 df bb
       0.08970125 -0.040916394 0.16084808 -0.006826972
000330 c1 d8 75 bd f4 c1 83 bd 0d 8d 30 bd b8 19 0b bd
       -0.060021166 -0.06433478 -0.043103267 -0.033960074
000340 67 7b 20 3e de 62 31 be 08 c2 b8 3c 6b 99 dd bd
       0.15672074 -0.17322871 0.022553459 -0.10820278
000350 e0 19 e5 bb 1e f2 1f 3c 80 82 06 be 34 5c 6a 3d
       -0.00699161 0.009762315 -0.1313572 0.057216838
000360 f0 2a d6 bd 1e 1c c7 3d 43 de 23 3e e3 7a b8 bd
       -0.104574084 0.0972216 0.16002755 -0.09007814
000370 01 90 1d be 0d 47 f4 3d e8 c0 1c be 2e ea a1 bd
       -0.15386964 0.11927614 -0.15307963 -0.07905994
000380 37 94 0b 3e 7d 22 0e be f0 29 05 3e b4 9e 33 bc
       0.13630758 -0.13880344 0.13004279 -0.010963131
000390 27 80 d8 3d 60 51 60 bc 62 5d ad 3d e2 03 11 3d
       0.10571318 -0.013691276 0.08465077 0.035404094
0003a0 9d f3 af 3c 17 ec 1a 3e 30 5a 2d 3c 28 9d 06 3e
       0.021478469 0.15129124 0.010580584 0.13145888
0003b0 51 3c 02 be aa 47 5e bd 18 c5 af bd b1 18 37 bd
       -0.12718321 -0.054267563 -0.085825145 -0.044701282
0003c0 38 af f4 bc 6f 2f 21 3e 3e 5a eb 3d 00 2a 30 be
       -0.029868707 0.1574075 0.11491822 -0.17203522
0003d0 ac 40 95 3d 20 20 90 3b db ab a5 bc fc 10 3e bd
       0.07287726 0.004398361 -0.020223549 -0.046402916
0003e0 b2 26 f0 3d a8 bf 4c bd ee cc fa 3d 30 26 3d 3d
       0.117261305 -0.049987465 0.122461185 0.046178997
0003f0 ac b5 1a bd b2 27 a2 3d 1b 34 b9 bd 82 1d 36 bd
       -0.037770912 0.079177275 -0.090431415 -0.044461735

functional_1/conv1d_1/convolution/ExpandDims_1:0 f4 [64, 24, 1, 1]
000000 19 2b 11 3d 47 82 6d be f5 2e 92 3d ce 75 0b be
       0.03544149 -0.23194228 0.071378626 -0.13619158
000010 11 52 42 be c8 59 ed 3d 36 90 b8 3d 92 e8 56 3e
       -0.18976618 0.1158939 0.09011881 0.20987156
000020 8f b5 33 be 50 7a 51 3e e8 60 2e 3e ba b6 00 3d
       -0.17549728 0.20456815 0.17029154 0.03142426
000030 dc a9 77 3e 4c d6 70 3d 9b 8f e5 3d 41 eb a9 bd
       0.2418589 0.05879812 0.11209031 -0.08296824
000040 33 56 54 be fd 69 6e be 4d 64 2a bc d7 46 a5 3d
       -0.20736007 -0.23282619 -0.01039989 0.08070152
000050 53 ab 09 3e 69 df 4c bd 80 12 39 3d 89 f3 13 be
       0.13444261 -0.050017748 0.04518366 -0.1444837
000060 0f 5c e4 bd 8c 4e 4d be 46 5a 5a 3e 9f 0e 3a bd
       -0.11150371 -0.20049495 0.21323499 -0.0454241
000070 26 c9 da bd 39 74 39 be 6c 2f d7 bd d7 72 35 3e
       -0.10682897 -0.18110742 -0.10507092 0.17719589
000080 7e 36 f8 3d 11 98 52 3e 62 57 77 3c a9 e8 12 be
       0.121197686 0.20565821 0.015096517 -0.14346565
000090 70 01 55 be 65 a9 58 3e 42 0b 3c be 3f 69 53 3e
       -0.2080133 0.21158369 -0.1836367 0.20645617
0000a0 9d 6f 3f 3e 1e 9e 5a bc 07 63 89 be 97 20 5a bd
       0.18694921 -0.013343362 -0.26833364 -0.053253736
0000b0 23 d7 01 be d4 fc 91 bc 7f 22 42 3e 6d ee 2c 3d
       -0.12679724 -0.017820753 0.18958472 0.042219568
0000c0 7e fc 7e be a8 94 5a 3e 20 1c 74 3e 10 fc 61 3d
       -0.24901006 0.2134577 0.23838854 0.055172026
0000d0 40 47 7d be e7 56 37 be 5a 5d 64 be b8 4b 7b 3d
       -0.24734211 -0.17904244 -0.22301236 0.061351508
0000e0 f0 c9 ff bd c0 87 77 bd 48 6e a8 bc d2 6d 81 bd
       -0.124896884 -0.060432196 -0.020560399 -0.06319775
0000f0 74 64 b6 3d d8 99 86 bd 06 1d 19 be 78 57 e8 bc
       0.08905879 -0.06572312 -0.14952478 -0.02836202
000100 d8 6e 3d be 04 e5 f0 3d 18 fd 41 3d 94 b7 9b bd
       -0.18499315 0.11762431 0.04736051 -0.07603374
000110 e0 15 eb 3c 8e 1b 03 3e 40 1f 91 bc 7d c0 84 be
       0.028696954 0.1280348 -0.017715096 -0.25928107
000120 14 7e f8 bd c8 37 5f bd 98 60 5b 3d 7d a3 81 3e
       -0.121334225 -0.054496557 0.053558916 0.25320044
000130 2e 1e c3 bd 30 40 47 3d 10 8c 0e 3d 46 a2 34 be
       -0.09527241 0.0486452 0.034801543 -0.17640027
000140 f9 58 71 be 8c 77 47 bd 54 e4 b4 3d 10 b8 09 3e
       -0.23569097 -0.048697993 0.08832613 0.1344912
000150 86 9a c0 bd 9e 99 8e bd 80 5a 8b 3c 45 48 78 be
       -0.09404473 -0.06962894 0.017010927 -0.24246319
000160 40 5e ba 3d d0 7f 85 3d 52 83 f5 bd c0 18 87 bd
       0.09100008 0.06518519 -0.11987938 -0.065965176
000170 90 0e bb 3c 94 25 1f be eb c3 5c be c0 b4 e6 bc
       0.022834092 -0.15541679 -0.21559112 -0.02816236
000180 4c 09 14 3e bc 99 4b be a9 f6 86 be 48 a7 81 3d
       0.14456671 -0.19882864 -0.26360062 0.063307345
000190 e9 1e 2f 3b af 80 7a be 20 1b 4c bd 13 0f 06 be
       0.0026721305 -0.24463151 -0.049830556 -0.13091688
0001a0 cd 36 7f 3e 33 dd d2 3c b2 8d df bd fa bb 9a bd
       0.24923249 0.025740242 -0.10915698 -0.07555385
0001b0 03 ea 78 be 06 1e 6f 3e 8c 8c 0c 3d 1f 34 6b 3e
       -0.24308018 0.23351297 0.034313723 0.22969101
0001c0 b4 7e 0d be b1 ed 4a bd 04 0d 26 be 63 5e 7d 3e
       -0.13817865 -0.049543086 -0.16215903 0.24743037
0001d0 e0 37 35 3e 14 ee 68 3e 19 23 4f bd c8 03 c7 3d
       0.17697096 0.2274707 -0.05057058 0.09717518
0001e0 98 31 f8 bc 79 34 82 3e ca 9a 10 3e 2a 15 82 be
       -0.030297086 0.25430658 0.14121547 -0.25406772
0001f0 e1 41 04 be 20 6b 90 bd 9c d3 fe 3d 1c 95 11 3e
       -0.12915756 -0.070516825 0.12442705 0.14217037
000200 18 30 ae 3d 38 40 bd bc 29 d4 43 be 54 b3 83 be
       0.08505267 -0.023101911 -0.19123901 -0.25722754
000210 7a 2a 35 3e b6 a6 49 be 00 d0 4d b9 30 38 78 3d
       0.17691985 -0.19692501 -0.0001962781 0.06060046
000220 da 45 0e 3e 42 ff ab bd ca 05 9b bd 40 c2 de 3b
       0.13893834 -0.08398296 -0.075694636 0.0067980587
000230 05 0b 83 3e f2 90 0b be 08 9c c4 bc a2 6c 3a 3e
       0.25594345 -0.13629511 -0.024000183 0.18205503
000240 8b 49 4f be a8 2c 4c bd c6 3f 40 be 5c b4 71 3e
       -0.20242898 -0.049847275 -0.18774328 0.23603958
000250 ab 3d 69 be 1d da 81 3e d0 cd 4f bc a8 db 3e be
       -0.2277743 0.2536172 -0.012683347 -0.1863848
000260 60 be 95 3c e3 fa 81 be 68 68 2a bd a0 9d 40 bd
       0.018279254 -0.25386724 -0.041603476 -0.047025323
000270 ec a9 51 bd 06 28 bc bd e0 f0 be 3d 18 e8 98 3d
       -0.05118744 -0.09187321 0.09323287 0.07466143
000280 3c 5d 14 be b0 27 63 3d 84 5b 80 bd e0 0e ae 3c
       -0.14488691 0.05545777 -0.06267455 0.021247327
000290 7d 64 7a be 92 3c 19 be 14 0a be bd 08 3a 79 be
       -0.24452396 -0.14964512 -0.09279266 -0.24338543
0002a0 96 fb 54 be 03 9c 5a 3e 65 36 19 be 2f 62 02 be
       -0.20799097 0.21348576 -0.14962156 -0.12732767
0002b0 b8 0d 6d bd a1 e5 cf bc 0c ca af 3c b9 45 9e bc
       -0.05787441 -0.02537805 0.021458648 -0.019320356
0002c0 88 47 ef 3d 2c c2 3c be b2 67 2a 3d 24 86 87 bb
       0.116835654 -0.18433446 0.041602798 -0.004135864
0002d0 37 fc 2e be 9f e2 46 3e d8 c2 63 be dc 9a 40 3e
       -0.170884 0.19422387 -0.22242296 0.18809074
0002e0 f2 ed af 3c 05 5e 21 be 89 9a e7 3b bc f2 0c 3e
       0.021475766 -0.15758522 0.0070679826 0.13764471
0002f0 82 e5 80 be 47 b9 5e be 5d bd 70 3e 74 5f 6e 3e
       -0.251751 -0.21750365 0.23509736 0.232786
000300 bc 5d a6 3d 54 bd 01 3e b9 f2 08 be aa cd c1 bd
       0.08123347 0.12669879 -0.13373841 -0.094630554
000310 e4 a8 e0 3d 40 2b 28 3e 9c a2 5c 3e d2 f3 bd bd
       0.10969713 0.16422749 0.21546406 -0.09275021
000320 02 25 46 3e ce 14 83 be 30 e5 9c bc 32 8d 75 be
       0.19350055 -0.2560181 -0.019152254 -0.23979643
000330 33 21 80 be ff 9d 01 be 4a ee 7c 3e 7a 28 3d 3e
       -0.2502533 -0.12657927 0.24700275 0.18472472
000340 a8 f6 0d 3d 00 0d ae ba 60 4f ce bc 60 84 3d 3e
       0.034659058 -0.0013279021 -0.025184333 0.18507528
000350 50 43 d7 bc 09 22 5b be f0 41 20 3e 9e 5e 84 be
       -0.026277214 -0.21399702 0.15650153 -0.25853437
000360 6f 52 5d 3d e0 28 2a be 00 ad 3e be 3a 72 7c 3c
       0.054033693 -0.16617155 -0.18620682 0.015408093
000370 be f4 19 3e ce db 6b 3e 3e da 63 3e 94 f5 4a be
       0.15034768 0.23033068 0.22251222 -0.19820243
000380 32 30 38 3e 53 f8 7d 3e 39 fc ee bd 49 af 99 3d
       0.17987135 0.2480176 -0.116692014 0.07504136
000390 27 46 c7 3d 4d 75 50 3d 9a fd 3d 3d f5 f7 77 3e
       0.097301774 0.050893117 0.04638443 0.24215682
0003a0 f6 ca 42 be 32 05 2c 3e c6 b9 51 3e f6 d3 73 be
       -0.19022736 0.16798857 0.20481023 -0.23811325
0003b0 de f3 cf bd 87 61 7c 3e 2c d8 37 be 71 65 99 bd
       -0.10153936 0.24646579 -0.17953557 -0.074900515
0003c0 7b 20 6b 3d 76 43 2d be e6 75 50 be c5 34 76 3e
       0.057404023 -0.16920266 -0.20357475 0.24043567
0003d0 66 4e 25 3e 10 8a 50 bd cd 03 ed bd 88 78 86 be
       0.16143188 -0.050912917 -0.115729906 -0.26263833
0003e0 ee 41 e8 bc 8f a2 69 3d a8 b1 08 bd e9 c5 2f 3e
       -0.02835175 0.057039794 -0.03337255 0.1716534
0003f0 43 7c 10 be f3 4d a9 bc 0b 3b 27 bd f8 f2 f7 bd
       -0.14109902 -0.020667052 -0.040827792 -0.121068895

const_fold_opt__179 f4 [1, 128, 1]
000000 28 3a 50 bc 00 00 00 00 33 df 64 3b 75 aa 11 bc
       -0.012709178 0.0 0.0034923076 -0.008890738
000010 00 00 00 00 90 bd 17 3b cb 01 c1 bb 93 2e 0f 3c
       0.0 0.002315376 -0.0058901063 0.0087391315
000020 c3 29 8c 3b 00 00 00 00 0e 3c ac 3b bb b1 04 3b
       0.0042774393 0.0 0.0052561825 0.0020247537
000030 00 00 00 00 98 41 bd 3b 00 00 00 00 bc 60 c9 3b
       0.0 0.0057756416 0.0 0.006145565
000040 64 05 a6 3b a6 ed 40 bc 03 66 3e bc 4d f4 8b bc
       0.0050665606 -0.01177541 -0.011621001 -0.017084265
000050 00 00 00 00 68 18 ea 38 00 00 00 00 00 00 00 00
       0.0 0.000111625355 0.0 0.0
000060 f2 d2 88 bb 00 00 00 00 92 93 96 3b 4e cd bb 38
       -0.0041755373 0.0 0.0045952285 8.955096e-05
000070 0d bb 1d 39 00 00 00 00 1c 5b 94 3b 00 00 00 00
       0.00015042369 0.0 0.0045274626 0.0
000080 63 52 26 bc 6a c6 4f bb f2 c3 43 bc f0 f2 bf 3b
       -0.010151478 -0.0031703957 -0.0119485725 0.005857818
000090 a4 ad cc bb 00 00 00 00 15 bb e8 3b 00 00 00 00
       -0.0062462855 0.0 0.00710238 0.0
0000a0 11 5b c7 3b 77 2f 5e bc 00 00 00 00 a3 36 1c bc
       0.006083854 -0.013561121 0.0 -0.009534511
0000b0 00 00 00 00 b7 88 12 bc 65 97 30 bc 58 ef 85 3b
       0.0 -0.008943728 -0.010778283 0.00408737
0000c0 21 b9 dc 3b 31 57 e8 bb 08 8f a9 3b 00 00 00 00
       0.0067359363 -0.007090472 0.0051745214 0.0
0000d0 b4 6d df 3b 78 6e 13 bc 15 a9 02 3c cd cd 18 bb
       0.0068184976 -0.008998506 0.007974883 -0.0023316026
0000e0 09 87 e0 bb 61 01 57 3b 00 00 00 00 00 00 00 00
       -0.006852035 0.0032807218 0.0 0.0
0000f0 78 ff 8b 3b 00 00 00 00 62 33 f1 bb 00 00 00 00
       0.0042723976 0.0 -0.0073608616 0.0
000100 00 00 00 00 35 25 ec ba e8 02 61 bb 00 00 00 00
       0.0 -0.001801646 -0.0034334008 0.0
000110 57 29 fd bb dc b0 fb 3a 87 c9 d8 3b 2b 5b fd bb
       -0.0077258754 0.0019202488 0.006615821 -0.0077318153
000120 00 00 00 00 78 6d b4 3a 68 e0 4b b9 00 00 00 00
       0.0 0.0013765534 -0.00019443186 0.0
000130 00 00 00 00 00 00 00 00 73 2f be bb 0a 8e 04 bc
       0.0 0.0 -0.005803996 -0.008090505
000140 00 00 00 00 45 88 1c bc 00 00 00 00 9c 41 96 3b
       0.0 -0.009553974 0.0 0.004585458
000150 00 00 00 00 12 91 ea 3b 18 d9 a2 3b d1 ab 09 bc
       0.0 0.007158407 0.0049697272 -0.008402781
000160 8a 86 a3 3b b8 a3 d0 bb 55 87 a1 3b 00 00 00 00
       0.0049904035 -0.006367173 0.004929463 0.0
000170 00 00 00 00 b6 fc 8e 3a 00 00 00 00 fb 42 2d bc
       0.0 0.0010909054 0.0 -0.010575051
000180 00 00 00 00 00 00 00 00 6b ea 1e bc 00 00 00 00
       0.0 0.0 -0.009699444 0.0
000190 2d 85 16 3a 1b dd d9 bb 00 00 00 00 00 00 00 00
       0.00057418906 -0.0066486723 0.0 0.0
0001a0 00 00 00 00 00 00 00 00 f4 3b 2b 3a 66 0a 81 bc
       0.0 0.0 0.0006532066 -0.015752029
0001b0 00 00 00 00 00 00 00 00 d2 71 2b bc 27 af 27 bc
       0.0 0.0 -0.010464149 -0.010234631
0001c0 45 3b 09 ba 00 00 00 00 33 46 c3 bb 00 00 00 00
       -0.0005234967 0.0 -0.005959296 0.0
0001d0 00 00 00 00 00 00 00 00 af 0f 62 bc 00 00 00 00
       0.0 0.0 -0.013797685 0.0
0001e0 fc e9 93 bb c9 76 c3 3b c1 19 a4 3b 8a e0 f9 bb
       -0.004513977 0.005965088 0.005007953 -0.007625644
0001f0 00 00 00 00 00 00 00 00 d3 f8 8f 3b 70 46 29 ba
       0.0 0.0 0.004393676 -0.00064573344

const_fold_opt__177 f4 [1, 256, 1]
000000 6f 2f 1a 3c 4e b4 3a 3b a5 f7 37 bc 63 91 25 3a
       0.009410723 0.0028488818 -0.011228477 0.0006315915
000010 69 32 f9 3b 0b 2c fb 3b 00 00 00 00 29 4f 10 3c
       0.0076048863 0.0076651624 0.0 0.008807936
000020 72 5f ae 3b 2a 60 c2 bb 98 6b 3d 3b 75 61 c9 3b
       0.0053214366 -0.005931874 0.0028903242 0.006145651
000030 b5 16 e3 3b 00 00 00 00 b3 b6 c2 bb b7 b2 b3 bb
       0.006930197 0.0 -0.0059421896 -0.005483951
000040 63 72 c3 bb 08 d0 98 bb 13 33 8b 3b 78 31 cc ba
       -0.0059645637 -0.004663471 0.004248032 -0.0015578708
000050 62 13 21 bc 00 00 00 00 00 00 00 00 c8 68 14 bc
       -0.009831281 0.0 0.0 -0.009058185
000060 00 00 00 00 7b c1 9c 3a 5b 6a c3 bb 62 c8 cc 3b
       0.0 0.0011959517 -0.0059636063 0.0062494734
000070 00 00 00 00 00 00 00 00 ad 25 35 3b 00 00 00 00
       0.0 0.0 0.0027640865 0.0
000080 1f 0d 26 bc 00 00 00 00 e3 2a 11 3c dd ff d2 ba
       -0.010134964 0.0 0.008860323 -0.0016097982
000090 4d 3b b9 ba 3c 34 63 bb 00 00 00 00 00 00 00 00
       -0.0014132053 -0.0034668585 0.0 0.0
0000a0 00 00 00 00 00 00 00 00 fe 6c c3 bb 1a 27 fa bb
       0.0 0.0 -0.0059639206 -0.007634056
0000b0 00 00 00 00 00 00 00 00 00 00 00 00 00 00 00 00
       0.0 0.0 0.0 0.0
0000c0 0f 77 ed 3b eb bd 3e 3b d8 1b f7 3b 7d b7 12 3c
       0.007246859 0.00291049 0.007541161 0.00895488
0000d0 04 54 53 bb 8f 45 0c bc 00 00 00 00 27 33 f6 3b
       -0.0032246122 -0.008561506 0.0 0.007513422
0000e0 af 9a 28 bc 5e 29 2a 3b f4 3d 01 3c 2b a8 a8 3b
       -0.010290786 0.0025964598 0.007888306 0.0051470003
0000f0 00 00 00 00 93 49 1b 3c fd 7c 96 3b 0a e4 38 3b
       0.0 0.009477991 0.0045925365 0.0028212094
000100 00 00 00 00 f2 4d 04 3c 00 00 00 00 00 00 00 00
       0.0 0.008075224 0.0 0.0
000110 0b 4c bb bb c1 d7 02 bc 00 00 00 00 00 00 00 00
       -0.005715852 -0.00798601 0.0 0.0
000120 00 00 00 00 e2 98 10 3c 4f 21 2a 3b 65 85 73 b9
       0.0 0.008825513 0.0025959795 -0.00023223979
000130 00 00 00 00 80 c0 08 bc d5 1c 01 bb 00 00 00 00
       0.0 -0.008346677 -0.0019701023 0.0
000140 ff e9 9f 3b 00 00 00 00 d4 c1 95 ba c8 39 9d bb
       0.0048801894 0.0 -0.0011425563 -0.004798148
000150 ae 56 39 bc 00 00 00 00 f7 56 46 bb 00 00 00 00
       -0.01131217 0.0 -0.0030264237 0.0
000160 62 83 ab 3b b7 5d e4 3a 00 00 00 00 e9 4c 14 3c
       0.005234168 0.0017422949 0.0 0.00905154
000170 00 00 00 00 98 5b f0 bb 75 3c c0 3b 84 17 9e bb
       0.0 -0.0073351376 0.005866582 -0.0048245806
000180 00 00 00 00 18 2c e2 3b 00 00 00 00 d5 03 07 3c
       0.0 0.006902229 0.0 0.00824066
000190 00 00 00 00 00 00 00 00 e7 81 e9 3b f6 27 8d 3b
       0.0 0.0 0.0071260813 0.004307742
0001a0 70 79 0b 3c 2a d9 b0 3b 00 00 00 00 00 00 00 00
       0.00851284 0.0053969817 0.0 0.0
0001b0 00 00 00 00 00 00 00 00 32 e0 08 3c 00 00 00 00
       0.0 0.0 0.008354234 0.0
0001c0 19 b8 0f 3c 9b 0e 1d bc 31 8c 13 3c 04 6d 03 3b
       0.00877192 -0.009586002 0.009005592 0.0020053992
0001d0 00 00 00 00 00 00 00 00 00 00 00 00 00 00 00 00
       0.0 0.0 0.0 0.0
0001e0 00 00 00 00 00 00 00 00 c6 41 b8 3b 50 4b 4a bc
       0.0 0.0 0.005623075 -0.012347057
0001f0 ec b5 01 bc bf b3 1f 3c 10 3c 07 bc 4e 87 29 bc
       -0.007916909 0.009747445 -0.008254066 -0.010347201
000200 8b 15 02 bc af 26 30 bc 00 00 00 00 00 00 00 00
       -0.007939707 -0.01075141 0.0 0.0
000210 00 00 00 00 b5 d9 f5 3b 71 1a 1d 3c 00 00 00 00
       0.0 0.0075027593 0.009588824 0.0
000220 22 57 a9 bb 69 f1 82 3a 00 00 00 00 3f 0b 36 bc
       -0.0051678577 0.0009990159 0.0 -0.01111108
000230 c3 36 b0 bb de c5 a4 bb d9 f4 08 bc 00 00 00 00
       -0.005377622 -0.0050284704 -0.0083591575 0.0
000240 35 d1 0b 3c 19 4f 61 ba f3 b9 a8 bb ff e2 2c bc
       0.008533766 -0.00085948553 -0.00514912 -0.010552167
000250 60 d4 01 3b 00 00 00 00 18 0f 9f 3a 33 d2 f9 bb
       0.0019810423 0.0 0.0012135236 -0.0076239347
000260 ec 57 e6 3b 00 00 00 00 2d 0e 6d 3b 00 00 00 00
       0.007029524 0.0 0.003617178 0.0
000270 cc 09 f5 3b 00 00 00 00 ca f9 a8 3b 00 00 00 00
       0.0074779745 0.0 0.0051567303 0.0
000280 16 62 1c bc 03 ea f5 3b 00 00 00 00 95 29 e2 bb
       -0.00954487 0.007504703 0.0 -0.0069019296
000290 4b 30 a5 bb 19 7f e6 3b 00 00 00 00 b2 9f 8e 3b
       -0.0050411574 0.007034194 0.0 0.0043525333
0002a0 95 49 1c 3c 45 bc 88 bb 72 5c a8 bb 00 00 00 00
       0.009539028 -0.004172834 -0.0051379735 0.0
0002b0 0d a2 c6 3b 00 00 00 00 80 10 e0 bb d9 f3 14 bb
       0.0060617984 0.0 -0.0068379045 -0.0022728352
0002c0 f2 18 d2 bb 00 00 00 00 90 63 04 bb 89 32 09 bc
       -0.006411665 0.0 -0.0020200945 -0.008373865
0002d0 15 93 a2 3b 20 b3 b5 ba b8 c0 1d bc 00 00 00 00
       0.004961381 -0.0013862588 -0.009628467 0.0
0002e0 cc 01 0a 3c 1e 6f c3 bb 80 ef 40 bc 68 aa 30 3b
       0.00842328 -0.005964174 -0.011775851 0.0026957039
0002f0 cb 73 bd 3b 30 0d 1b ba fa 6f 1e bc dc f1 a4 3b
       0.005781626 -0.0005914746 -0.009670252 0.0050337147
000300 00 00 00 00 1c 8e 6d 3b 11 6c 42 bc 00 00 00 00
       0.0 0.0036248034 -0.011866585 0.0
000310 00 00 00 00 68 2f 85 3b 00 00 00 00 00 00 00 00
       0.0 0.004064489 0.0 0.0
000320 30 67 da 3b 6d 41 20 3c 4c 72 fa bb 00 00 00 00
       0.006665133 0.009781224 -0.00764302 0.0
000330 31 44 e4 3b 00 51 ff bb a4 65 03 3c 34 db 0a 3c
       0.006966137 -0.0077916384 0.0080198385 0.008475114
000340 00 00 00 00 92 26 47 bb f9 00 f6 3a e1 94 6b 3b
       0.0 -0.003038798 0.00187686 0.0035946893
000350 00 00 00 00 89 f2 34 3b 79 a5 72 3b fa 75 24 bc
       0.0 0.0027610383 0.00370249 -0.010037893
000360 9e 60 42 bc 00 00 00 00 00 00 00 00 c4 d1 b3 bb
       -0.011863856 0.0 0.0 -0.0054876525
000370 0e 97 c4 3b 54 d8 03 3c 14 a3 46 3b 00 00 00 00
       0.0059994524 0.008047182 0.0030309604 0.0
000380 04 e2 0a 3c 00 00 00 00 ce 64 d8 3b ed 1e 42 bc
       0.008476738 0.0 0.0066038137 -0.011848194
000390 00 00 00 00 21 de a5 bb 00 00 00 00 00 00 00 00
       0.0 -0.00506188 0.0 0.0
0003a0 00 00 00 00 2f 7f ad bb 00 00 00 00 00 00 00 00
       0.0 -0.0052947025 0.0 0.0
0003b0 26 5d dd 3b 00 00 00 00 ae 60 c3 bb d9 99 09 3c
       0.006755489 0.0 -0.005962453 0.008398497
0003c0 00 00 00 00 00 00 00 00 92 de 58 bb 2b 83 67 3b
       0.0 0.0 -0.0033091647 0.0035325985
0003d0 bf 86 86 3b cc 0c 52 ba 00 00 00 00 00 00 00 00
       0.0041054185 -0.0008012771 0.0 0.0
0003e0 00 00 00 00 07 23 4a bc 89 d3 93 ba a6 e4 f0 bb
       0.0 -0.012337453 -0.0011278252 -0.007351476
0003f0 9e b9 0f 3c b6 c6 0e bc 00 00 00 00 19 e4 ac 3b
       0.008772282 -0.008714369 0.0 0.005276215
