Unity_diploma_Impl/Assets/LPNN/Models/lightprobe_model.onnx (onnx, 838119 bytes, 11 tensors)

functional_1/conv1d_5_1/convolution/ExpandDims_1:0 f4 [1, 128, 1, 1]
000000 02 3b 8e bd b8 c4 80 bc 88 4d eb 3d 21 56 da 3c
       -0.069448486 -0.015718803 0.11489397 0.026652398
000010 d4 4d 08 bd 8d 94 1c be 82 1c 47 bd 3f 76 b1 3d
       -0.033277348 -0.15291043 -0.04861117 0.08665132
000020 9e 66 29 3e b2 d0 28 be c7 a3 09 bd 41 0b 53 be
       0.16543052 -0.16485861 -0.033603456 -0.20609762
000030 52 49 2c 3e bd 1d 34 be 71 50 ed 3d 13 a9 08 be
       0.16824844 -0.17589469 0.115876086 -0.13345747
000040 12 70 17 be 08 f5 03 bd f0 1a 03 bc a0 44 c2 bd
       -0.14788845 -0.032216102 -0.008002028 -0.094857454
000050 b5 d5 1f bd ad 04 04 3d 6e 99 45 3e a7 d2 8e bd
       -0.039022166 0.03223102 0.1929681 -0.069737725
000060 9d e6 4c 3d 90 76 09 3c 48 e3 d8 3d 80 a9 8b bd
       0.050024617 0.008390084 0.105902255 -0.06819439
000070 a1 e0 27 3e f3 e8 29 3c 20 22 b3 bb aa 80 1f 3e
       0.16394283 0.010370481 -0.0054667145 0.15576425
000080 19 f2 58 be 92 db 2f bd 71 4d e7 3c 6e bf 15 3e
       -0.21186103 -0.042934008 0.02823517 0.14623806
000090 cb 66 8c bd 8e 5c 18 3e 6d af bd 3d 36 65 40 3e
       -0.06855544 0.14879057 0.092619754 0.18788609
0000a0 12 07 ea 3d 72 77 7e 3c 48 ec 48 3e 36 fb 3c 3e
       0.1142713 0.015531408 0.19621384 0.18455204
0000b0 9a b4 de bd c9 73 8a bd f7 9d f6 3d 80 42 f4 bd
       -0.10874291 -0.067603655 0.12041848 -0.11926746
0000c0 ce 4f fa bd 85 0e 24 3e 2e 00 bf 3d 90 37 0f 3c
       -0.12222253 0.16021164 0.09326206 0.0087412745
0000d0 f2 b4 07 be c0 e0 cf 3b 84 0b b4 3d 7b 97 85 3d
       -0.13252619 0.006343931 0.08791259 0.06523033
0000e0 83 2b 53 bc 52 99 86 3d 57 12 a9 3d 4c f6 00 bd
       -0.012888792 0.06572212 0.08255451 -0.031484887
0000f0 d0 76 e0 3d 1c 33 51 bd bf 53 24 be 7e 51 24 3e
       0.10960162 -0.051074132 -0.16047572 0.16046712
000100 44 0c cd bd 76 70 cf bd 71 20 34 3c 24 31 4e be
       -0.10012105 -0.10128872 0.010994063 -0.20135933
000110 ed 4d 56 be 3b eb 43 be 84 17 46 3e c0 af 1a 3b
       -0.20928164 -0.19132702 0.19344908 0.002360329
000120 01 b4 57 be 3e 35 52 ba c0 1a 98 bc 39 d3 53 3d
       -0.2106476 -0.0008018798 -0.018567443 0.05171511
000130 84 b5 03 be ae 40 db 3c 55 6c 4e 3e 2e 06 25 3e
       -0.12862211 0.02676424 0.20158513 0.16115639
000140 f6 9e 27 3d 26 ba d2 3d 3e de 07 3e 83 72 85 3d
       0.04092308 0.10289411 0.13268372 0.06515982
000150 e8 5b 71 3d 1f 7f 2c bd 9e 01 4f be 6d de 50 3e
       0.05892554 -0.04211342 -0.2021546 0.20397349
000160 27 02 37 be 99 36 4c be ca 5c 6e bc 4a f5 87 bd
       -0.17871915 -0.19942702 -0.01454849 -0.06638582
000170 8b 6d 07 bd f4 e4 f9 3d fc fc 24 3e 72 35 fc bd
       -0.033063453 0.122018725 0.16112131 -0.123148814
000180 9f 4e 56 be 24 c8 1a 3e 73 1d bd bd 8e 9f bf bd
       -0.20928429 0.1511541 -0.092341326 -0.093566045
000190 ea 5b 25 3e 0b f9 9e bc 80 1e c4 bb 02 f8 33 be
       0.16148344 -0.019405862 -0.005985081 -0.17575076
0001a0 36 36 52 3b 28 3d 40 bd 22 54 07 3c 79 05 02 be
       0.003207577 -0.046933323 0.008259805 -0.126974
0001b0 9b b8 b4 bd 43 ab cb bc b8 12 40 bd 2c 39 ff bd
       -0.08824273 -0.024861937 -0.04689285 -0.124620765
0001c0 32 ed 83 bd 33 7f 5c 3d ce f2 22 3e 97 79 43 be
       -0.06441726 0.053832244 0.15912935 -0.19089352
0001d0 41 1a b7 bd 42 70 21 be 84 27 56 be 56 a6 8b 3b
       -0.089405544 -0.15765479 -0.20913512 0.004261772
0001e0 71 20 18 be 0e 2e fa bd bc 29 48 3e 4c ec 86 bd
       -0.14856125 -0.122158155 0.1954717 -0.06588039
0001f0 c8 e7 0f 3d 3b b7 01 3e 04 65 26 3c 37 46 d7 bc
       0.035133153 0.12667553 0.01015592 -0.026278598

functional_1/conv1d_4_1/convolution/ExpandDims_1:0 f4 [128, 256, 1, 1]
000000 f0 44 f9 3c 00 44 96 bc 42 70 8d bd 60 ff 2e bc
       0.03042838 -0.018342972 -0.06906177 -0.010681003
000010 20 ff 8d 3d 59 fb e6 3d 5c 84 86 bd c9 cb c2 3c
       0.06933427 0.112784095 -0.06568214 0.023778813
000020 a0 ae 52 bd 75 53 4d bc 9f 09 dd 3c f8 a6 57 bd
       -0.051436067 -0.012532105 0.026982127 -0.05264947
000030 6c 61 ad bd 92 b5 eb bc 20 7e 9f 3d 54 51 c0 3c
       -0.084658474 -0.028773103 0.07787728 0.02347628
000040 6e 5f 2c bd 68 68 3c 3d f6 57 bc 3c 31 8e ee 3d
       -0.042083196 0.045998007 0.022991162 0.116482146
000050 83 63 ee bd 94 f4 d5 bd 06 c9 84 3c 40 4b b4 3b
       -0.11640074 -0.1044704 0.016209137 0.0055021346
000060 b8 62 7e bd b6 af 07 3e 5b c7 cb 3d 3c d8 ee 3d
       -0.062105864 0.13250622 0.099501334 0.11662337
000070 60 e5 17 bd a8 58 8d 3a c7 83 5d 3d 2d c2 68 3d
       -0.037083983 0.0010783868 0.05408075 0.056825805
000080 60 4d 9c 3d 82 b7 8e bd a0 e7 e8 3c 30 f1 b7 3d
       0.076319456 -0.06968595 0.02843076 0.0898155
000090 e9 ed bc 3d a7 57 7d bd 93 63 e6 3d 2e a4 3c bd
       0.09225065 -0.06185117 0.11249461 -0.04605501
0000a0 88 38 33 3d 86 e2 9f bd 08 2d 81 3d 20 d3 b5 3c
       0.043755084 -0.07806878 0.06307417 0.022195399
0000b0 a8 3c 97 3d 6b 1e eb bd 20 3d da bd 30 c1 80 bd
       0.07384616 -0.11480411 -0.1065619 -0.062868476
0000c0 80 83 0b 3b c0 88 e7 bb 7f 88 e5 3d b8 67 3f 3c
       0.0021288097 -0.0070658624 0.11207675 0.011682443
0000d0 97 3e 9e 3d aa 47 d9 3d 89 d7 93 3d 98 a1 f4 3d
       0.07726782 0.10609372 0.072188444 0.11944884
0000e0 9b 4d 93 3c b0 9f 64 bd dc 09 bf bd ee 43 d8 bd
       0.017981341 -0.055816352 -0.093280524 -0.105598316
0000f0 a0 07 ee bc 34 2f aa bd 19 b5 e8 3d 64 a5 82 3c
       -0.02905637 -0.083097845 0.11362667 0.015948005
000100 c4 d8 ff bd 19 19 65 bd 18 38 2a bd 48 1e e1 bd
       -0.12492517 -0.055932138 -0.0415574 -0.10992104
000110 60 c4 ef 3d 74 bd 82 3d 0e 97 d8 bd 90 4a 92 3c
       0.117073774 0.063837916 -0.105756864 0.01785782
000120 d0 91 c3 bd 58 82 02 3d 5f 97 a9 bd 3f fd 83 3d
       -0.09549296 0.031862587 -0.08280825 0.06444787
000130 80 c0 e9 3b b0 8d 15 bd 03 ed c1 3d eb 98 bd 3d
       0.0071335435 -0.036512077 0.094690345 0.092576824
000140 55 4e ec b9 19 67 a8 ba 47 ba dd 3c 5a 2e ac 3c
       -0.0004507179 -0.0012848108 0.027066363 0.021018196
000150 a6 8b ea 3d a3 f9 0d 3d 28 0d 9a bd 68 42 a9 bd
       0.11452417 0.0346619 -0.075220406 -0.08264619
000160 a0 d8 58 bc 32 84 b9 3b 0e be b3 3d 62 26 9a bc
       -0.013235241 0.005661511 0.087764844 -0.01881713
000170 80 71 05 bd bc 8c e4 3c 84 33 9b bd 0c 01 c1 3d
       -0.032578945 0.027899139 -0.07578185 0.09424028
000180 20 33 0d 3c 60 dc e8 3d fe 1f 06 3d 7c 0f c4 bd
       0.008618146 0.11370158 0.032745354 -0.09573266
000190 5e 0f 35 3d 19 b2 b3 bd cc 04 94 3d 72 04 91 bd
       0.04420411 -0.08774204 0.072274774 -0.07080926
0001a0 14 bb d0 bd 20 2d dd bc 90 d8 bd bd ac 5d f2 3d
       -0.10191932 -0.026999056 -0.09269822 0.11834273
0001b0 ad 38 2e 3d 94 e1 d4 bd 1c ad b8 3d b4 ce 8b 3d
       0.04253452 -0.10394588 0.09017393 0.06826535
0001c0 6e bb 1c 3d 58 8f 92 3d 2d ff 87 3d 58 1a 2d bb
       0.038264684 0.07156247 0.06640468 -0.0026413407
0001d0 08 72 84 bd 70 11 00 bd 12 81 03 3e 4c f0 ad bd
       -0.06467062 -0.03126663 0.12842205 -0.084930986
0001e0 0c 5a 22 bd 10 60 f8 bd f7 84 b4 3d 86 2e 09 3d
       -0.039636657 -0.121276975 0.088144235 0.033491634
0001f0 88 d4 5f 3d 81 67 d5 3d 4e 3f 2a bc 68 f9 ab 3d
       0.054646045 0.104201324 -0.01039107 0.0839718
000200 40 3b 29 bc 70 53 bf bc c8 79 5b 3d 9f c8 69 bd
       -0.010329068 -0.023355216 0.053582937 -0.057076093
000210 38 86 a4 bd 3c 6d 78 3d 1c cb b8 bd 88 37 2c 3d
       -0.08033413 0.06065105 -0.09023115 0.042045146
000220 e8 ab 83 3d e0 53 a4 bd 80 28 7c bb 90 6e d4 3d
       0.06429273 -0.080238104 -0.0038476288 0.103726506
000230 d4 d5 9c bd 90 86 2d 3d e0 9e 8c bd 45 01 6c bd
       -0.07657972 0.042364657 -0.068662405 -0.0576184
000240 90 f1 aa 3d 04 98 bc bc 54 ca ea 3d 94 cd b0 3d
       0.08346856 -0.023021705 0.11464372 0.08632961
000250 91 47 98 3d f5 0d 81 3d d8 70 50 bd dd df 92 bd
       0.07435525 0.0630149 -0.050888866 -0.07171605
000260 53 50 df bd dc f2 60 3d e2 32 05 bd ee 80 c9 bd
       -0.109039925 0.05491911 -0.03251923 -0.098390445
000270 98 7e c5 bd 95 5e 99 3b 30 a0 bd bc 14 bc a5 3c
       -0.096432865 0.0046804645 -0.023147672 0.020231284
000280 20 b4 ac bc c8 59 69 bd b8 a8 0c bd 9d 0b 2c 3c
       -0.021081984 -0.056970388 -0.03434059 0.010500816
000290 b0 6d 5a bd 18 68 3e 3d 68 d5 01 3e 80 0f a8 3d
       -0.053327262 0.04648599 0.12679064 0.082060814
0002a0 ee 0b cb bd 30 c7 89 bc be 15 b7 bc bd 62 e7 bd
       -0.09914385 -0.016818613 -0.022349235 -0.1129813
0002b0 9b c7 ea 3d a0 e4 ef 3d 14 e8 8e 3d a4 d5 79 3d
       0.11463853 0.11713529 0.06977859 0.06099476
0002c0 34 d9 f3 3d 3b 06 6b bd 40 28 84 bc d8 7c b7 3d
       0.119066626 -0.05737899 -0.016132474 0.08959359
0002d0 24 d1 e5 3d 60 b4 c0 bd bb 8d 96 bd ac 88 a1 3d
       0.11221531 -0.09409404 -0.07351252 0.07887396
0002e0 5a 42 b5 3c 00 c4 d3 bb f0 9e 9c bd fd 5f c4 3d
       0.022126365 -0.006462574 -0.076475024 0.09588621
0002f0 ab 89 65 bd 04 b6 05 3d 47 56 f4 bc 91 72 20 3d
       -0.056039494 0.032644287 -0.029826296 0.03917176
000300 94 7e f5 3d 27 46 98 bd 5f 84 fd 3d 0d 3b ad 3d
       0.119870335 -0.074352555 0.123787634 0.08458529
000310 fd 33 ca 3d 34 7a e6 3d 60 9d 76 bd 90 17 be bd
       0.09873197 0.11253777 -0.06020868 -0.09281838
000320 91 3f b0 3d 58 c3 d2 3d 29 24 dd bd e5 b0 9a bc
       0.08605874 0.10291165 -0.107979126 -0.018883178
000330 a8 f9 3f bb b7 41 a6 bd 36 8b fa 3d 80 71 98 3d
       -0.0029293094 -0.08118003 0.12233584 0.074435234
000340 d8 f9 22 3d 92 9b 37 3b 36 60 bc bd aa fc c7 bd
       0.03978905 0.002801631 -0.09198038 -0.09764989
000350 68 8d 13 3d 2c 9e 4f 3d 70 07 84 bd 67 15 f7 3d
       0.036023527 0.050687954 -0.06446731 0.12064629
000360 93 e3 9c 3d 01 6f 8f 3d b4 60 e4 bd 87 62 1f 3d
       0.07660594 0.07003594 -0.11151257 0.038912322
000370 b9 9f 06 3d c6 1e 9c bd ff aa f9 3d c0 8e 1e 3d
       0.032867167 -0.07623057 0.12190818 0.038710356
000380 6c 6e dd bd 28 67 dd 3d 98 4e aa 3d 2c fd 80 3d
       -0.10812077 0.10810691 0.08315772 0.06298289
000390 70 c2 b6 bd 14 09 69 3d 20 e9 c2 bc 70 1d f8 bb
       -0.08923805 0.056893423 -0.023792803 -0.0075718686
0003a0 1f 9f 8c bb ac 89 df bd 4f c5 e0 bd 49 0c b7 3d
       -0.0042914297 -0.10914931 -0.10975134 0.0893789
0003b0 08 f1 21 bc 63 76 88 bd 36 2e ce 3d 10 ef f8 3d
       -0.0098841265 -0.066632055 0.10067408 0.121549726
0003c0 46 7d 8f 3d fa c8 76 3c 79 2a 8d bd 19 ca 56 3d
       0.07006316 0.015062565 -0.06892867 0.05243883
0003d0 bf 83 ea 3d d5 09 fc 3c 9c ac 93 3d 50 5f 17 bd
       0.1145091 0.030766407 0.07210657 -0.03695613
0003e0 80 66 fd bb ff f5 53 3d c2 c9 8a 3d c0 dc 86 bb
       -0.007733166 0.051748272 0.067767635 -0.004115671
0003f0 c6 f2 df bd 9c 8b 93 3d c0 c3 45 3c 00 2c 58 3b
       -0.10934977 0.07204363 0.012070596 0.003298521

functional_1/conv1d_3_1/convolution/ExpandDims_1:0 f4 [256, 512, 1, 1]
000000 b4 4d 40 bd 08 20 4a bc 74 a0 a7 bc 1a 71 ea bc
       -0.046949103 -0.012336738 -0.020462252 -0.028618384
000010 f0 f4 15 bd 20 f6 0f 3c fe 1b 20 3d 6a fe 21 3d
       -0.036610544 0.008786708 0.039089195 0.03954927
000020 fa e4 2a 3d cc af ba bc 08 33 34 3c 33 62 a8 3d
       0.041722275 -0.022788905 0.010998495 0.08221855
000030 d8 90 91 bc 08 57 9b bd b6 20 0e bd 2e cf 75 bd
       -0.017769262 -0.07584959 -0.034699164 -0.060012035
000040 87 81 a8 3d d2 32 57 bd a5 b5 ab bd bb 12 a2 3d
       0.082278304 -0.0525387 -0.08384255 0.07913729
000050 dc da b1 bd cd 80 64 bd 00 77 80 3b 40 2b 90 bb
       -0.08684322 -0.055786896 0.003920436 -0.004399687
000060 bd a1 2f bd 00 b7 6e bc 6e b8 a7 bd 78 e4 5c bc
       -0.042878855 -0.014569998 -0.08189474 -0.013482206
000070 66 97 15 bd 33 a6 92 bd 98 c6 79 3c 6a ed 53 3d
       -0.036521338 -0.07160606 0.015245102 0.051740088
000080 af f0 a4 3d f9 33 52 bd fc 8d 9d 3c 60 5c e4 bb
       0.08053719 -0.051319096 0.019232742 -0.00696902
000090 a6 67 43 3d f9 71 a3 bd a2 e0 54 3d 78 4a fc 3c
       0.04770627 -0.07980723 0.05197204 0.030797228
0000a0 5f cb 91 3d 0f fe 8e 3d 35 3c 95 3d 34 85 24 bd
       0.07118868 0.069820516 0.07286874 -0.040166095
0000b0 de 43 fb bc 5a 24 b0 bd 80 63 14 bd c0 8d 4c bc
       -0.03067201 -0.086006835 -0.036227703 -0.012484968
0000c0 0b 73 5a bd 80 65 56 3a c0 24 8f 3c b4 54 1f bd
       -0.05333237 0.0008178577 0.017473578 -0.03889914
0000d0 0f c2 45 bd 5e 91 18 3d 62 1b 72 3d 58 55 ca 3c
       -0.04828077 0.037248008 0.059108146 0.024698898
0000e0 f0 aa 7d bd 14 16 97 bc 38 71 c7 bc b8 68 07 3d
       -0.061930597 -0.018443145 -0.02434598 0.033058852
0000f0 58 98 71 3c 9f 04 95 bd 5c 61 e2 3c 26 58 31 3d
       0.014745794 -0.07276272 0.027634315 0.043296956
000100 c2 80 5b 3d b6 74 5c bd 0a fe 69 3d 1c 56 ae 3c
       0.05358959 -0.05382224 0.057127036 0.021281295
000110 ec 8b c5 bc 8c f4 be 3c c8 43 a7 3c 2c 3f b6 bc
       -0.024114572 0.023309968 0.020418063 -0.02224692
000120 e2 b7 e1 bc c6 92 40 3d ac f9 81 bd 90 c5 97 3b
       -0.027553502 0.047014974 -0.06346449 0.0046317056
000130 12 55 32 3d 3c 35 c6 3c 5a 4c 4c 3d a1 75 27 bd
       0.04353816 0.024195306 0.049877502 -0.040883664
000140 3d 26 61 bd 15 33 8e bd 30 03 f7 bc 40 db ac bd
       -0.054968107 -0.06943337 -0.030152887 -0.08440256
000150 00 96 b9 bb 6c 8d d7 3c 59 dc 3e bd 9e fd 17 3d
       -0.0056636333 0.026312552 -0.04659686 0.037107103
000160 e0 51 15 bb a9 64 92 3d a8 13 93 bd 82 63 d6 bc
       -0.0022784397 0.07148106 -0.071814835 -0.026170496
000170 f8 c5 70 3c 18 6d 5b bd e0 28 c2 bc 75 cd ad 3d
       0.014695637 -0.053570837 -0.023701131 0.084864534
000180 90 97 0f bc e8 93 8b bd 38 fc 20 bc 2a ef 1e 3d
       -0.008764163 -0.0681532 -0.009825759 0.038802303
000190 48 db de 3c bf 73 99 bd 15 14 a3 bd 60 ed 6a bd
       0.02720417 -0.0749278 -0.07962815 -0.057355285
0001a0 79 f3 ae 3d e0 7c ba bb 01 d3 8d bd ce 6a 61 3d
       0.085425325 -0.005691156 -0.069250114 0.055033498
0001b0 e7 96 b2 3d 9c ee 9b 3c 60 4b b2 3b 8f c0 81 3d
       0.087201886 0.019034676 0.0054411143 0.06335556
0001c0 6c 2e 99 3c dd e4 b0 bd 34 54 c3 3c 60 84 7f bb
       0.018698893 -0.08637402 0.023843862 -0.0038988814
0001d0 f5 e5 0c bd b0 ee 94 bb 2a c6 69 3d 66 10 2c 3d
       -0.03439899 -0.0045450553 0.05707375 0.042007826
0001e0 e8 ac cb bc b1 79 aa 3d d9 1c ac 3d 3a c2 82 bd
       -0.024862722 0.08323992 0.0840394 -0.06384702
0001f0 e0 3b 0b 3b c8 71 8f bc 10 db d4 3c a3 ef 9a 3d
       0.0021245405 -0.01751031 0.025983363 0.07565238
000200 de 75 80 bd ca b7 27 3d c6 e6 e9 bc 74 f1 9f 3c
       -0.062724814 0.04094676 -0.028552424 0.019524314
000210 37 6d 97 3d 1c a3 b2 bc 86 80 3f 3d c8 37 91 bc
       0.07393878 -0.021806292 0.04675343 -0.017726794
000220 38 02 a6 bc c7 c9 89 3d c2 23 44 3d f0 73 05 3c
       -0.02026473 0.06727939 0.047885664 0.008145317
000230 da c2 9a bd ed 29 2f bd 5f 57 aa 3d 2e a4 0f bd
       -0.07556696 -0.042764593 0.08317446 -0.035068683
000240 5e 72 1d 3d bc 81 aa bd c1 f3 8d bd 95 7c a8 3d
       0.038439147 -0.08325526 -0.06931258 0.08226887
000250 00 09 d0 3b 10 50 56 bc 5f 52 36 bd 80 ff da 3b
       0.006348729 -0.013080612 -0.04451215 0.00668329
000260 40 21 a2 bb ec 14 b1 bc 80 b8 87 3a dd 1e 32 bd
       -0.0049478114 -0.021616422 0.0010354668 -0.043486465
000270 be 06 31 3d b0 83 e9 3b 0e 4f 93 bd 32 29 7e 3d
       0.04321932 0.007126294 -0.07192813 0.062051006
000280 12 fa 39 3d 08 fc 24 3c d6 ef 29 3d 8e 4d 4a 3d
       0.0454045 0.010069855 0.04148849 0.04939037
000290 e0 33 8b bb 20 21 2a bb f0 cd 2a bd 19 1d a1 3d
       -0.0042481273 -0.0025959685 -0.041700304 0.07866878
0002a0 b3 eb a8 3d 09 4f 2e bd 22 85 78 3d 2e 71 2c 3d
       0.08248081 -0.042555843 0.06067384 0.042100124
0002b0 5c 5f fe bc fb 5f b1 3d f2 41 72 3d 2f ab 3e bd
       -0.03105133 0.08660885 0.05914492 -0.046549972
0002c0 13 5c 90 3d be e8 14 3d ae 4f 9a bd 1c 07 00 3d
       0.07048812 0.036354773 -0.07534729 0.03125678
0002d0 90 e9 34 3c cc c9 86 bc ee 63 52 3d 55 39 a2 3d
       0.011042014 -0.016453646 0.05136483 0.079210915
0002e0 33 5c 09 bd 97 13 7a bd 4f 6f 27 bd 2a dd 25 3d
       -0.033535194 -0.06105384 -0.040877637 0.04049412
0002f0 c0 61 e9 bb b0 51 0e bc c0 eb 37 bc 78 4d 30 3c
       -0.0071222484 -0.008686468 -0.011225641 0.0107606575
000300 ba 30 f3 bc 64 2a 9e 3c b9 50 84 3d 9a 19 9b bd
       -0.02968632 0.019307323 0.06460709 -0.075732425
000310 f2 b9 f0 bc f7 20 92 bd 90 dc a9 bb e0 fb be 3c
       -0.02938554 -0.07135194 -0.005183764 0.023313463
000320 08 71 4c 3c 9d 1c 9a 3d 20 ab 0e 3d fa 2c 77 bd
       0.012478121 0.07524989 0.034831166 -0.060345627
000330 ac 3b c5 3c b5 d6 a6 bd ca b7 2b bd a2 f9 8a bd
       0.024076305 -0.08146421 -0.04192332 -0.06785895
000340 28 40 9d bc ee f6 e0 bc 47 90 aa 3d a3 a6 93 3d
       -0.019195631 -0.027461495 0.083283 0.07209518
000350 8b 8b 91 3d 09 68 a4 bd c0 ca 8b bd 48 bf 1b 3c
       0.07106694 -0.08027656 -0.06825781 0.009506054
000360 fc 68 8c bc 3e e2 7e 3d 48 4f aa 3c 06 76 18 3d
       -0.017139904 0.06222748 0.020789757 0.03722193
000370 58 93 13 bd 60 0a e5 3b 54 eb a8 3c 62 a5 6f 3d
       -0.03602919 0.006989762 0.020620026 0.05850733
000380 b8 d2 9b 3c 5c a2 0c 3d b2 29 41 3d 18 04 fb 3c
       0.019021377 0.034334525 0.047158904 0.0306416
000390 00 d0 a8 37 a0 d2 2b 3c 72 1b 34 3d 0a 45 7e 3d
       2.0124018e-05 0.010487229 0.043971486 0.06207756
0003a0 20 86 56 3b 98 e2 8e bc 4b 49 9a bd a0 2f 90 bd
       0.0032733753 -0.017442033 -0.07533511 -0.07040334
0003b0 06 96 4e 3d 40 8c e6 3b 45 9c 85 bd e4 c1 9e bc
       0.050436042 0.007035762 -0.06523947 -0.019379564
0003c0 67 dd 2a bd 09 00 82 3d e7 20 31 bd f1 47 2e bd
       -0.041715052 0.06347663 -0.04324427 -0.042549077
0003d0 3a be 59 3d 55 35 86 3d cf cf a1 3d 3c d8 00 bd
       0.05315993 0.06553141 0.079009645 -0.031456217
0003e0 c9 e8 a9 3d 0b 50 af 3d 8c eb 6d bd e6 3b 9b bd
       0.08296353 0.08560189 -0.058085963 -0.07579784
0003f0 3c 0c f9 bc 5a 6e 1b 3d 80 f4 e0 bc 01 4b 8a 3d
       -0.030401342 0.037947036 -0.027460337 0.06752587

functional_1/conv1d_2_1/convolution/ExpandDims_1:0 f4 [256, 128, 1, 1]
000000 40 21 86 3b de e2 d3 bc 20 51 e8 bd b0 a3 59 bd
       0.004093319 -0.025865015 -0.11343598 -0.05313462
000010 90 2e ae bc fc 39 d4 bd 2c 79 4e bd ec 44 e7 bd
       -0.021262437 -0.10362622 -0.050408527 -0.11292443
000020 f0 b0 77 bd d0 27 a2 bc 59 d2 f3 bc b2 43 98 3d
       -0.060471475 -0.019794375 -0.029763388 0.07434787
000030 78 6b 03 bd b3 b3 e1 bd 2c c5 fb 3b 7c a6 a6 bd
       -0.032084912 -0.11020603 0.007683417 -0.08137223
000040 b1 58 94 3d 77 a4 01 be dd 29 db 3d 73 a0 1b 3c
       0.07243479 -0.12660395 0.10701344 0.009498703
000050 b6 40 de 3c 62 4b b6 bd 62 6d 99 3a a0 c7 98 bc
       0.027130466 -0.08901097 0.0011705572 -0.018649876
000060 2c 82 95 3d 14 61 80 bd 40 3b cb 3c 68 60 0c 3d
       0.07300219 -0.06268516 0.024808526 0.034271628
000070 a9 ef df bd b8 23 c4 3d ec 8c 95 3d c0 a8 bf bd
       -0.109343834 0.09577125 0.07302269 -0.093583584
000080 10 8d d3 3c 64 5f 48 bd 44 bb 7b bd a4 ff 9b bd
       0.0258241 -0.048919097 -0.061457887 -0.07617119
000090 20 9a cb bc 6a fd a9 bd f6 cf d9 3d f8 ac a1 bd
       -0.024853766 -0.08300288 0.106353685 -0.07894319
0000a0 dd 1b df 3d 80 44 b5 bc b8 e4 9f 3d 4c 4d a3 bd
       0.108939864 -0.02212739 0.078072965 -0.079737276
0000b0 1e 2c ec bd 98 6c 9e 3d 20 b4 18 bd 40 98 4a 3d
       -0.11531852 0.07735556 -0.037281156 0.049461603
0000c0 f0 db df bd 1b ef f0 bd 54 49 a3 bc 18 63 c9 bd
       -0.109306216 -0.11764356 -0.019932427 -0.09833354
0000d0 39 38 4e bc 7c 30 f5 bd 80 d2 79 bb 80 d1 9a 3b
       -0.012586647 -0.11972138 -0.0038119853 0.0047246814
0000e0 f8 4e 0d 3d 5a b4 86 bd 68 24 c2 bd ab 49 b3 3d
       0.03449914 -0.06577368 -0.094796 0.087542854
0000f0 93 34 1a 3d 8c b0 9d 3d 14 23 a5 3d 00 b5 71 3d
       0.037647795 0.07699689 0.08063331 0.059010506
000100 0f 5c 6b 3c c0 8f 37 bc e4 06 a5 3b ec a0 cb bd
       0.01436521 -0.011203706 0.005036222 -0.09942803
000110 fc 94 ce bd 21 ed b6 3d 50 d5 ce bd 64 26 fe bd
       -0.1008701 0.089319475 -0.1009928 -0.12409666
000120 25 0f fa 3b b0 fb 3a bd 44 5a ae 3d d0 16 28 3d
       0.0076312 -0.045650184 0.085133106 0.04103738
000130 e3 db 94 3d 0a bf 23 bc fc 48 ad 3d cf d6 a4 3d
       0.072685026 -0.009994278 0.08461186 0.08048784
000140 34 65 79 3d f2 99 68 bd 5c f8 ca 3d 69 1f e5 3d
       0.06088753 -0.05678744 0.09910652 0.11187632
000150 a0 d6 a3 3c 80 9b 79 3b 94 92 f2 bd b0 24 e0 bd
       0.019999802 0.003808707 -0.11844364 -0.109444976
000160 66 cf a7 bd 14 f5 ec 3d 38 9a b2 3d cc 46 b1 3d
       -0.08193855 0.115701824 0.08720821 0.086560816
000170 a8 f9 57 3d f3 57 f2 bd 40 98 f3 bd 30 d1 29 bd
       0.052728325 -0.11833181 -0.11894274 -0.041459262
000180 04 9e f2 3d 52 1c ea bd 1b ba 9b bd fa 84 96 bd
       0.11846545 -0.11431183 -0.07603856 -0.07349582
000190 98 10 8b bd 50 74 df bd 11 de 24 3b 9c cf 89 3d
       -0.067902744 -0.10910857 0.0025156776 0.067290515
0001a0 c7 1a 2d 3d d1 cf 2d 3c 58 9a b9 3d 40 22 3e bd
       0.042261865 0.010608629 0.09062642 -0.046419382
0001b0 90 1b fd 3c 74 0a 9e 3d 5a 7c be 3d 3c 22 d7 bd
       0.030896932 0.077168375 0.09301062 -0.105045766
0001c0 10 f3 8e bd c4 4d ad bd a4 64 f0 bd 18 3c 39 bd
       -0.06979954 -0.08462098 -0.11737946 -0.045223325
0001d0 78 dd 56 3d b0 17 32 3d 80 c1 a7 3d ed 83 cb 3c
       0.052457303 0.04347962 0.08191204 0.02484318
0001e0 fc 7d bd 3d 7f 49 d2 3d 40 81 92 bd 84 31 cb bd
       0.09252545 0.102679245 -0.07153559 -0.09921554
0001f0 7f 16 a7 3d 28 a3 cb bd a4 fe 92 3d 68 56 9d bd
       0.08158588 -0.09943229 0.07177475 -0.07682496
000200 50 91 d9 bd 90 de 92 bc f4 ad f5 bd b0 05 fb 3d
       -0.10623419 -0.017928392 -0.119960696 0.12256944
000210 cc e0 9e 3d c0 0e c8 3d a0 64 7d bd 30 14 8a 3c
       0.0775772 0.09768438 -0.06186354 0.01685533
000220 80 36 64 3b b0 b2 bd 3d 18 e9 6a 3d 90 68 59 bd
       0.0034822524 0.092625976 0.0573512 -0.053078234
000230 80 0b 8c 3d 1c 46 f8 bd ac bb 89 3d 58 97 c9 3d
       0.06838131 -0.12122747 0.06725249 0.0984332
000240 f0 9b f6 3c 64 12 9e bd a0 d3 4f bd 34 41 87 3d
       0.030103654 -0.077183515 -0.05073893 0.066042334
000250 84 13 f2 bd 18 ec 32 3d 40 d4 20 bc 50 75 e8 bd
       -0.118201286 0.043682188 -0.009816229 -0.113505006
000260 10 c1 2c bd 00 be 4b bc f8 2e 6c 3d 6c 75 87 bd
       -0.042176306 -0.012435436 0.05766198 -0.06614193
000270 5c 89 cc 3d b0 4a ba 3d 48 67 98 bd 18 d1 02 3d
       0.09987137 0.09096277 -0.07441574 0.03193769
000280 18 07 32 3d 00 b0 ad bd 60 c9 66 bd 20 5e 1b 3d
       0.043463796 -0.08480835 -0.05634439 0.03793156
000290 c0 61 9c 3c 00 48 75 3a 00 d7 07 3d c8 46 e8 bd
       0.01908958 0.0009356737 0.033164024 -0.113416255
0002a0 20 a1 aa 3c 30 cc f4 3d 00 45 82 bd c0 b3 b2 3c
       0.020828784 0.11953008 -0.06360817 0.021814227
0002b0 40 d3 f9 3b c8 f2 7f bd 94 c9 e3 bd 20 c7 45 bd
       0.00762406 -0.062487394 -0.11122432 -0.048285604
0002c0 20 2b 9e 3c 30 aa ba bd 44 6b ef 3d 24 38 a4 3d
       0.019307673 -0.09114492 0.11690381 0.080185205
0002d0 00 51 8b 3c e0 ee cd 3d c0 40 45 3c 68 41 14 bd
       0.017006397 0.100553274 0.012039363 -0.03619519
0002e0 c0 2e 4a 3d 58 8c 83 3d 00 56 8c bb b0 39 9c bd
       0.04936099 0.06423253 -0.004282713 -0.076281905
0002f0 d8 b3 d0 bd 30 60 f9 3c 08 79 d8 bd 50 e8 91 3d
       -0.101905525 0.030441374 -0.1056996 0.07124388
000300 18 34 b6 3d 10 76 e0 bd 18 07 3d 3d 28 0d 12 3d
       0.08896655 -0.10960019 0.046149343 0.035657078
000310 00 48 c9 3a a0 c5 27 3c e8 9b 80 3d 80 ca 37 bb
       0.0015356541 0.010239989 0.06279737 -0.0028044283
000320 80 fc 47 bd 38 ec 82 3d 80 1e 05 bd 80 00 ec 3c
       -0.048824787 0.063927114 -0.03249979 0.028808832
000330 94 17 df bd 70 f8 c2 3c 80 9a 32 bc 00 b6 f1 ba
       -0.10893169 0.023800105 -0.0109010935 -0.0018441081
000340 b0 4a db bc c0 f7 a3 bb 4c ee f8 3d 80 78 2d 3b
       -0.026769012 -0.0050038993 0.121548265 0.0026469529
000350 e0 5b 50 bc c8 2a 67 3d d0 cc e5 3c 7c 04 e4 3d
       -0.012717217 0.056437284 0.028051764 0.11133668
000360 18 71 c1 bd b0 f0 5c 3d 50 81 d5 3c 08 94 6d 3d
       -0.09445399 0.053940475 0.026062638 0.0580025
000370 e0 4f ef bd 68 47 c2 3d 10 25 d2 3d cc 35 d0 bd
       -0.11685157 0.09486276 0.10260975 -0.10166511
000380 e0 0f be bc e0 9e 51 bd 14 dd ee 3d 7c 14 bd 3d
       -0.02320093 -0.051176906 0.11663261 0.09232423
000390 14 52 94 bd 58 88 49 bd 20 bc b7 bc 2c 7c a3 bd
       -0.07242218 -0.049202293 -0.022428572 -0.07982668
0003a0 34 e5 88 3d 00 da 8a bb f8 60 5e 3d 40 ab ad 3b
       0.06684342 -0.0042374134 0.054291695 0.0052999556
0003b0 34 75 f5 3d 10 fd f7 bc 20 bc 78 3d f8 e5 86 bd
       0.11985245 -0.030272037 0.060726285 -0.06586832
0003c0 a8 70 9d bd 60 c7 a8 3c e0 a7 a7 bd 70 68 9d bd
       -0.07687503 0.020602882 -0.081863165 -0.076859355
0003d0 88 de 82 3d 00 8b 91 3d 18 37 11 3d c0 d6 a5 bb
       0.06390101 0.0710659 0.035452932 -0.0050610006
0003e0 9c e4 ef 3d 48 b4 5d bd 60 01 dc 3c a0 8c e8 bd
       0.11713526 -0.054127008 0.026856124 -0.11354947
0003f0 b0 b6 b7 3d 64 77 ef bd 20 0c 81 3c 30 e1 b0 3c
       0.08970392 -0.11692694 0.015752852 0.021591753

functional_1/conv1d_1_2/convolution/ExpandDims_1:0 f4 [128, 64, 1, 1]
000000 22 78 fe bd ee d1 f3 bd 70 b3 28 3d ca 9c 33 be
       -0.12425257 -0.11905275 0.04118675 -0.17540279
000010 f0 7f 02 3c a8 70 b4 bd ef 2b 23 3e e9 02 34 3e
       0.007965073 -0.0881055 0.15934728 0.17579235
000020 0b 98 34 be 23 0c 02 3e 3e 58 61 bd d0 00 a1 3c
       -0.17636125 0.12699942 -0.055015795 0.019653708
000030 34 63 1a 3d 12 3a 1e be 10 36 5c 3c 1e f0 da 3d
       0.037692264 -0.1545184 0.013440624 0.1069033
000040 7c b8 17 bd e9 0f db bd f8 aa 9a 3c a0 7e e9 3b
       -0.037041172 -0.10696394 0.018880352 0.0071256906
000050 f4 37 38 bd 32 97 cd bd 21 b5 e3 bd 2b cf fb bd
       -0.044975236 -0.10038604 -0.11118532 -0.122953735
000060 6f e7 02 3e fe f2 0d be 92 7d be 3d 4c c4 66 bd
       0.12783597 -0.13862225 0.093012944 -0.056339547
000070 3f 6e d2 bd 88 1e 97 3c b8 7a c4 bc 56 e1 bb bd
       -0.10274934 0.018447176 -0.023984298 -0.09173839
000080 aa 21 cd 3d 9e f1 29 be f7 d4 04 3e 70 b6 0d bc
       0.100161865 -0.16596076 0.12971865 -0.0086494535
000090 88 6d 19 3d 5f 72 1e 3e 67 48 b7 bd 2a 4c c2 3d
       0.037457973 0.15473317 -0.089493565 0.094871834
0000a0 5c 44 71 3d 11 a0 d3 bd fa a5 af 3d e0 0f 5e 3c
       0.058903083 -0.103332646 0.085765794 0.01355359
0000b0 72 af f5 3d 52 10 b3 3d b6 85 93 bd 42 f1 b4 3d
       0.11996354 0.08743347 -0.07203238 0.08835079
0000c0 b0 c5 1f 3c 45 3c 04 3e e0 20 18 bd ce d4 20 be
       0.009751722 0.12913616 -0.037140727 -0.15706179
0000d0 9c 94 69 3d f4 f4 0a bd 18 aa 20 be 65 76 ca bd
       0.05702649 -0.03392501 -0.15689886 -0.09885863
0000e0 07 ec 1e be 68 af 3a bd 20 91 fd 3b 6a 44 15 be
       -0.15519725 -0.045577437 0.0077382475 -0.14576879
0000f0 db 01 a0 bd 20 a8 84 3d d4 09 65 3d a0 c8 35 bc
       -0.07812854 0.0647738 0.055917576 -0.011095196
000100 11 7f 37 3d ba 5b 06 3d 0d 78 10 bc 18 fe 8f bd
       0.044798914 0.03280232 -0.008817685 -0.070308864
000110 74 83 26 3e 0a 0f 28 bd 8a 32 a2 3d 9e 9c 0a bd
       0.16261083 -0.041029967 0.07919796 -0.033840768
000120 f5 77 27 3e 71 e4 2b be 6c 50 56 3d f7 36 d5 3c
       0.16354354 -0.16786362 0.05232279 0.026027186
000130 ea f1 34 be b5 ee 83 bc 1f 46 19 3e db 65 17 be
       -0.17670408 -0.016105035 0.14968155 -0.14784949
000140 50 0b a2 3c e0 9b e5 3c 4c bc f7 bd 3c c5 06 3e
       0.019780785 0.028028429 -0.12096462 0.13161176
000150 18 7d 51 3d 3f c1 bf bd f7 66 0a 3e 0d f6 32 be
       0.05114469 -0.09363031 0.1351584 -0.17476673
000160 a9 89 19 bd e0 e4 bd 3b 5f 9f f7 bd 9d 84 cb 3d
       -0.0374848 0.0057951063 -0.120909445 0.09937403
000170 a0 b6 9f bb 5f ff 29 3e fb 26 0b be 7f 7a 65 3d
       -0.0048740655 0.16601323 -0.13589089 0.056025025
000180 f7 7c 0b be 8c 54 d7 bd 60 db 0d 3d 4b 55 20 3e
       -0.13621889 -0.10514173 0.03463304 0.15657537
000190 bb 05 7d bc 5a 85 fc 3d 85 ef 57 3c 46 c5 9a bd
       -0.015443261 0.12330122 0.0131796645 -0.07557158
0001a0 bc 55 4c 3d 08 07 67 3d ee 8e c6 3d 38 1e 47 3d
       0.04988645 0.05640319 0.096952304 0.048612803
0001b0 1a 28 eb 3d 26 31 e8 3d 40 63 59 bd 9c 76 82 3d
       0.11482258 0.11337499 -0.053073168 0.06370279
0001c0 1c d5 ba 3d e3 3b b6 3b d6 26 bc 3d 80 26 77 bd
       0.09122679 0.0055613383 0.09187095 -0.06033945
0001d0 fd 70 01 be a6 33 f7 3d a5 49 a9 3d 75 ea cb 3d
       -0.12640758 0.12070398 0.08266 0.099568285
0001e0 e9 27 00 be 63 e8 06 3d 3d ae f4 3d 48 26 0c be
       -0.12515225 0.032936465 0.11947296 -0.13686478
0001f0 87 6e 26 3e fe 79 68 bd 4a 62 df bd f8 8f b4 bd
       0.162531 -0.056756966 -0.10907419 -0.08816522
000200 81 f4 5f bd c7 54 36 3d 06 8a c8 3d d1 7f bc bd
       -0.054676536 0.044514444 0.09791951 -0.092040665
000210 ca 60 1c 3e 3a 1e 07 be 1b db fe 3d 38 5e 1e be
       0.15271297 -0.13195124 0.12444135 -0.15465629
000220 84 aa 94 3d cb 8d 1f 3e 6b 4b 82 bd dd 61 57 bd
       0.07259086 0.15581433 -0.06362041 -0.052583564
000230 64 ee 28 bd a8 75 3e 3d c1 a7 b8 bd 71 a7 1b bc
       -0.041242972 0.046498924 -0.090163715 -0.00950037
000240 e0 b1 cd 3c be ba d9 bd f0 29 9a bc 63 57 40 3d
       0.025109231 -0.10631321 -0.018818825 0.04695834
000250 84 b4 46 bd 58 2d 98 3c 1b f8 0d be ac e5 62 3d
       -0.048511997 0.01857631 -0.13864176 0.055394813
000260 27 ca 05 be 10 53 e6 bc 32 4d b8 3d 9f 14 c7 bd
       -0.13065396 -0.02811578 0.08999099 -0.0972073
000270 3e 57 ec 3d e4 78 56 3d 44 a8 04 3e db 2d fb 3d
       0.115400776 0.052361384 0.12954813 0.122646056
000280 14 a5 fb bc e4 cc 29 3d 65 a8 1d be fe 9b dd 3d
       -0.030718364 0.041455165 -0.15396269 0.10820769
000290 cf 22 ea bd d4 12 86 3d 20 7c e1 3d 46 c0 d2 bc
       -0.114324205 0.0654656 0.11010003 -0.025726449
0002a0 ee 53 fd bd 90 28 f9 bc 00 bf 8f 3c d5 60 e7 bd
       -0.12369524 -0.03041485 0.01754713 -0.11297766
0002b0 26 79 f2 3d 49 35 0b be 5d 4d 27 3e 46 e5 f7 3d
       0.118395135 -0.13594545 0.16338105 0.12104277
0002c0 54 3e f7 bd 59 b7 1e bd a0 5a f3 bb 01 2c b3 bd
       -0.12072435 -0.038749073 -0.007426575 -0.087486275
0002d0 a6 47 1c be 1b 06 fc 3d 94 f8 ce bd 8f 10 db 3d
       -0.15261707 0.12305852 -0.10106006 0.10696518
0002e0 80 ef 7f 3d f4 ee 07 be c3 1d 8c 3d ec 10 94 3d
       0.062484264 -0.13274747 0.06841614 0.0722979
0002f0 cf 2c 12 3e de 60 c0 3d 5a 26 cc 3d c8 43 e0 bc
       0.14274906 0.09393476 0.099682525 -0.02737607
000300 8d 34 10 3e a9 42 de bd 4a f2 82 bd ed b7 cc bd
       0.14082547 -0.10852558 -0.06393869 -0.099960186
000310 0a 41 2b 3e b3 93 e7 3d 49 89 ba bd b2 8a f2 3d
       0.16724029 0.11307468 -0.09108216 0.1184286
000320 ec aa 1e be 7c 1c a5 3d 14 47 13 be b5 c1 01 3c
       -0.15494889 0.080620736 -0.14382583 0.0079197185
000330 0e b7 b9 3d fe de 7c 3d 48 de 0c be 77 b2 44 3b
       0.09068118 0.0617361 -0.13756669 0.00300136
000340 35 6f aa bd ea 37 c1 bc 2e 68 cf 3d c7 8e 1d bd
       -0.08321992 -0.023586232 0.101272926 -0.03846624
000350 b6 c6 96 3d 1d 8a e6 bd a3 40 0e 3e b2 a0 bd bd
       0.0736212 -0.11256812 0.13891844 -0.09259166
000360 96 73 09 bd 07 df ac bd f2 89 cf 3d 38 08 af bc
       -0.033557497 -0.084409766 0.10133733 -0.021366224
000370 de 04 a4 3d 96 89 b8 3d 86 4d 6d 3d 29 23 e6 bd
       0.08008741 0.090106174 0.05793526 -0.11237175
000380 92 1a d4 bd c3 1a 5e bd 79 03 19 3e 8a f3 aa 3d
       -0.103566304 -0.05422474 0.14942731 0.08347233
000390 a5 a0 1a 3e a0 71 96 3c 1e 5f 19 bd a4 85 33 be
       0.15100344 0.018364727 -0.037444226 -0.17531449
0003a0 56 9f 68 bd 34 c6 3c bd 9a a1 b3 3d 8a 5e b3 3d
       -0.05679258 -0.04608746 0.087710574 0.08758266
0003b0 01 68 9d bd 29 04 04 3e 90 86 ca 3c 0a 64 ea bd
       -0.07685853 0.12892212 0.024722368 -0.11444862
0003c0 40 67 bb bd bf 6d 03 be 66 20 da bd a0 7d 11 3c
       -0.09150553 -0.12834834 -0.10650711 0.008880049
0003d0 08 69 19 be c8 4d f8 bd 8b 6b 05 3e f4 b5 35 3d
       -0.14981472 -0.121242106 0.13029306 0.044362977
0003e0 e4 30 65 3d d4 35 c1 3d 45 2b a3 bd 02 a2 99 bd
       0.05595483 0.09434095 -0.079672374 -0.07501604
0003f0 07 64 1f 3e 9d 00 e0 bd 34 ca 0c bd 94 94 16 be
       0.15565501 -0.10937617 -0.034372523 -0.14705116

functional_1/conv1d_1/convolution/ExpandDims_1:0 f4 [64, 24, 1, 1]
000000 d7 4a 44 3e 8f 19 d5 bd ce 45 a3 bd 37 38 28 be
       0.19169174 -0.104052655 -0.079722986 -0.16427694
000010 e3 e5 ae bd 28 85 7f bd d9 da 68 3e b5 a1 e4 3d
       -0.08539941 -0.062382847 0.22739734 0.11163656
000020 7b d0 23 3e c6 5b 8a bb f6 92 08 3e 2d 6d 62 bd
       0.15997498 -0.004222366 0.13337311 -0.0552799
000030 82 2f a2 3d c7 34 6c be 66 c6 ba 3b 33 e7 29 be
       0.07919218 -0.23067008 0.0056999205 -0.16592102
000040 ff c3 f8 3d 21 fc 65 bd ee 65 95 3d 6b 65 6e 3e
       0.12146758 -0.056148652 0.07294832 0.23280875
000050 7f 41 24 be 19 65 1e be e0 c0 62 3e f7 ed 05 3e
       -0.1604061 -0.15468253 0.22143888 0.13079058
000060 1f 65 ca bd 4b b3 b0 bd 36 59 38 3e a9 af 0c 3c
       -0.098825686 -0.086279474 0.18002781 0.0085868025
000070 5a 02 e6 bd b1 6f 66 be b5 c7 43 3e 99 61 29 3e
       -0.11230917 -0.22503544 0.19119151 0.16541137
000080 91 33 c4 3d 34 e8 8b 3d 10 ce 5f bc 04 e7 af 3d
       0.09580148 0.068313986 -0.013659969 0.085889846
000090 42 22 0c be 68 c5 83 3d fd c8 e9 bd ab 88 6a 3b
       -0.13684943 0.06434137 -0.114152886 0.0035787027
0000a0 c5 77 27 3e 7b 86 23 bd 78 b5 5c be d7 c8 03 3e
       0.16354282 -0.039923172 -0.215536 0.12869583
0000b0 c8 86 86 3e 74 37 0a 3e c3 ff 82 3e 00 21 7e be
       0.26274705 0.13497716 0.25585756 -0.24817276
0000c0 c5 23 7b 3d 48 9c 25 3e c5 c3 83 bd c7 2c 5d 3e
       0.06131341 0.16172898 -0.064338244 0.21599112
0000d0 7a 41 4e be 4d c7 f2 bd 6a da cb 3d ed 09 cf 3c
       -0.20142165 -0.1185442 0.099537686 0.025273288
0000e0 1b 9a 5e 3e 96 85 ca bd 2d 85 86 bd 40 32 06 bd
       0.21738474 -0.09888761 -0.0656837 -0.032762766
0000f0 65 17 b9 bd 73 ef f0 bd a2 3d a1 3d db c0 f3 bc
       -0.09037665 -0.11764421 0.07873084 -0.029755047
000100 6b 35 a5 bd 3d 5b 62 3e 63 2a 96 bd bf 96 e5 3d
       -0.08066829 0.22105117 -0.073323034 0.11210393
000110 53 5d a2 bd b0 72 03 be d6 c9 08 3e 4f 13 0a 3e
       -0.079279564 -0.12836719 0.13358244 0.13483928
000120 30 92 e2 3c b3 41 4a be 70 91 73 bd 9a 69 61 3e
       0.027657598 -0.19751625 -0.059464872 0.2201294
000130 c3 35 80 be 38 0c d9 bd 66 e5 28 be 30 ab 84 3d
       -0.25041017 -0.10598034 -0.16493759 0.06477964
000140 4c b3 c9 bd d3 20 2c be ce 87 7c be 36 11 19 be
       -0.09848651 -0.16809396 -0.2466118 -0.14947972
000150 ca 79 42 3e 90 7e 2e 3d b8 29 03 be 00 3d f4 3d
       0.18991771 0.04260117 -0.12808883 0.11925697
000160 50 b2 2d bd b4 1d 56 3e 7e d4 4f 3e ae 9c 59 be
       -0.04240638 0.20909768 0.20295903 -0.21251175
000170 34 1e 43 bd 8e 75 5e 3e c0 6a 1c bc 78 21 58 bd
       -0.047636226 0.21724531 -0.009546936 -0.052766293
000180 55 ea 5b 3d 66 92 2b bd 18 67 4f 3e 1b 66 18 be
       0.053690273 -0.041887663 0.20254171 -0.148827
000190 cf 58 2a be 31 24 46 3e d2 f2 0b be e7 38 cb bc
       -0.1663544 0.19349743 -0.13666847 -0.024807407
0001a0 86 55 5a be 00 fd e3 bc 88 af 6c be 23 fe 67 3d
       -0.21321687 -0.0278306 -0.23113835 0.056638848
0001b0 d2 2b be 3d dc 4b 01 be 33 55 0a 3e a6 2e 12 bd
       0.09285702 -0.12626594 0.13509063 -0.03568902
0001c0 de 6f 11 3e c7 ed 10 be eb a9 8c bd 55 76 03 3e
       0.1420283 -0.14153205 -0.06868347 0.12838109
0001d0 a5 53 ff 3d d7 01 21 3d b9 8f 4f 3e 2e 91 58 3c
       0.12467126 0.039308395 0.2026967 0.013218207
0001e0 8d b0 29 be ed f3 2b 3e 0d d3 75 3e b8 13 80 3e
       -0.16571255 0.16792269 0.2400629 0.25015044
0001f0 f1 1f fe bd af c5 13 bd ed 96 ae bc e3 46 ac 3d
       -0.12408436 -0.036077198 -0.021312201 0.08411958
000200 a8 1c 34 3e ce 56 f9 bb 03 ef 7f 3e 9e 8b 7f 3c
       0.17589056 -0.007609225 0.2499352 0.015597252
000210 09 b3 c1 3d 98 d8 56 3e 28 8b 36 bd 54 9e 81 be
       0.09457976 0.20981061 -0.044566303 -0.25316107
000220 82 de 20 bc 8d f7 a8 bd 3a 84 d3 3d c3 22 b6 bd
       -0.009818675 -0.082503416 0.103279546 -0.08893349
000230 46 f4 9d 3d fa 15 01 3e 35 f1 57 3e 07 7d 40 be
       0.07712607 0.1260604 0.21088107 -0.18797694
000240 d9 38 54 3d e8 9a 94 bd b4 a5 81 3e e6 fa 00 3d
       0.051812027 -0.072561085 0.25321734 0.031489275
000250 e4 18 d7 3d 3f 08 08 3c 0f e6 2b 3e da 30 5c bd
       0.105027944 0.008302747 0.16786979 -0.053757526
000260 e6 27 b8 bd 37 cd df bd 57 de d5 bd 30 fd 3a bc
       -0.08991985 -0.109278135 -0.104427986 -0.011412904
000270 7f 65 44 3e 8f 0c aa bd 39 47 2b be 2d b5 24 3e
       0.19179343 -0.083031766 -0.16726388 0.16084738
000280 24 4c 70 be 82 f7 2d 3d dd 8d 1d be a1 91 90 3a
       -0.23466545 0.04247237 -0.15386148 0.0011029729
000290 21 01 9a bb 23 36 86 bd 2b df dc bd b9 56 30 be
       -0.0046998416 -0.065532945 -0.107847534 -0.17220582
0002a0 73 e4 c9 3d b3 9c 4a 3e 0f 35 05 be 29 69 4a 3e
       0.09858026 0.19786339 -0.13008521 0.19766678
0002b0 6c f1 a2 3d 92 15 86 3e 16 1a c3 bd b2 6b b3 bd
       0.07956204 0.26188332 -0.0952646 -0.087607756
0002c0 e9 eb c1 bd 79 8f 42 be 78 19 6f be b7 62 1d 3e
       -0.094688244 -0.19000043 -0.2334956 0.15369688
0002d0 d8 18 ea 3c 15 d2 26 3e b3 e5 80 bd 2b 88 10 be
       0.0285763 0.16291077 -0.06293812 -0.14114444
0002e0 0f e7 bd bd a4 33 6d 3d 89 1b 02 be 5c e4 e8 bc
       -0.092725866 0.057910576 -0.12705816 -0.028429203
0002f0 d5 d1 44 3e be 6c 0c 3e d6 47 48 3d 65 9d 17 be
       0.1922067 0.13713357 0.048896633 -0.14806135
000300 1a 7b 03 3e ee 99 54 3e a4 1f d1 3d b4 e7 6f be
       0.12839928 0.20761845 0.10211113 -0.23428231
000310 82 73 a9 bd e0 53 51 3e e2 31 7b 3e 3c 8c dc 3d
       -0.082739845 0.20442152 0.24530748 0.10768935
000320 ac d1 0c bd a2 e7 11 be 80 21 04 3e 2a f4 f0 bd
       -0.034379646 -0.14248517 0.12903404 -0.117653206
000330 40 bf d2 3b 30 94 e4 bc f0 36 c3 bc 11 4e 38 be
       0.00643149 -0.027902693 -0.023829907 -0.1799853
000340 30 79 46 3e c0 98 5b 3c e8 b6 61 be 30 fb f4 3c
       0.19382167 0.013403118 -0.2204243 0.029904932
000350 c8 c7 64 3d 00 ba 7f 3b 00 e8 cd 3c 28 e0 55 3d
       0.05585459 0.0039020777 0.02513504 0.052215725
000360 f9 60 6c be 29 21 27 be 73 c8 75 3e 23 9b 45 be
       -0.23083867 -0.16321243 0.24002247 -0.19297461
000370 4c 68 2b 3d 3b de 21 3d d9 89 35 be 4a 21 57 3e
       0.041847512 0.039518576 -0.17728366 0.21008793
000380 36 52 38 be 2d 89 40 3e b4 0c 11 3e 0c 12 57 3e
       -0.18000111 0.18802328 0.14165002 0.21002978
000390 8b 68 7d 3c 81 5f 01 3d c5 c0 0f be 88 f5 69 3e
       0.0154668195 0.03158522 -0.1403838 0.22847569
0003a0 f3 5c 24 3e 19 02 1d 3e 2b 4a 3a 3e c5 58 80 be
       0.16051082 0.15332831 0.18192355 -0.25067726
0003b0 36 6f 1b 3e 4c 99 62 bb 7f 0d 66 3e c7 d2 83 be
       0.15179142 -0.0034576235 0.22466086 -0.25746748
0003c0 da 9d 51 be 60 f2 8d 3c 36 31 75 3e 00 aa 0b 3a
       -0.20470372 0.017327487 0.23944554 0.0005327761
0003d0 0c 01 18 3e 9c 59 a3 bd b0 89 69 3d 88 dc 20 be
       0.1484415 -0.07976076 0.057016075 -0.15709126
0003e0 40 2b 28 bd c0 79 87 3d d0 73 af 3c b8 18 60 bd
       -0.04105687 0.06615019 0.021417528 -0.054711074
0003f0 70 a3 6d be 33 87 03 be a4 f9 1f bd 04 3f b3 3d
       -0.23206878 -0.12844543 -0.039056435 0.08752254

const_fold_opt__177 f4 [1, 128, 1]
000000 00 00 00 00 60 6b c5 ba 5c 86 9e 3b 2e 6d c3 bb
       0.0 -0.0015061907 0.004837794 -0.005963943
000010 05 82 99 3b 00 00 00 00 a7 ea 9b 3b 00 00 00 00
       0.004684689 0.0 0.0047581973 0.0
000020 6f 9a 3a ba 00 00 00 00 61 f7 36 bc d7 50 b3 3b
       -0.00071183493 0.0 -0.011167378 0.0054722833
000030 3c 5e 2b 3b ff ed 7d bb 7b 4c 56 3b 00 00 00 00
       0.0026148697 -0.0038746593 0.0032699395 0.0
000040 54 fb ba 39 98 87 86 b9 02 f7 c5 3b 29 72 f0 3b
       0.0003566394 -0.00025659497 0.0060414085 0.0073378277
000050 8d 5c e2 3b b0 0c d9 3b fc 8a be 3b 26 68 10 bc
       0.0069080056 0.006623827 0.005814908 -0.008813893
000060 a6 51 17 bb 00 00 00 00 65 4f 1e bc 72 bb 57 3b
       -0.0023089438 0.0 -0.009662484 0.0032918123
000070 97 e1 4b 3b 00 00 00 00 00 00 00 00 00 00 00 00
       0.0031109804 0.0 0.0 0.0
000080 00 00 00 00 f2 f8 29 bc d8 2c c7 3b 1b dd 04 3c
       0.0 -0.010374295 0.006078344 0.008109356
000090 00 00 00 00 1a 90 0c 3c b2 e6 c2 bb 00 00 00 00
       0.0 0.008579278 -0.005947911 0.0
0000a0 de 07 74 bb 00 00 00 00 00 00 00 00 00 00 00 00
       -0.0037236135 0.0 0.0 0.0
0000b0 99 7b ed bb d6 55 d7 3a 00 00 00 00 00 00 00 00
       -0.0072474 0.0016428779 0.0 0.0
0000c0 68 61 33 bc 02 85 23 bc c8 05 83 bc c6 ce 75 ba
       -0.010948516 -0.009980442 -0.015993968 -0.000937682
0000d0 81 95 12 3c 9b 99 0a bc 00 00 00 00 00 00 00 00
       0.008946777 -0.008459474 0.0 0.0
0000e0 66 f6 23 bc c0 c1 2f 3a 7a 44 27 bc 7a 61 5f bc
       -0.010007476 0.0006704591 -0.010209197 -0.01363408
0000f0 c0 e2 8c 3a 00 00 00 00 b8 b5 23 bc c9 81 e5 ba
       0.0010748729 0.0 -0.009992056 -0.0017509992
000100 06 bc 27 3b 1a 25 c7 3b c4 76 0c bc 00 00 00 00
       0.0025594248 0.006077421 -0.008573238 0.0
000110 00 00 00 00 d7 63 07 ba 00 00 00 00 00 00 00 00
       0.0 -0.00051647186 0.0 0.0
000120 ca 50 84 b9 f3 a4 e4 bb 00 00 00 00 00 00 00 00
       -0.00025237194 -0.0069776713 0.0 0.0
000130 bc ca 23 bb 5e 9e ad 3a 00 00 00 00 c9 3c e2 3b
       -0.0024992665 0.001324605 0.0 0.006904219
000140 18 70 05 3c 32 fd ff 3b 00 00 00 00 32 8d f8 3b
       0.008144401 0.0078121657 0.0 0.007585191
000150 13 c3 35 bc e1 5e c3 bb bb 12 d8 bb 99 9e ea 3a
       -0.011093873 -0.005962238 -0.0065940297 0.0017900049
000160 2b 55 6b 3b ba 45 0a bc 50 17 2a bc 00 00 00 00
       0.0035908918 -0.008439476 -0.010381535 0.0
000170 00 00 00 00 ee 04 32 bb 00 00 00 00 6b 55 c3 bb
       0.0 -0.0027163583 0.0 -0.0059611103
000180 00 00 00 00 15 a6 3c ba 63 e0 18 3c 5d 2d dc 3a
       0.0 -0.0007196379 0.009330842 0.0016798187
000190 ad be 36 bc f5 1a eb bb 5c 13 f4 3b 74 34 fa ba
       -0.011153859 -0.0071748444 0.007448597 -0.0019089119
0001a0 9e a7 aa 3b b9 a5 23 b9 00 00 00 00 38 4f f5 3b
       0.00520797 -0.00015606628 0.0 0.0074862503
0001b0 00 00 00 00 00 00 00 00 14 88 d6 3b 00 00 00 00
       0.0 0.0 0.0065469835 0.0
0001c0 88 c9 50 bc 00 00 00 00 68 e2 0c bc 00 00 00 00
       -0.012743361 0.0 -0.008598901 0.0
0001d0 5e b8 f1 3b 92 61 19 3b 00 00 00 00 75 e4 c5 bb
       0.0073767146 0.0023404104 0.0 -0.006039197
0001e0 cb b8 84 bb 56 bb 1c bc d0 ee c2 bb 00 00 00 00
       -0.0040503494 -0.009566149 -0.005948879 0.0
0001f0 54 6f e1 3b 00 00 00 00 00 00 00 00 00 00 00 00
       0.0068797264 0.0 0.0 0.0

const_fold_opt__176 f4 [1, 64, 1]
000000 bd 27 c9 bb 2c 52 c7 bb 2c a8 93 3b 00 00 00 00
       -0.0061387704 -0.0060827937 0.0045061316 0.0
000010 54 1d f8 bb e2 8d 88 3a cf 7f 02 bc 5d a4 22 3b
       -0.0075718556 0.0010418261 -0.007965042 0.0024817206
000020 00 00 00 00 03 91 24 bc 00 00 00 00 e2 8a 00 bb
       0.0 -0.010044339 0.0 -0.001961403
000030 00 00 00 00 cb f7 1d 3b 99 5e b7 3b 29 f8 7d b9
       0.0 0.0024103995 0.0055959937 -0.00024220407
000040 00 00 00 00 4f 00 aa 3b 00 00 00 00 2e 16 32 bc
       0.0 0.005188025 0.0 -0.010869546
000050 00 00 00 00 ca 45 c3 bb 00 00 00 00 5a d0 e1 3b
       0.0 -0.0059592472 0.0 0.0068912925
000060 66 a9 05 3b 00 00 00 00 00 00 00 00 dd 14 32 bc
       0.0020395159 0.0 0.0 -0.010869232
000070 00 00 00 00 00 00 00 00 fc b3 3d 3b 9a fb e3 3b
       0.0 0.0 0.002894639 0.0069574835
000080 65 dd 48 bc 2c e3 ff 3a 00 00 00 00 00 00 00 00
       -0.012259816 0.0019522659 0.0 0.0
000090 a5 56 c3 bb 00 00 00 00 d5 20 d4 3b 9f 77 0d 3c
       -0.0059612566 0.0 0.0064736404 0.008634477
0000a0 0d c8 01 3c 00 00 00 00 00 00 00 00 00 00 00 00
       0.007921231 0.0 0.0 0.0
0000b0 00 00 00 00 00 00 00 00 70 c7 fd ba 71 4c 57 3b
       0.0 0.0 -0.0019361805 0.003285196
0000c0 67 d7 0c 3b d0 31 ee 3b 00 00 00 00 00 00 00 00
       0.0021490694 0.0072691217 0.0 0.0
0000d0 e6 c7 97 3b 52 fa dd bb a3 9b 5f 3a d2 89 a0 3b
       0.004631984 -0.0067742253 0.00085299666 0.004899242
0000e0 00 00 00 00 93 e0 3f bb bd 8c 5a 3b c7 cd 95 39
       0.0 -0.0029278144 0.0033348047 0.0002857281
0000f0 00 00 00 00 00 00 00 00 00 00 00 00 00 00 00 00
       0.0 0.0 0.0 0.0

const_fold_opt__170 f4 [1, 256, 1]
000000 00 00 00 00 00 00 00 00 fb 5e 5c bb 00 00 00 00
       0.0 0.0 -0.0033625949 0.0
000010 21 36 38 3c 32 f0 b3 3b 99 3c 79 3b 25 2c 28 bb
       0.011243374 0.00549128 0.0038030504 -0.0025661078
000020 45 c9 d4 3a 44 93 9a bb a6 a5 00 bc 00 00 00 00
       0.0016234299 -0.0047172625 -0.007851994 0.0
000030 00 00 00 00 77 92 2c 3c 00 00 00 00 df e9 d2 bb
       0.0 0.010532967 0.0 -0.006436571
000040 d4 cb 1f bc 00 00 00 00 12 dd 2a 3c 7c 65 1e 3c
       -0.009753186 0.0 0.010428684 0.00966775
000050 ba 2a 31 3c 00 00 00 00 b1 d3 40 3c 00 00 00 00
       0.010813409 0.0 0.011769221 0.0
000060 00 00 00 00 82 9b e0 bb fb 53 30 3c 00 00 00 00
       0.0 -0.0068544755 0.01076221 0.0
000070 00 00 00 00 9f 0f 79 39 d3 50 33 3c 8c 9c de 39
       0.0 0.0002375231 0.010944563 0.00042459776
000080 00 00 00 00 a0 76 ad bb 00 00 00 00 00 00 00 00
       0.0 -0.005293682 0.0 0.0
000090 67 d2 c4 bb aa 1a 11 3c 5e 01 42 3c a2 02 bd bb
       -0.006006527 0.008856455 0.011841146 -0.005768136
0000a0 00 00 00 00 a2 72 c3 bb 20 2a 18 3c 00 00 00 00
       0.0 -0.005964593 0.009287387 0.0
0000b0 00 00 00 00 2a 00 fc bb 00 00 00 00 97 67 c3 bb
       0.0 -0.0076904492 0.0 -0.0059632766
0000c0 00 00 00 00 00 00 00 00 c0 01 a2 3b 8d f9 f6 bb
       0.0 0.0 0.0049440563 -0.007537073
0000d0 92 b1 94 3b 63 0b 23 3c ae 90 ec 3b 67 63 83 3b
       0.0045377696 0.009951445 0.0072193956 0.0040096524
0000e0 c9 50 d8 bb 00 00 00 00 37 10 c7 bb ec 9a e5 bb
       -0.006601427 0.0 -0.006074931 -0.0070069935
0000f0 00 00 00 00 00 00 00 00 30 f2 df 3b 23 e7 2d 3c
       0.0 0.0 0.006834291 0.010614189
000100 00 00 00 00 4b 93 e8 3b 00 00 00 00 00 00 00 00
       0.0 0.007097637 0.0 0.0
000110 00 00 00 00 00 00 00 00 32 f3 93 bb 00 00 00 00
       0.0 0.0 -0.004515075 0.0
000120 e5 52 c1 bb 00 00 00 00 e6 97 fd bb 49 80 25 bc
       -0.0058997744 0.0 -0.007739055 -0.010101386
000130 00 00 00 00 00 00 00 00 23 17 50 3c a7 a5 a2 bb
       0.0 0.0 0.012700829 -0.004963595
000140 5a 2c 09 bc 4a c2 1d 3c fc dc 46 3c b5 78 98 bb
       -0.008372391 0.009628842 0.012137648 -0.0046530613
000150 2f 57 d7 bb a9 70 c3 bb 32 b2 c2 bb 00 00 00 00
       -0.0065716724 -0.005964358 -0.0059416527 0.0
000160 00 00 00 00 eb 8a e5 bb b6 03 83 3b 5a 81 2e 3c
       0.0 -0.0070050857 0.003998245 0.010650957
000170 00 00 00 00 f2 6e c4 bb 0b 8a f8 bb 00 00 00 00
       0.0 -0.005994671 -0.0075848154 0.0
000180 00 00 00 00 7b 3f 16 3c 02 96 dd 3b 28 0f 18 3c
       0.0 0.009170408 0.006762267 0.009280957
000190 eb 71 c3 bb df 27 1b 3c 00 00 00 00 c6 78 0b bc
       -0.005964508 0.009469955 0.0 -0.008512681
0001a0 00 00 00 00 00 00 00 00 00 00 00 00 00 00 00 00
       0.0 0.0 0.0 0.0
0001b0 d1 18 d2 bb 95 8e 31 3c 62 25 bf bb 00 00 00 00
       -0.0064116498 0.010837217 -0.005833314 0.0
0001c0 96 8b 06 bc 00 00 00 00 07 73 c3 bb e6 83 4c 3b
       -0.008211991 0.0 -0.00596464 0.0031206547
0001d0 00 00 00 00 e3 11 4a 3b 7e b9 1f 3c 00 00 00 00
       0.0 0.0030833415 0.009748815 0.0
0001e0 2f dc 3e bb 00 00 00 00 48 c7 c2 bb 9c 05 39 bc
       -0.002912294 0.0 -0.0059441663 -0.011292841
0001f0 a4 76 f7 bb e9 5d c3 bb 31 1d 17 3c 00 00 00 00
       -0.007551985 -0.0059621227 0.009223268 0.0
000200 df 04 bf bb 00 00 00 00 00 00 00 00 74 d0 a0 39
       -0.005829438 0.0 0.0 0.00030672888
000210 00 00 00 00 0f 86 1b bc 07 6b b9 bb 00 00 00 00
       0.0 -0.009492411 -0.0056585106 0.0
000220 53 de d9 ba 00 00 00 00 00 00 00 00 cf 95 35 3c
       -0.0016622044 0.0 0.0 0.01108308
000230 be 1f 39 3c 00 00 00 00 00 00 00 00 bc cf 04 bc
       0.011299072 0.0 0.0 -0.008106168
000240 00 00 00 00 39 0a 26 3c 00 00 00 00 ea d3 20 3c
       0.0 0.010134273 0.0 0.009816149
000250 a0 b9 26 3c 43 b1 bf 3b 00 00 00 00 df 70 c3 bb
       0.010176092 0.0058499887 0.0 -0.005964383
000260 2e f0 c9 3b 4e b4 09 bc e7 35 94 bb 44 6c c3 bb
       0.006162665 -0.008404804 -0.004523027 -0.005963834
000270 00 00 00 00 c2 d8 e6 bb 00 00 00 00 c0 41 18 3c
       0.0 -0.0070448825 0.0 0.00929302
000280 c7 fa 85 bb 00 00 00 00 00 00 00 00 81 7a f1 3b
       -0.004088733 0.0 0.0 0.00736934
000290 00 00 00 00 00 00 00 00 5d 86 c5 bb d7 71 c3 bb
       0.0 0.0 -0.0060279802 -0.0059644985
0002a0 7a c2 52 3b e2 b1 15 3c 22 a8 9c bb ec 70 c3 bb
       0.0032159374 0.009136649 -0.004780785 -0.005964389
0002b0 73 62 3c 3c 00 00 00 00 00 00 00 00 62 17 21 3c
       0.0114980815 0.0 0.0 0.009832235
0002c0 00 00 00 00 3b 5f 2c bc 00 00 00 00 00 00 00 00
       0.0 -0.010520752 0.0 0.0
0002d0 42 6e c3 bb 00 00 00 00 a6 81 bc bb 00 00 00 00
       -0.0059640715 0.0 -0.00575276 0.0
0002e0 93 6a c3 bb 00 00 00 00 2c 11 06 bc 3b e9 98 bb
       -0.0059636324 0.0 -0.008182805 -0.004666475
0002f0 f6 93 23 bc 78 f4 25 bc c4 51 9a 3a 83 1e 6e 3b
       -0.009984007 -0.010129087 0.0011773636 0.0036334104
000300 00 00 00 00 0d 4a 2b 3c d6 52 ee bb d7 90 b4 bb
       0.0 0.010454667 -0.0072730584 -0.0055104303
000310 7a db c4 bb 00 00 00 00 00 00 00 00 00 00 00 00
       -0.006007609 0.0 0.0 0.0
000320 54 24 27 3c 00 00 00 00 2f 76 08 bc 4b 6d 90 bb
       0.010201532 0.0 -0.008328958 -0.00440756
000330 4f 8d 55 bc b4 c5 28 bc 12 8f 39 3c 00 00 00 00
       -0.013034179 -0.010301042 0.0113256145 0.0
000340 00 00 00 00 00 c1 e5 bb fd 48 35 3c 45 ed ea b9
       0.0 -0.007011533 0.011064765 -0.00044808738
000350 00 00 00 00 72 35 00 3c ff 26 27 3a 81 8f 01 bc
       0.0 0.007825242 0.00063763553 -0.007907749
000360 ac 1d 94 3b 8c 3e 3c 3b 00 00 00 00 65 a2 31 3c
       0.0045201387 0.0028723804 0.0 0.0108419405
000370 50 ba 09 bc 8e 36 17 bb 34 ff 23 3c 00 00 00 00
       -0.008406237 -0.0023073289 0.010009576 0.0
000380 00 00 00 00 00 00 00 00 00 00 00 00 00 00 00 00
       0.0 0.0 0.0 0.0
000390 09 d7 de bb f1 a2 05 bc 00 00 00 00 6e 82 3e 3c
       -0.0068005365 -0.008156524 0.0 0.011627777
0003a0 ec 77 c1 bb 1b e7 26 3c b3 73 2e 3c c3 48 da 3b
       -0.0059041884 0.010186936 0.010647702 0.006661506
0003b0 91 b5 95 bb a7 b9 31 3c 4b 1f 89 3b f4 ae 34 3c
       -0.0045687635 0.010847486 0.0041846386 0.01102804
0003c0 c4 b7 43 3c 35 ed 4e 3c c7 36 30 3c eb d9 44 3c
       0.011945669 0.012629797 0.010755247 0.012014846
0003d0 fa 72 a9 bb bb 38 1a 3c 82 cb d6 bb 40 00 f6 bb
       -0.005171177 0.00941294 -0.0065550217 -0.007507354
0003e0 00 00 00 00 d0 29 96 3b 05 93 e7 3b 00 00 00 00
       0.0 0.004582621 0.0070670866 0.0
0003f0 48 76 35 3c 00 00 00 00 00 00 00 00 00 00 00 00
       0.011075564 0.0 0.0 0.0
