Unity_diploma_Impl/Assets/LPNN/Models/lightprobe_model.onnx (onnx, 838603 bytes, 11 tensors)

functional_1/conv1d_5_1/convolution/ExpandDims_1:0 f4 [1, 128, 1, 1]
0	0x3e574e7e	0.21026036
1	0xbd868b33	-0.06569519
2	0xbdd9ef62	-0.10641362
3	0xbd726854	-0.059181526
4	0x3de6c3cf	0.11267816
5	0xbd0ded60	-0.034650207
6	0x3d999dab	0.07500776
7	0x3c469bac	0.012122076
8	0xbe20d5cb	-0.15706556
9	0xbe18c84e	-0.1492016
10	0x3d986b8e	0.074423894
11	0xba95ba2b	-0.001142328
12	0x3e242198	0.1602844
13	0xbe3bb300	-0.18330002
14	0xbe28fdea	-0.1650311
15	0xbdae4994	-0.08510128
16	0xbd7dd36c	-0.061969206
17	0x3dd119eb	0.102100216
18	0xbd8e12db	-0.0693719
19	0x3e0ac4fe	0.13551709
20	0x3c84b092	0.016197477
21	0xbe4bb72a	-0.1989409
22	0x3d82e7bd	0.06391857
23	0x3e2fdf12	0.17174938
24	0x3e008028	0.12548888
25	0xbb78a680	-0.0037941039
26	0x3e12fe56	0.14354834
27	0xbe2ec213	-0.17066221
28	0x3c9f1021	0.01941687
29	0xbd30494d	-0.043038655
30	0xbdf40d95	-0.11916653
31	0xbe211b19	-0.15732993
32	0x3e29267c	0.16518587
33	0x3d361c50	0.044460595
34	0xbe4173d5	-0.18891843
35	0xbe22f9bc	-0.15915579
36	0x3e04e2c0	0.12977123
37	0x3e44c498	0.1921562
38	0xbbb54708	-0.005532149
39	0x3e54e3d7	0.20790039
40	0x3e11fe5c	0.14257187
41	0x3e36a93c	0.17837995
42	0x3bc58720	0.006028071
43	0xbdfc793d	-0.12327812
44	0xbd76e694	-0.06027849
45	0xbe092edc	-0.13396782
46	0xbe21f5e0	-0.1581645
47	0xbe41014b	-0.1884815
48	0x3e063a02	0.13108066
49	0xbc777b70	-0.015105113
50	0xbdc07cf0	-0.0939883
51	0x3e458635	0.19289477
52	0x3c56590f	0.013082757
53	0x3dddf9da	0.10838671
54	0xbda397f5	-0.07987968
55	0x3e13bd0e	0.14427587
56	0xbe1f1f87	-0.1553937
57	0xbdcbaac0	-0.09944677
58	0x3dd368de	0.10322736
59	0x3bd8d796	0.0066174967
60	0xbd518ab4	-0.05115767
61	0x3c791fc0	0.015205324
62	0xbe3544ef	-0.17702077
63	0x3e4c4df2	0.19951609
64	0xbd960867	-0.07325821
65	0x3caac649	0.020846503
66	0xbd7de91c	-0.06198989
67	0xbe1a2ab6	-0.15055355
68	0xbe44559a	-0.1917328
69	0x3e537b70	0.20652556
70	0x3aadbc99	0.0013255059
71	0x3db53a00	0.08848953
72	0x3d704d7c	0.058667645
73	0xbdd54eae	-0.104153976
74	0x3db2d2f5	0.08731643
75	0xbc7a3dc0	-0.015273511
76	0xbe3ab58d	-0.18233319
77	0x3e27ffea	0.16406217
78	0xbe4a650e	-0.19765112
79	0x3de346f4	0.110975176
80	0x3d09c4a9	0.033634815
81	0x3d3dfe58	0.04638514
82	0x3d2cd388	0.04219392
83	0x3e2fee57	0.17180763
84	0xbe3c704c	-0.18402213
85	0xbe316d5b	-0.17326872
86	0xbdced6ab	-0.100995384
87	0x3c25d69d	0.010121969
88	0xbc89ac28	-0.016805723
89	0x3e217c64	0.15770108
90	0x3ddeb094	0.10873523
91	0xbe2de788	-0.16982853
92	0xbdbe9bf3	-0.09307089
93	0xbd87241a	-0.06598683
94	0x3ce5f721	0.028071942
95	0x3de43c9b	0.11144372
96	0x3d6261d6	0.055269085
97	0x3df03842	0.1172948
98	0x3cad8b1d	0.021184498
99	0x3e4876d6	0.19576582
100	0xbe061a54	-0.13095981
101	0xbe4c14a4	-0.19929749
102	0xbe390d49	-0.18071474
103	0x3d181d1b	0.037137132
104	0x3c854068	0.016266063
105	0xbd00cce4	-0.0314454
106	0x3df2328c	0.11826047
107	0xbe3705a2	-0.17873242
108	0x3df3b15c	0.11899063
109	0x3dc7de3e	0.09759186
110	0x3e439955	0.1910146
111	0x3d8d84fa	0.06910129
112	0xbe074dc4	-0.13213259
113	0x3d11e863	0.035622012
114	0xbe1c12e1	-0.15241577
115	0xbe258dd5	-0.16167386
116	0x3d0da670	0.034582555
117	0xbcc7c9d8	-0.024388239
118	0x3c84fe75	0.016234616
119	0xbd2f96bc	-0.04286836
120	0x3e311056	0.17291388
121	0x3d84b612	0.0648004
122	0xbd87d871	-0.0663308
123	0xbe076199	-0.13220824
124	0x3dcdcc6b	0.10048755
125	0xbe1ee009	-0.1551515
126	0x3c4e65a5	0.012597476
127	0x3e115c79	0.14195432

functional_1/conv1d_4_1/convolution/ExpandDims_1:0 f4 [128, 256, 1, 1]
0	0xbcf61fa0	-0.030044377
1	0x3d9dffd4	0.07714811
2	0xbdcadeb0	-0.099057555
3	0xbdd8d234	-0.10586968
4	0xbc74cd60	-0.014941543
5	0xbbd20a40	-0.0064099133
6	0x3dbd5504	0.09244731
7	0xbb0b1200	-0.0021220446
8	0xbdfe6e88	-0.12423426
9	0x3ddbf398	0.10739821
10	0x3c52fb80	0.012877345
11	0xbd31a708	-0.043372184
12	0xbdc2d40c	-0.09513101
13	0x3c275c40	0.010214865
14	0xbddca740	-0.10774088
15	0xbda1d110	-0.07901204
16	0x3d84d1fc	0.06485364
17	0xbce14440	-0.027498364
18	0xbdbacf90	-0.09121621
19	0x3dddf290	0.10837281
20	0x3d8b8af0	0.068136096
21	0xbd97846c	-0.07398304
22	0xbdff15ec	-0.12455353
23	0xbd0d0d80	-0.034436703
24	0x3dd0e1a8	0.101992905
25	0xbdfe6944	-0.124224216
26	0x3d7add30	0.061246097
27	0xbc9ee860	-0.019397914
28	0xbddabf00	-0.106809616
29	0x3dec9dd8	0.11553544
30	0xbd813550	-0.06308997
31	0xbcec1ca0	-0.028822243
32	0xbd6b2e18	-0.057417005
33	0xbd378c38	-0.044811457
34	0xbc4ed000	-0.012622833
35	0xbd4bbcd0	-0.049740613
36	0x3cae5e90	0.021285325
37	0xbb25e000	-0.0025310516
38	0x3b9adec0	0.004726261
39	0xbdf58c38	-0.11989635
40	0xbce3a130	-0.027786821
41	0xbdb7668c	-0.08955106
42	0xbd5049a8	-0.050851494
43	0x3d8cb858	0.06871098
44	0xbdeeab5c	-0.11653778
45	0x3ccffe20	0.02538973
46	0xbda35c24	-0.07976559
47	0x3d9531e8	0.072849095
48	0x3d542a28	0.051798016
49	0xbd480ed0	-0.04884225
50	0xbc032ac0	-0.008005798
51	0xbc4c41c0	-0.012466848
52	0xbd9b0190	-0.075686574
53	0xbc738e80	-0.014865518
54	0xbd82c1a8	-0.06384593
55	0x3ddb2094	0.10699573
56	0xbd9a9de4	-0.075496465
57	0x3cb34630	0.021884054
58	0xbd9709ec	-0.07374939
59	0x3d77d690	0.060507357
60	0xbdbce114	-0.09222618
61	0xbdec8c20	-0.11550164
62	0x3ce9bde0	0.028532922
63	0xbd59b9c8	-0.05315569
64	0xbca23a00	-0.019803047
65	0x3ac5c700	0.0015089214
66	0xbddf428c	-0.10901365
67	0xbdfd20f0	-0.12359798
68	0x3d8d2958	0.06892651
69	0xbde00718	-0.10938853
70	0xbd274960	-0.04084146
71	0xbdb4fc2c	-0.088371605
72	0x3d43da10	0.047815382
73	0xbce6f510	-0.028193027
74	0x3dfc52c0	0.12320471
75	0x3d81cc58	0.063378036
76	0x3de30a14	0.110859066
77	0xbd909874	-0.07060328
78	0x3dca39a8	0.09874278
79	0x3d54e090	0.051971972
80	0x3d44adf8	0.048017472
81	0xbde385f0	-0.11109531
82	0xbd0736d0	-0.033011258
83	0xbcb63550	-0.022242218
84	0xbd96d028	-0.073639214
85	0xbc9f4330	-0.019441217
86	0xbd90c0a8	-0.07067996
87	0x3d0adad0	0.033900082
88	0x3cffe340	0.031236291
89	0xbde80fc8	-0.11331135
90	0xbd23a0d0	-0.039948285
91	0xbdcd1f24	-0.10015705
92	0x3df4042c	0.11914858
93	0xbb8eab00	-0.004353881
94	0x3d498c80	0.049206257
95	0xbd9fce40	-0.07803011
96	0x3cfc0150	0.030762345
97	0x3db779f8	0.089588106
98	0x3d8664ac	0.065621704
99	0xbd106480	-0.035252094
100	0xbcf77690	-0.030207902
101	0xbd0b46b8	-0.03400299
102	0xbdfe510c	-0.12417802
103	0xbd7ad620	-0.06123936
104	0xbddbf750	-0.107405305
105	0x3dddbb8c	0.10826787
106	0x3d7b3e38	0.061338633
107	0xbbd16c80	-0.006391108
108	0xba8b4b00	-0.001062721
109	0xbc3036a0	-0.010755211
110	0x3db4ae18	0.08822268
111	0xbd619f60	-0.055083632
112	0x39300000	0.00016784668
113	0xbc2bffa0	-0.0104979575
114	0x3d489d10	0.04897791
115	0x3bd8fe00	0.006622076
116	0x3d3c19c8	0.045923024
117	0x3d9c3ac8	0.07628399
118	0xbdedc59c	-0.116099566
119	0x3c9a88b0	0.018864006
120	0x3ca5f710	0.02025941
121	0xbdb11c74	-0.08648005
122	0x3cfb41e0	0.03067106
123	0x3d726f80	0.059188366
124	0x3df09734	0.1174759
125	0x3df84470	0.121224284
126	0xbd0b62c8	-0.034029752
127	0x3bfb0dc0	0.0076615512
128	0xbb76f080	-0.003767997
129	0x3ddd6758	0.10810727
130	0xbdf04394	-0.117316395
131	0x3d1bcf48	0.038039476
132	0x3db9cc58	0.090721786
133	0x3dd8f3b8	0.10593361
134	0xbda05d6c	-0.07830319
135	0xbde77270	-0.11301124
136	0x3d6ac118	0.057313055
137	0xbdd4f508	-0.103982985
138	0x3dfb7d88	0.122798026
139	0x3cdfd560	0.027323425
140	0xbdf30f5c	-0.11868164
141	0xbd94fca0	-0.07274747
142	0x3dcf6a48	0.101276934
143	0xbdbbfe44	-0.09179357
144	0xbc831930	-0.016003221
145	0x3de0b848	0.10972649
146	0x3cb3e8e0	0.02196163
147	0x3b546a80	0.0032412112
148	0xbdbb1e58	-0.09136647
149	0xbd253ca0	-0.04034102
150	0x3cb804e0	0.022463262
151	0x3c3ede20	0.011649638
152	0x3d9ac824	0.07557705
153	0xbd279be8	-0.04092017
154	0x3dddce10	0.10830319
155	0xbdd342e0	-0.1031549
156	0x3df9688c	0.12178144
157	0xbdbab044	-0.09115651
158	0xbd460708	-0.04834655
159	0xbb6bd600	-0.0035985708
160	0xbdf98d80	-0.12185192
161	0x3c919b40	0.017774224
162	0x3db0c9b4	0.08632222
163	0x3daab1dc	0.08334705
164	0xbdca45d4	-0.098766
165	0xbb3e6400	-0.0029051304
166	0x3cbfeeb0	0.023429245
167	0xbaec6900	-0.0018036664
168	0x3d44a8e8	0.048012644
169	0x3dc1ce5c	0.09463188
170	0x3d85bb0c	0.06529817
171	0x3c8686e0	0.016421735
172	0xbdaff078	-0.08590788
173	0x3c295560	0.010335296
174	0x3a620800	0.0008622408
175	0x3cc4c9f0	0.024022073
176	0xbd986244	-0.07440618
177	0xbc8dd370	-0.017312735
178	0xbdc35ff4	-0.09539786
179	0x3d9c5968	0.076342404
180	0x3d9c0494	0.07618061
181	0x3c5e4f40	0.013568699
182	0x3d593c90	0.053036273
183	0x3d336de0	0.043805957
184	0x3db816e0	0.08988738
185	0x3c2edaa0	0.010672241
186	0x3d508978	0.05091235
187	0x3dcf84e8	0.10132772
188	0x3dd52288	0.10406977
189	0xbd8a1d8c	-0.06743917
190	0x3d8dd3e8	0.069251835
191	0x3b506400	0.0031797886
192	0x3d7ddca8	0.061978012
193	0x3c1873a0	0.009304911
194	0x3d2702b8	0.040774077
195	0xbd591a38	-0.05300352
196	0x3c6b2020	0.014350921
197	0xbc7daf20	-0.015483648
198	0x3d8893ec	0.06668839
199	0x3ba48f00	0.0050219297
200	0xbda5e508	-0.08100325
201	0xbc81a0d0	-0.015823752
202	0xbdd59fb0	-0.104308486
203	0x3ccd7340	0.02507937
204	0xbcbdfc80	-0.02319169
205	0xbd917820	-0.0710299
206	0xbdf9ff14	-0.122068554
207	0xbd4297b0	-0.04750794
208	0x3d9fdd50	0.07805884
209	0xbc9c1220	-0.019051611
210	0x3c88d840	0.016704679
211	0xbdad9a4c	-0.084766954
212	0x3d941fbc	0.07232615
213	0x3d5417e0	0.05178058
214	0xbd319c38	-0.043361872
215	0xbc8831e0	-0.016625345
216	0x3d936120	0.071962595
217	0x3ccea870	0.025226802
218	0xbdbfa700	-0.093580246
219	0xbd9af478	-0.0756616
220	0xbdbcb574	-0.09214297
221	0xbd21c790	-0.03949696
222	0x3dfbc038	0.12292522
223	0x3d109148	0.0352948
224	0x3defbc78	0.117058694
225	0x3dc9bcb0	0.098504424
226	0xbdd7f2ac	-0.10544333
227	0x3d513140	0.05107236
228	0xbd7cbc08	-0.061702758
229	0xbd93c3b8	-0.07215065
230	0xbd45c730	-0.048285663
231	0xbc9eb460	-0.019373119
232	0x3d8db05c	0.069184035
233	0x3d501df0	0.0508098
234	0x3c3cf5a0	0.011533171
235	0xbda51934	-0.08061448
236	0x3dcef0b4	0.10104504
237	0x3cfeabe0	0.031087816
238	0xbcc5b2b0	-0.024133056
239	0x3d1bcb08	0.038035423
240	0x3dac5424	0.08414486
241	0xbdec79c0	-0.115466595
242	0x3c59cee0	0.013293952
243	0x3bc295c0	0.0059382617
244	0x3d45ebd0	0.04832059
245	0xbdd3a5ec	-0.103343815
246	0x3d95f974	0.0732297
247	0xbd28e9a8	-0.041238457
248	0xbc016520	-0.007897645
249	0xbdb92920	-0.09041047
250	0xbd9b52fc	-0.075841874
251	0xbddd5f6c	-0.10809216
252	0xbd7ca718	-0.06168279
253	0x3d9a4190	0.07532036
254	0xbdc454b0	-0.09586465
255	0x3d3861f8	0.045015305

functional_1/conv1d_3_1/convolution/ExpandDims_1:0 f4 [256, 512, 1, 1]
0	0xbc113f6b	-0.008865218
1	0xbd9f095e	-0.077654585
2	0xbcd84850	-0.026401669
3	0xbd7b1e92	-0.06130845
4	0x3c4601d4	0.012085397
5	0xbd944b0c	-0.072408766
6	0x3d3db1a0	0.046311975
7	0x3d5ccf8f	0.05390888
8	0x3d98dd49	0.07464082
9	0xbd8d5fd7	-0.069030456
10	0xbd9d4c9d	-0.076806284
11	0xbcf7dc1d	-0.030256325
12	0x3cd77b99	0.026304053
13	0x3db925ae	0.0904039
14	0xbd823ee9	-0.063596554
15	0x3c03343f	0.008008062
16	0xbd97ce57	-0.07412403
17	0x3d965e86	0.07342248
18	0xbd1ff97d	-0.03905629
19	0x3d44d910	0.04805857
20	0xbd816339	-0.06317753
21	0x3ada729f	0.001666624
22	0x3daeb6c7	0.08530956
23	0xbc342959	-0.010996186
24	0x3da74be7	0.08168774
25	0x3d15c10e	0.036561064
26	0xbd961fac	-0.0733026
27	0xbd530068	-0.05151406
28	0xbca5cdac	-0.020239674
29	0x3d3b1f9e	0.04568445
30	0xbd30c0f5	-0.04315277
31	0x3d959f1d	0.07305739
32	0x3d7ca062	0.06167639
33	0x3d7d6f5a	0.06187377
34	0xbc3a552f	-0.011372848
35	0xbd08133d	-0.033221472
36	0xbd203d23	-0.039120805
37	0x3db24fa5	0.08706597
38	0xbd650150	-0.055909455
39	0xbd7a134e	-0.061053567
40	0xbc18803d	-0.009307918
41	0xbd95dff0	-0.07318103
42	0xbd83abf2	-0.0642928
43	0x3d50a706	0.050940536
44	0xbda3df93	-0.08001628
45	0xbca1cf7c	-0.019752257
46	0xbd5cb31f	-0.05388176
47	0xbd4d39ff	-0.050104138
48	0xbd89b625	-0.067241944
49	0xbcb738fd	-0.022366041
50	0xbc2afa5d	-0.010435668
51	0xbda3f578	-0.08005804
52	0x3d23c28e	0.039980464
53	0xbd2ad4f4	-0.041706994
54	0xbd981fa4	-0.0742791
55	0xbb375580	-0.0027974546
56	0xbb1a2b6d	-0.002352442
57	0x3d8d295d	0.06892655
58	0x3d6a4fce	0.057205014
59	0x3d51e885	0.05124714
60	0xbd28c9bb	-0.04120801
61	0x3d0c1d82	0.03420783
62	0x3d8e2c05	0.0694199
63	0xbd0cdca8	-0.03439012
64	0xbcaa8f44	-0.020820267
65	0x3d1bb20a	0.03801159
66	0xbd3dd60c	-0.04634671
67	0x3d6055c4	0.054769292
68	0x3b6eb6c2	0.003642485
69	0xbd9622d5	-0.073308624
70	0xbd319a48	-0.043360025
71	0xbd3bae15	-0.045820314
72	0xbd3d06aa	-0.046148933
73	0x3d0ea920	0.03482926
74	0x3db51144	0.08841184
75	0xbdd24217	-0.10266512
76	0x3bd888dc	0.006608112
77	0x3d2aa646	0.041662477
78	0x3d307d88	0.043088466
79	0xbd7423a5	-0.059604306
80	0xbc65ba10	-0.014021412
81	0x3cfae9d8	0.030629084
82	0x3c903e18	0.017607734
83	0x3d8846c8	0.066541255
84	0xbcd0cd28	-0.025488451
85	0x3da7c77d	0.08192346
86	0xbc9fd67e	-0.019511458
87	0xbd96e51d	-0.07367919
88	0xbda7aab5	-0.08186857
89	0xbbc50180	-0.0060121417
90	0x3c012f60	0.00788483
91	0xbd08e9c6	-0.03342607
92	0xbd9da66a	-0.076977566
93	0xbc2b9096	-0.010471484
94	0xbca12154	-0.019669212
95	0xbbedd944	-0.007258566
96	0xbd1badf1	-0.03800768
97	0x3d0f0510	0.034916937
98	0xbd129af9	-0.035792325
99	0xbd5f514f	-0.0545209
100	0xbd8f133f	-0.06986093
101	0x3c7a7b36	0.015288165
102	0xbd447fce	-0.047973447
103	0x3da1e98d	0.079058744
104	0xbd6b6d61	-0.05747736
105	0xbce9583a	-0.028484453
106	0x3d22b013	0.0397187
107	0xbd239143	-0.039933454
108	0x3c16cfcf	0.009204819
109	0x3d9dc27d	0.07703111
110	0x3da1e1a1	0.079043634
111	0xbbadfa2a	-0.005309363
112	0xbc1d5385	-0.009602432
113	0xbdae6cd6	-0.085168526
114	0x3d881373	0.06644335
115	0xbc1227e0	-0.00892064
116	0xbd33a8a3	-0.043861996
117	0x3d82d363	0.06387975
118	0x3d205397	0.039142217
119	0x3bfe7118	0.0077649467
120	0xbd6091c5	-0.054826517
121	0x3d9a7dfe	0.07543562
122	0x3da2cde5	0.079494275
123	0xbd18cbef	-0.03730386
124	0x3d90e717	0.07075327
125	0x3db8d723	0.09025409
126	0x3daf9daf	0.08574998
127	0xbcf98094	-0.030456819
128	0xbd93ef5e	-0.0722339
129	0x3d9cdaa9	0.076588936
130	0x3da00181	0.07812787
131	0xbca2a66c	-0.019854747
132	0xbd4d5f13	-0.050139498
133	0xbd175198	-0.03694305
134	0x3cb428e7	0.02199216
135	0x3d468e73	0.048475694
136	0x3c9ea3e0	0.019365251
137	0xbd59c30f	-0.053164538
138	0x3d5f3cc6	0.054501317
139	0xbcc3b61d	-0.02389055
140	0x3ac6a32a	0.0015154828
141	0x3d8da005	0.06915287
142	0x3bad0717	0.005280386
143	0xbd6cf45a	-0.05785022
144	0xbc756af7	-0.014979116
145	0x3d459e5e	0.048246734
146	0x3d92e6e6	0.07172947
147	0xbdac445b	-0.08411475
148	0xbd885acf	-0.06657945
149	0x3da1d77c	0.079024285
150	0x3da76ea2	0.081753984
151	0x3daa38d0	0.083116174
152	0x3d5cf3e0	0.053943515
153	0x3caf1d28	0.021376207
154	0xbd20c5fc	-0.039251313
155	0x3c80acc2	0.015707377
156	0xbb0fe28b	-0.0021955098
157	0x3daeb169	0.08529932
158	0x3c195940	0.009359658
159	0x3da93631	0.08262289
160	0x3cb98e01	0.02265072
161	0x3daa6cca	0.08321531
162	0xbd93d367	-0.07218056
163	0x3d7df743	0.062003385
164	0x3d784eeb	0.060622137
165	0xbc4b95ed	-0.012425882
166	0x3d441346	0.047869943
167	0xbd41cfb2	-0.047317214
168	0xbd91f76e	-0.071272716
169	0xbcc7fe53	-0.024413263
170	0x3d86f951	0.06590522
171	0x3d9b330d	0.075780965
172	0x3daec607	0.085338645
173	0x3d75f106	0.06004431
174	0xbcc4883c	-0.023990743
175	0xbda5e374	-0.08100024
176	0xbcc63ec3	-0.024199849
177	0xbce74f37	-0.028236015
178	0xb7fbd2f4	-3.0019764e-05
179	0xbda136df	-0.07871794
180	0xbd219eb2	-0.039457984
181	0xbd7243eb	-0.059146803
182	0x3c0ff2e0	0.008785933
183	0xbcad491b	-0.021153023
184	0x3dba2fee	0.09091173
185	0x3d905572	0.070475474
186	0x3c0b9336	0.008518985
187	0x3cfba39a	0.03071766
188	0xba9400bb	-0.0011291722
189	0xbcb9ba58	-0.022671863
190	0x3c823d18	0.015898272
191	0xbb0707c2	-0.002060399
192	0x3d229dea	0.03970138
193	0x3c9e4ede	0.019324716
194	0x3c6ca8e8	0.014444567
195	0x3d13e737	0.036109176
196	0x3cdc90db	0.026924541
197	0x3ab15c00	0.0013531446
198	0x3d62ef69	0.0554041
199	0xbd287acc	-0.041132733
200	0xbd8b65ee	-0.06806551
201	0xbd3545ea	-0.04425613
202	0xbc9f8f24	-0.019477434
203	0x3c97b0e3	0.018516963
204	0xbcce31ab	-0.025170168
205	0x3d0f99bc	0.035058722
206	0xbd401210	-0.046892226
207	0xbd2ff992	-0.04296262
208	0xbd9707ae	-0.07374512
209	0x3db74f16	0.08950631
210	0x3d8ccd78	0.068751276
211	0x3cb64efc	0.02225446
212	0xbd81a5fe	-0.063304886
213	0xbc951bec	-0.01820179
214	0xba128500	-0.00055892766
215	0xbbe161f0	-0.00687813
216	0xbd856c70	-0.065148234
217	0xbd7a453a	-0.061101176
218	0x3d80546e	0.06266104
219	0xbd0486a7	-0.032354977
220	0xbd6a11c7	-0.05714586
221	0xbdb3a5fe	-0.08771895
222	0x3cbd690c	0.02312138
223	0xbd9eabb1	-0.07747591
224	0x3c047abc	0.008085903
225	0x3d0b6ce2	0.034039386
226	0xbc813205	-0.015770921
227	0x3d6a7296	0.057238184
228	0x3d1592d9	0.036516998
229	0xbccb3224	-0.024804182
230	0x3d915ecb	0.070981584
231	0xbd8df01e	-0.06930564
232	0xbd470bf6	-0.04859539
233	0xbd57596d	-0.052575517
234	0x3db643d2	0.088996544
235	0xbc17a0b8	-0.009254627
236	0x3d0b904c	0.03407316
237	0xbd90b36a	-0.070654705
238	0x3cb3e243	0.021958476
239	0x3d59ad31	0.053143684
240	0xbdaf7f63	-0.08569219
241	0xb77fa000	-1.5236437e-05
242	0xbd00d841	-0.031456236
243	0xbcdab622	-0.026698176
244	0xba78b34c	-0.00094871665
245	0x3b23043f	0.0024874357
246	0xbd3c16e6	-0.045920275
247	0xbc3cbbbb	-0.011519368
248	0xbd236d25	-0.03989901
249	0xba5b1500	-0.0008357316
250	0xbba8ed2f	-0.0051552276
251	0x3d885a7f	0.06657886
252	0x3daeb99f	0.08531498
253	0xbd851062	-0.064972654
254	0xbd11b396	-0.035571657
255	0xbc364468	-0.011124708

functional_1/conv1d_2_1/convolution/ExpandDims_1:0 f4 [256, 128, 1, 1]
0	0x3dbc5e53	0.091976784
1	0xbdba116f	-0.090853564
2	0x3ceb73f0	0.028741807
3	0x3bf4dfc0	0.007472962
4	0xbc790840	-0.015199721
5	0x3dbe9c2e	0.09307133
6	0x3df435e8	0.11924344
7	0x3d0a0d2d	0.03370397
8	0x3dc824c1	0.09772635
9	0x3da7ad25	0.081873216
10	0x3dbadbd8	0.09123963
11	0xbb3f2580	-0.002916664
12	0xbd6c88db	-0.057747703
13	0x3da6d070	0.08145225
14	0x3d8472d7	0.064672165
15	0x3d3d2433	0.0461771
16	0xbba56d3f	-0.0050484235
17	0xbd0ebf8e	-0.03485065
18	0xbd841b64	-0.06450537
19	0x3d907012	0.07052626
20	0x3c9a7f8a	0.018859643
21	0x3d5bc5f9	0.0536556
22	0xbdbc7214	-0.09201446
23	0x3caae2c0	0.020860076
24	0xbd042b5f	-0.032267924
25	0x3d5207fd	0.05127715
26	0xbb2e2c24	-0.0026576603
27	0xbd652be3	-0.055950057
28	0x3d7b2a33	0.06131954
29	0x3da09bce	0.078422174
30	0xbd104f1a	-0.035231687
31	0xbcffc7f0	-0.031223267
32	0x3db8f82c	0.0903171
33	0xbd78eaff	-0.060770985
34	0x3df2071f	0.118177645
35	0xbdb96f9d	-0.09054492
36	0xbd877be0	-0.06615424
37	0xbc2cfd40	-0.010558426
38	0xbdf9325e	-0.1216781
39	0x3c26b5db	0.010175194
40	0x3ce8b576	0.02840684
41	0x3d6a0359	0.0571321
42	0xbdd2366d	-0.10264287
43	0x3d840246	0.06445746
44	0xbded04e8	-0.115732014
45	0x3b33cd00	0.0027435422
46	0xbcd9d260	-0.026589572
47	0x3d3b5450	0.045734704
48	0x3d829d50	0.06377661
49	0xbd408ea8	-0.047011048
50	0xbd8885b4	-0.06666127
51	0xbdc93bb1	-0.09825838
52	0x3dc348ff	0.09535407
53	0xbded802c	-0.115967125
54	0x3d264d40	0.040601015
55	0xbcfdcd8a	-0.030981798
56	0xbda14803	-0.07875063
57	0xbd8bbf6f	-0.068236224
58	0xbd050670	-0.032476842
59	0xbe0ee075	-0.13952811
60	0xbd940840	-0.07228136
61	0x3d934304	0.071905166
62	0x3d8dccf8	0.0692386
63	0xbde11460	-0.10990214
64	0x3d38cc48	0.045116693
65	0x3d843e14	0.06457153
66	0x3db076d7	0.08616417
67	0xbdd44f24	-0.103666574
68	0x3ddc57d6	0.10758941
69	0x3a8f027c	0.0010910775
70	0x3db06367	0.086127095
71	0x3ded20f4	0.11578551
72	0x3ddeabec	0.10872635
73	0xbca63d6e	-0.020292964
74	0x3c28cc45	0.010302608
75	0x3d9ceda1	0.076625116
76	0xbdf02854	-0.11726442
77	0xbd41fdb2	-0.047361083
78	0x3bdbacdf	0.0067039574
79	0xbc779727	-0.015111721
80	0x3da6d6e0	0.08146453
81	0xbd1b5db5	-0.037931163
82	0x3c7ce0e9	0.015434482
83	0xbd6eb308	-0.058276206
84	0xbd9655a8	-0.073405564
85	0xbcc59d4d	-0.024122858
86	0xbdc2dd8e	-0.095149145
87	0x3d19f2e6	0.03758516
88	0x3d65a960	0.05606973
89	0x3d0bf550	0.034169495
90	0xbdeff902	-0.11717416
91	0xbcc3f230	-0.023919195
92	0x3cb9130b	0.022592088
93	0xbde48bbe	-0.11159466
94	0x3df2da08	0.118579924
95	0x3d8a97ba	0.06767221
96	0x3d39b0f8	0.045334786
97	0xbdd3cafc	-0.103414506
98	0xbd9e0154	-0.07715097
99	0xbda24427	-0.07923155
100	0x3d65bb17	0.056086626
101	0xbd74ff3c	-0.059813723
102	0x3d4a17f2	0.049339242
103	0xbd4a6ae5	-0.04941835
104	0x3d6eb067	0.0582737
105	0x3cef4cc0	0.029211402
106	0x3d1f9807	0.038963344
107	0xbd64f408	-0.05589679
108	0x3d96d2da	0.073644355
109	0x3da3cd20	0.07998109
110	0xbdab7154	-0.08371225
111	0xbdf82d10	-0.1211797
112	0xbdec46e4	-0.11536959
113	0x3de60235	0.1123089
114	0x3d6cdaaf	0.05782574
115	0xbc7e5cad	-0.015525025
116	0x3dd7c028	0.10534698
117	0xbd0f1875	-0.034935433
118	0x3dd02f88	0.10165316
119	0x3d5011b8	0.050798148
120	0x3d553f42	0.05206228
121	0x3cbc71ff	0.023003576
122	0xbd883156	-0.06650035
123	0x3d7c8495	0.061649878
124	0xbde49bd9	-0.11162538
125	0xbdadd0b0	-0.084870696
126	0x3d8507f8	0.064956605
127	0x3de6ba14	0.1126596
128	0x3c2b1f9a	0.010444546
129	0x3df1d36a	0.11807902
130	0xbb84d440	-0.0040536225
131	0x3c060a60	0.0081811845
132	0x3db3f2d0	0.08786547
133	0xbd8c0dea	-0.068385914
134	0xbc0933a0	-0.008374125
135	0xbde67c6c	-0.112542
136	0x3df96cba	0.12178941
137	0xbc03acef	-0.008036836
138	0x3dfadb50	0.12248862
139	0x3ccbf930	0.024899095
140	0xb9663531	-0.00021954325
141	0x3c771f46	0.01508314
142	0xbdcf0121	-0.10107637
143	0x3d84178a	0.06449802
144	0xbd2c86bd	-0.042120684
145	0xbc5a3f7d	-0.013320801
146	0xbd1cf0e0	-0.038315654
147	0xbd1f8070	-0.038940847
148	0x3d02d82a	0.03194443
149	0xbcda8fd5	-0.026679913
150	0xbd31d82d	-0.043419052
151	0x3dc28595	0.09498135
152	0x3ce921e9	0.028458552
153	0x3a7efc76	0.00097269507
154	0xbdc5b7f6	-0.096542284
155	0xbc642f6f	-0.013927325
156	0xbdeaf5b7	-0.11472648
157	0x3d508aef	0.050913747
158	0x3d3b483b	0.04572318
159	0x3dbeb234	0.09311333
160	0xbc5dfedf	-0.013549536
161	0x3d6d8caa	0.057995476
162	0x3c8d31df	0.017235694
163	0xbd11c019	-0.03558359
164	0xbc938200	-0.018006325
165	0xbc26ca20	-0.010180026
166	0xbcda6206	-0.02665807
167	0x3d9761a1	0.07391668
168	0xbd3341e3	-0.043764006
169	0x3ca185dd	0.019717151
170	0x3dffded6	0.124936745
171	0x3c93f99e	0.018063363
172	0xbd2a2204	-0.041536346
173	0x3d364578	0.044499844
174	0x3cae8800	0.021305084
175	0xbd269cd8	-0.04067692
176	0xbdbedc88	-0.09319407
177	0xbb442300	-0.0029928088
178	0xbd5d41e8	-0.05401793
179	0x3d6b413d	0.057435263
180	0x3d86aee8	0.065763295
181	0xbd6cac78	-0.057781667
182	0x3d1f4c48	0.038891107
183	0xbdca2781	-0.09870816
184	0x3df2e804	0.1186066
185	0xbdd25670	-0.10270393
186	0x3c1c3e00	0.009536266
187	0xbc091aae	-0.008368177
188	0x3ce44060	0.027862728
189	0xbc762580	-0.015023589
190	0xbd9504c8	-0.072763026
191	0x3d838622	0.06422068
192	0x3d49fe98	0.049315065
193	0xbd9c7204	-0.07638934
194	0x3ceae0a4	0.02867157
195	0x3c608a00	0.013704777
196	0x3c9935e1	0.01870245
197	0x3d9374ef	0.07200038
198	0xbce0635c	-0.027391128
199	0x3d215c40	0.039394617
200	0x3ca5026a	0.020142753
201	0x3c81a109	0.015823858
202	0x3da95f10	0.08270085
203	0x3dff565f	0.12467646
204	0xbd9fd8fc	-0.07805058
205	0x3ab32d54	0.0013670125
206	0xbd9ad617	-0.07560366
207	0x3dc0aeda	0.0940835
208	0x3d7bc31f	0.06146538
209	0x3d905631	0.0704769
210	0x3d59f756	0.053214394
211	0xbdf9cc08	-0.12197119
212	0x3df52e20	0.11971688
213	0xbc0c6482	-0.008568885
214	0xbd8e9b12	-0.06963171
215	0x3cdae84b	0.026722094
216	0xbb9dc480	-0.0048146844
217	0xbce52f00	-0.027976513
218	0x3ddebe27	0.108761124
219	0x3d9a1fd0	0.07525599
220	0xbdc512d3	-0.09622731
221	0xbc806fad	-0.015678251
222	0xbd250d90	-0.040296137
223	0x3dbb863a	0.09156461
224	0x3ccb6b52	0.024831448
225	0x3cdf032f	0.027223198
226	0xbc046820	-0.008081466
227	0xbdd14f59	-0.102202125
228	0xbd29781b	-0.041374307
229	0x3d56b54a	0.052418984
230	0x3dc2bd34	0.09508744
231	0x3d3c8abc	0.046030745
232	0x3d5a40b8	0.053284377
233	0xbc9a2e30	-0.018820852
234	0x3d0e0ab9	0.034678195
235	0x3df8c6eb	0.121473156
236	0xbcb6fcb2	-0.022337291
237	0x3dd51e1f	0.10406136
238	0x3d4d6600	0.050146103
239	0xbdc2d06c	-0.095124096
240	0x3dca0a80	0.09865284
241	0xbc637042	-0.013881745
242	0x3c5bdf53	0.013419944
243	0x3cdd7a4d	0.027035857
244	0x3ddca745	0.10774092
245	0xbd680085	-0.05664112
246	0xbd2f0b88	-0.042735606
247	0x3dc9bf2d	0.09850917
248	0xbd87cba8	-0.06630641
249	0x3d8b6661	0.068066366
250	0xbdd18e6f	-0.10232245
251	0xbdd01f7a	-0.10162254
252	0x3da5d461	0.08097149
253	0x3db4be40	0.0882535
254	0x3cd790c0	0.02631414
255	0x3d0e3738	0.03472063

functional_1/conv1d_1_2/convolution/ExpandDims_1:0 f4 [128, 64, 1, 1]
0	0x3e239a9d	0.15976949
1	0xbe029c6f	-0.12754987
2	0x3e254a9b	0.16141741
3	0xbdfe6110	-0.12420857
4	0xbd114993	-0.035470556
5	0x3e12adad	0.14324065
6	0x3d6c1e5b	0.057646137
7	0x3ddc5cd0	0.1075989
8	0xbdddc28f	-0.10828125
9	0xbe243427	-0.1603552
10	0x3db1230f	0.08649265
11	0x3e1bf22e	0.15229103
12	0xbe08a9b0	-0.1334598
13	0xbdbda73e	-0.092604145
14	0x3bd5c800	0.006524086
15	0x3c764adf	0.015032499
16	0x3e0ffdf3	0.14061718
17	0xbd542f9e	-0.051803224
18	0xbe2fa4a1	-0.17152645
19	0x3c96cfc0	0.01840961
20	0x3e20898d	0.15677471
21	0x3c41a1ab	0.01181833
22	0xbdcd8103	-0.10034373
23	0xbc8b08f0	-0.016972035
24	0x3dda5c0a	0.10662086
25	0xbd021878	-0.031761616
26	0xbd827438	-0.06369823
27	0xbc128ee7	-0.008945203
28	0xbe2271e4	-0.15863758
29	0xbd86f916	-0.06590478
30	0x3cca09da	0.0246629
31	0xbe24d40e	-0.16096517
32	0xbda8423b	-0.082157575
33	0xbc3e96ba	-0.011632616
34	0x3d5fbfd8	0.054626316
35	0x3d8adecb	0.06780776
36	0x3e0d5db2	0.13805273
37	0x3e0abcb7	0.13548551
38	0x3dbbc6f7	0.09168809
39	0xbda8b52d	-0.082376815
40	0x3e31a71a	0.173489
41	0x3e092c2f	0.13395761
42	0xbdf150b1	-0.11782969
43	0xbde32b3f	-0.11092233
44	0x3dfa4c7a	0.12221618
45	0x3e136451	0.14393736
46	0xbc857788	-0.016292349
47	0xbde33579	-0.110941835
48	0xbe222c87	-0.15837298
49	0x3ded36ee	0.11582743
50	0xbdb82b5f	-0.089926474
51	0x3db9ecb3	0.0907835
52	0x3d6323c4	0.05545403
53	0xbb96a7a9	-0.0045976234
54	0x3d850d56	0.06496684
55	0x3e101939	0.14072122
56	0xbe304c73	-0.17216663
57	0xbdcac55f	-0.09900927
58	0xbd6070e4	-0.05479516
59	0xbd6f8e94	-0.058485582
60	0xbb33aa1b	-0.0027414623
61	0xbdc05893	-0.09391894
62	0x3c14c280	0.009079576
63	0xbddbb411	-0.10727704
64	0xbdc52e1c	-0.09627935
65	0x3e26cee0	0.16289854
66	0x3d7a1264	0.061052695
67	0xbd493060	-0.0491184
68	0xbe0a5375	-0.13508399
69	0xbe043562	-0.12910989
70	0xbda6b857	-0.08140629
71	0x3e18a17f	0.14905356
72	0x3dd62c4d	0.104576685
73	0xbc9475fc	-0.018122666
74	0x3df711ac	0.120639175
75	0xbdea5054	-0.114411026
76	0xbcd67841	-0.026180388
77	0xbc752582	-0.014962556
78	0x3e0e451d	0.13893552
79	0x3da2f80e	0.07957469
80	0x3d60980c	0.054832503
81	0x3da55d17	0.08074396
82	0xbb8ea017	-0.0043525803
83	0xbe05752b	-0.13032977
84	0x3d9190d0	0.07107699
85	0x3cabff80	0.020995855
86	0xbd984dae	-0.07436691
87	0xbe035433	-0.12825088
88	0xbd331354	-0.043719605
89	0x3d0b0a6c	0.033945486
90	0x3dd8f250	0.105930924
91	0xbd9259d8	-0.071460426
92	0x3d81d345	0.063391246
93	0x3da7be17	0.08190554
94	0x3cbc14bc	0.022959106
95	0xbe23acd9	-0.15983905
96	0xbe0883ce	-0.1333153
97	0x3e1d495a	0.15360013
98	0x3b1e8cc0	0.002419278
99	0xbd0b5e5f	-0.034025546
100	0x3da9ea64	0.082966596
101	0xbe0394e0	-0.1284976
102	0x3e338d7e	0.17534444
103	0xbe2981da	-0.1655344
104	0x3d8acef9	0.06777758
105	0x3dd50026	0.10400419
106	0xbe054aa4	-0.13016754
107	0xbd9035de	-0.07041524
108	0x3d98e280	0.074650764
109	0xbd9dc5f6	-0.07703774
110	0xbdc8afa4	-0.09799126
111	0xbe0bbe70	-0.13646865
112	0xbc7cea40	-0.015436709
113	0x3e20ccf1	0.15703179
114	0x3c9cb464	0.019128986
115	0xbdfadb02	-0.12248804
116	0x3ddb8f39	0.10720677
117	0xbd596272	-0.0530724
118	0xbd9af4ce	-0.07566224
119	0x3dced63a	0.10099454
120	0x3e0d6545	0.13808163
121	0x3e2861d3	0.16443567
122	0x3e059d99	0.130484
123	0x3de05dae	0.10955368
124	0x3bf66f29	0.0075205755
125	0xbd9a7d80	-0.075434685
126	0xbe06085b	-0.13089125
127	0xbd9a151d	-0.07523558
128	0xbddb3990	-0.107043386
129	0xbdbcafec	-0.09213242
130	0xbdf9d9fc	-0.1219978
131	0x3e2f1777	0.17098795
132	0xbe0ac1a4	-0.1355043
133	0x3dc1fd52	0.09472145
134	0x3db0046e	0.08594595
135	0x3c73b6e0	0.014875144
136	0x3d26dd78	0.040738553
137	0xbdec1547	-0.11527496
138	0xbc148740	-0.009065449
139	0x3d002c94	0.031292513
140	0x3d7fd5b0	0.062459648
141	0x3e0fc5b9	0.14040269
142	0x3d96e9aa	0.07368787
143	0xbdd77d7d	-0.10521982
144	0x3e137327	0.14399396
145	0x3d43d82c	0.04781358
146	0xbbcf6460	-0.0063291043
147	0x3dee6b3e	0.116415486
148	0xbced5f88	-0.028976217
149	0x3c189790	0.009313479
150	0xbda3ee5e	-0.08004449
151	0x3e165573	0.14681034
152	0xbd6d8a4c	-0.05799322
153	0xbe10a734	-0.14126283
154	0xbe26f561	-0.16304542
155	0xbe2e25ca	-0.17006603
156	0x3e00aae7	0.12565194
157	0x3e2d7635	0.16939624
158	0xbc6f7c20	-0.014616996
159	0x3e10404f	0.14087032
160	0x3c0384e0	0.008027285
161	0xbe0eb109	-0.13934721
162	0xbc4bf770	-0.01244913
163	0x3df79b66	0.12090187
164	0xbde755d4	-0.11295667
165	0xbd893423	-0.066993974
166	0x3e2d98d7	0.16952835
167	0x3cdbfec0	0.026854873
168	0x3ad6b080	0.0016379505
169	0x3c9299c8	0.017895594
170	0xbd5a8ad2	-0.053355046
171	0xbc25ea20	-0.0101266205
172	0x3d75d7a4	0.060020104
173	0x3cc34ed0	0.023841292
174	0x3d219bc0	0.039455175
175	0xbde4aa52	-0.111652985
176	0xbe291d66	-0.16515121
177	0xbc8f6c10	-0.017507583
178	0x3e1c4d49	0.15263857
179	0xbdf8f969	-0.12156946
180	0xbdede090	-0.116150975
181	0xbca372c8	-0.019952193
182	0xbd0f7edc	-0.035033092
183	0x3e0a229b	0.13489763
184	0x3d585290	0.052813113
185	0x3cf59a88	0.029980913
186	0x3d91610a	0.07098587
187	0x3de7e642	0.11323215
188	0x3dcee992	0.10103144
189	0x3e219119	0.15778007
190	0xbe1d77c8	-0.15377724
191	0xbd376d80	-0.04478216
192	0x3de59bfe	0.11211394
193	0xbc9fb038	-0.019493207
194	0x3d69ac58	0.057049125
195	0x3db53902	0.08848764
196	0x3e037659	0.12838115
197	0xbe21fbe7	-0.1581875
198	0xbde6dc3a	-0.11272474
199	0x3da990de	0.08279584
200	0xbe1451ae	-0.14484283
201	0xbca8df88	-0.0206144
202	0xbd9b4279	-0.07581038
203	0x3cc21550	0.023691803
204	0xbe075b29	-0.13218369
205	0x3e1b7817	0.1518253
206	0x3deb7c92	0.11498369
207	0x3e2b3e93	0.16723089
208	0xbcc63f18	-0.024200007
209	0x3d69a458	0.057041496
210	0xbd874962	-0.066057935
211	0xbdc0d517	-0.09415644
212	0xbda63944	-0.08116391
213	0xbda197e9	-0.07890303
214	0xbda2aeb0	-0.07943475
215	0xbe2e671c	-0.1703152
216	0x3d83606e	0.06414877
217	0xbd003124	-0.031296864
218	0xbd015514	-0.031575277
219	0xbe216946	-0.15762815
220	0x3ccf9450	0.025339276
221	0x3e1939a5	0.14963396
222	0xbdfefb97	-0.12450331
223	0xbc4787d0	-0.012178376
224	0xbda93e8e	-0.082638845
225	0xbe2605f2	-0.16213205
226	0xbd019ea0	-0.031645417
227	0xbcf10460	-0.029421031
228	0xbe281438	-0.16413963
229	0xbdf84c1a	-0.1212389
230	0xbd925fd7	-0.07147186
231	0x3e16fdf5	0.14745314
232	0xbe27fdc2	-0.16405395
233	0x3d10df88	0.035369426
234	0xbda442a5	-0.08020524
235	0xbdffaafa	-0.12483783
236	0x3de5c18a	0.11218555
237	0x3b0332c0	0.0020019263
238	0x3d2eda8c	0.04268889
239	0x3d49a4c8	0.049229413
240	0xbd253a54	-0.04033883
241	0x3dae496a	0.08510096
242	0xbda9a7f5	-0.082839884
243	0x3e068ef5	0.13140471
244	0xbe2991e7	-0.16559564
245	0xbdd7198b	-0.10502919
246	0x3b7f0680	0.0038913786
247	0x3c9e6880	0.019336939
248	0xbdc299af	-0.09501969
249	0xbe119413	-0.14216642
250	0xbb234ac0	-0.002491638
251	0x3e1c97a3	0.1529222
252	0x3e078157	0.13232933
253	0x3e1e513f	0.1546068
254	0x3da16236	0.078800604
255	0x3e0f6def	0.1400678

functional_1/conv1d_1/convolution/ExpandDims_1:0 f4 [64, 30, 1, 1]
0	0xbdacc704	-0.08436397
1	0xbe268f33	-0.16265564
2	0x3da0dd05	0.07854656
3	0x3e5e326f	0.21698926
4	0x3d8d2fc2	0.06893875
5	0xbdada5c4	-0.08478883
6	0xbe4893e1	-0.19587661
7	0x3e227b1f	0.1586728
8	0xbdcee890	-0.101029515
9	0x3bf18976	0.007371123
10	0x3d93d233	0.07217827
11	0xbe6aa5bf	-0.2291479
12	0x3c9931d5	0.01870052
13	0x3e40aef7	0.18816744
14	0x3d785dfa	0.060636498
15	0xba828460	-0.0009957664
16	0xbe2bdb72	-0.1678293
17	0xbe36e2b9	-0.17859925
18	0x3e65e55d	0.22450776
19	0xbe281a6c	-0.16416329
20	0xbdb8ae62	-0.09017636
21	0xbdb207d2	-0.08692898
22	0xbe2634f0	-0.16231132
23	0x3dcaf7a8	0.09910518
24	0xbe498df7	-0.19683062
25	0x3dc86221	0.097843416
26	0x3dc53406	0.09629063
27	0x3e7ec018	0.24877965
28	0xbda54a2b	-0.08070787
29	0xbd930547	-0.07178741
30	0x3e4016c9	0.18758692
31	0x3e45af4b	0.1930515
32	0x3d8dccb5	0.069238104
33	0xbe2a4d84	-0.16631132
34	0xbe08d837	-0.1336373
35	0x3d15e1fb	0.036592465
36	0xbe319fc2	-0.17346099
37	0xbd04175a	-0.032248832
38	0x3dca91da	0.098911
39	0xbe231cd0	-0.1592896
40	0x3e73b075	0.23797782
41	0x3d83946e	0.06424795
42	0xbe7c7ebe	-0.24657723
43	0xbd9aca73	-0.075581454
44	0x3d976182	0.07391645
45	0x3e3aedee	0.18254825
46	0x3e650c17	0.22367893
47	0x3de07af3	0.10960951
48	0x3e167971	0.14694764
49	0xbdc9f31b	-0.09860822
50	0xbdcbab1c	-0.09944746
51	0x3e02405a	0.1271986
52	0xbe3f3eb0	-0.18676257
53	0x3e41efc0	0.18939114
54	0xbe6f4b6f	-0.2336862
55	0xbd8f8f0b	-0.07009705
56	0x3e60b135	0.21942599
57	0xbd9ea135	-0.077455916
58	0x3d6736c8	0.056448728
59	0xbe2f73c3	-0.17134003
60	0x3dd514a4	0.104043275
61	0xbe717f01	-0.23583604
62	0xbdf8379e	-0.12119983
63	0xbda1a95e	-0.07893632
64	0x3dabd2dc	0.083898276
65	0xbe6b80fd	-0.22998424
66	0x3e642858	0.22281015
67	0xbdcbb4e4	-0.099466115
68	0xbe749854	-0.23886234
69	0x3dba7018	0.091034114
70	0x3e66141e	0.22468612
71	0xbd8c62e6	-0.06854801
72	0x3c756080	0.014976621
73	0x3e60fc84	0.21971327
74	0x3d945314	0.072424084
75	0x3e0e6606	0.13906106
76	0x3e0de586	0.13857087
77	0x3dbcf5d4	0.092265755
78	0xbd357a5c	-0.044306144
79	0xbe3c683c	-0.18399137
80	0xbe7eed57	-0.24895225
81	0xbe4e8f42	-0.20171836
82	0x3e3e4cec	0.18584031
83	0xbe412f9c	-0.18865818
84	0xbe2125c2	-0.1573706
85	0xbe6c4734	-0.23074037
86	0x3dbebd50	0.09313452
87	0x3e41358c	0.18868083
88	0x3e0162c4	0.12635332
89	0x3e0d6da8	0.13811362
90	0xbd5c31d8	-0.053758472
91	0x3db62590	0.08893883
92	0xbdfbdfd4	-0.12298551
93	0x3e656b0c	0.22404116
94	0xbe1623c3	-0.1466208
95	0x3e0bb2e2	0.13642457
96	0xbe3975f6	-0.18111405
97	0x3d3534c0	0.04423976
98	0x3e209392	0.15681294
99	0x3d3881d0	0.045045674
100	0xbdcdb758	-0.10044736
101	0xbdf9afee	-0.12191759
102	0x3db0172c	0.0859817
103	0x3e207ffc	0.15673822
104	0x3e5c9126	0.21539745
105	0xbe3d58a5	-0.18490846
106	0xbdea98ca	-0.114549235
107	0x3d405668	0.046957403
108	0x3e379e66	0.17931518
109	0xbd8b8118	-0.06811732
110	0xbb9b1b40	-0.004733473
111	0xbcbf4c10	-0.0233517
112	0xbe029f45	-0.12756069
113	0xbd7232e4	-0.059130564
114	0xbe323a6f	-0.17405103
115	0x3c442b60	0.011973232
116	0xbe346d18	-0.17619741
117	0x3e3bbf58	0.1833471
118	0x3e41f57a	0.18941298
119	0xbdc8adf6	-0.097988054
120	0xbe327f4d	-0.17431374
121	0xbcc7ad20	-0.024374545
122	0x3c81038e	0.015748765
123	0xbc5ac358	-0.013352238
124	0xbdaf4dc5	-0.08559755
125	0x3e3afc2e	0.18260261
126	0x3b3dcc96	0.0028961054
127	0x3b62d965	0.003461444
128	0x3dc8e492	0.09809221
129	0xbe631233	-0.22174911
130	0xbe793de2	-0.24340013
131	0x3e65d8f3	0.22446041
132	0xbe26aea8	-0.16277564
133	0xbe242f11	-0.1603358
134	0xbe4c5126	-0.1995283
135	0xbe2f53c5	-0.171218
136	0xbd3aef2f	-0.04563826
137	0xbd9f9779	-0.07792563
138	0xbe0b02df	-0.13575314
139	0xbad61338	-0.0016332632
140	0xbe828e88	-0.25499368
141	0xbe691dad	-0.22765227
142	0x3be90991	0.007111736
143	0x3e0b2c23	0.13591056
144	0x3e09b896	0.1344932
145	0xbd563f55	-0.052306492
146	0x3e6fc77f	0.23415945
147	0x3d8bf8bd	0.068345524
148	0x3e4bdf06	0.19909295
149	0x3dbd8e79	0.0925569
150	0xbdf3a3b1	-0.11896456
151	0xbe409877	-0.1880816
152	0x3d8f5cc6	0.07000117
153	0x3e12ce1f	0.14336441
154	0x3d39b4a8	0.045338303
155	0x3e72fc3c	0.23729032
156	0xbdb13e1f	-0.08654427
157	0x3de04e16	0.10952394
158	0xbe1a4017	-0.15063511
159	0x3dc0519f	0.09390568
160	0x3d6c6f90	0.05772358
161	0xbd6a5f2b	-0.057219665
162	0xbe1b5419	-0.151688
163	0xbe2bb253	-0.16767244
164	0x3e7080c2	0.23486617
165	0xbe61f903	-0.22067647
166	0xbe72ba8b	-0.23703973
167	0xbe0d6723	-0.13808875
168	0x3e3f4266	0.18677673
169	0x3a97980f	0.0011565703
170	0xbe7e7fce	-0.24853441
171	0xbda0cf53	-0.07852044
172	0x3dc63ade	0.09679197
173	0xbce55320	-0.027993739
174	0xbe7be0bd	-0.2459745
175	0xbd934872	-0.07191552
176	0xbe014e4a	-0.12627521
177	0xbe346d5b	-0.17619841
178	0xbd928507	-0.07154279
179	0xbd323d8a	-0.04351572
180	0xbe3a858c	-0.18215007
181	0xbe6bc818	-0.23025548
182	0x3e2a9b5c	0.16660827
183	0xbe0930d0	-0.13397527
184	0x3d92c6b8	0.07166809
185	0xbdd7bfe8	-0.1053465
186	0xbe2905d7	-0.16506134
187	0xbe0d61e0	-0.13806868
188	0xbe67919c	-0.2261414
189	0xbdee9606	-0.116497084
190	0xbdc0c39e	-0.09412311
191	0xbe719854	-0.23593265
192	0xbd20225c	-0.039095268
193	0x3d87859c	0.06617281
194	0x3d93e737	0.07221835
195	0x3dbeaa4f	0.093098275
196	0x3e610538	0.21974647
197	0xbe2445eb	-0.16042297
198	0x3e642a57	0.22281776
199	0x3e5491a2	0.2075868
200	0x3de599d2	0.112109795
201	0x3d486941	0.048928503
202	0x3cf228f8	0.029560551
203	0x3e6cff88	0.23144352
204	0x3e10360c	0.14083117
205	0xbe71889c	-0.23587269
206	0x3e2049dc	0.15653175
207	0xbe791265	-0.24323423
208	0xbdf63534	-0.120218664
209	0xbe20e487	-0.15712176
210	0x3cbb6984	0.022877462
211	0xbe0aaba7	-0.13542043
212	0x3e1e2d23	0.15446906
213	0x3e214947	0.1575061
214	0xbe084230	-0.13306499
215	0x3e2b7d02	0.16746905
216	0xbdcd42ca	-0.10022505
217	0xbd99729f	-0.07492565
218	0xbcc97dc8	-0.02459611
219	0xbce37e4c	-0.027770184
220	0x3dcd8ea4	0.10036972
221	0x3e61771b	0.22018091
222	0x3e74ef55	0.23919423
223	0x3cecbbad	0.028898085
224	0x3cc53ed7	0.024077816
225	0xbe807886	-0.25091952
226	0x3d3f5a7a	0.046717145
227	0x3d4a6c28	0.049419552
228	0xbd8fcaf8	-0.07021135
229	0x3e47d851	0.19516112
230	0xbe32cd68	-0.17461169
231	0xbde40ad6	-0.11134879
232	0xbdc4ae51	-0.09603561
233	0xbd8d4685	-0.06898216
234	0xbe34a1bf	-0.17639826
235	0xbdf07ad5	-0.11742178
236	0xbe29d1b5	-0.16583903
237	0xbe4cacc0	-0.19987774
238	0xbe23acd3	-0.15983896
239	0xbe16cc10	-0.14726281
240	0x3e7a53c1	0.24446012
241	0x3e7d604e	0.24743769
242	0xbe5920d9	-0.21203937
243	0x3e1edffb	0.1551513
244	0xbd452fbc	-0.048141226
245	0x3d1244bd	0.035710085
246	0x3e420069	0.18945469
247	0x3dd1560d	0.10221491
248	0x3e45631c	0.19276088
249	0x3e4b0655	0.19826634
250	0xbd2e9579	-0.042623017
251	0xbe5962b6	-0.21229061
252	0xbe1c2774	-0.15249425
253	0xbe779392	-0.24177387
254	0x3e59bcf4	0.21263486
255	0x3e4c5e13	0.19957761

const_fold_opt__183 f4 [1, 128, 1]
0	0xba2472b7	-0.00062731974
1	0x3a519411	0.0007994781
2	0x00000000	0.0
3	0x00000000	0.0
4	0x00000000	0.0
5	0xbb14a3cc	-0.0022680638
6	0x00000000	0.0
7	0x3b09e94e	0.0021043601
8	0x3b88e310	0.0041774586
9	0x3b8c4656	0.0042808456
10	0x00000000	0.0
11	0x00000000	0.0
12	0x3b3e4830	0.0029034726
13	0xbc072bd5	-0.008250196
14	0x3b6e7184	0.0036383579
15	0xbc2480bf	-0.010040461
16	0xbc29be5d	-0.010360328
17	0x3b7790b6	0.0037775463
18	0x00000000	0.0
19	0x3b4b3b2b	0.0031010609
20	0xbc1482ec	-0.009064417
21	0xbbc29466	-0.0059381006
22	0xbc0f815f	-0.008758872
23	0xbb98c197	-0.0046617496
24	0x3b17e092	0.0023174626
25	0x3aa450b5	0.001253626
26	0x3b768b66	0.003761971
27	0x3ba4ba19	0.0050270674
28	0x3b6605e7	0.0035098733
29	0xbc2415c4	-0.010014955
30	0x3b81e377	0.0039638835
31	0x00000000	0.0
32	0x3b915eac	0.0044363346
33	0x39b417e4	0.00034350075
34	0xbb95919d	-0.0045644776
35	0x3b9950c9	0.00467882
36	0x00000000	0.0
37	0x00000000	0.0
38	0x3afa6496	0.0019103463
39	0xbbf7cfac	-0.007562598
40	0xbb813d4a	-0.003944074
41	0xbbb3d228	-0.005487699
42	0xbc479eef	-0.012183889
43	0x3b1032da	0.0022002966
44	0xbc22d5cd	-0.009938669
45	0x00000000	0.0
46	0x00000000	0.0
47	0x00000000	0.0
48	0x00000000	0.0
49	0x00000000	0.0
50	0x00000000	0.0
51	0x3ba6c2c1	0.0050891344
52	0xbbc30d03	-0.005952479
53	0x00000000	0.0
54	0x00000000	0.0
55	0x3c40e9f2	0.011774527
56	0x3bc3cd48	0.005975399
57	0x3b80b5d6	0.0039279265
58	0x00000000	0.0
59	0x3b18f3ea	0.0023338743
60	0x00000000	0.0
61	0x00000000	0.0
62	0x00000000	0.0
63	0x3964a38c	0.000218047
64	0x00000000	0.0
65	0x00000000	0.0
66	0xbb71aff8	-0.0036878567
67	0x00000000	0.0
68	0xbc4bbd56	-0.012435278
69	0xbb8c5fef	-0.004283897
70	0x3ba73a22	0.0051033655
71	0x00000000	0.0
72	0xbc480328	-0.012207784
73	0x3b81894b	0.003953134
74	0x3bb36ef0	0.0054758713
75	0x3b90a3af	0.004414044
76	0x00000000	0.0
77	0x3b4158b6	0.0029502339
78	0xbc0e13eb	-0.008671741
79	0x39eb4d3f	0.00044880246
80	0xbc24954e	-0.010045363
81	0xbbb48ccd	-0.005509949
82	0xbb575c54	-0.0032861428
83	0x00000000	0.0
84	0x00000000	0.0
85	0x3bdc06b1	0.006714665
86	0xbc03cee3	-0.008044931
87	0x3b766e17	0.003760224
88	0x00000000	0.0
89	0x00000000	0.0
90	0xba3fead6	-0.0007321065
91	0x00000000	0.0
92	0xbc06fbbc	-0.008238729
93	0xbbd4fec3	-0.0065000965
94	0x00000000	0.0
95	0xbc0883c0	-0.008332193
96	0xbc3e04fc	-0.011597868
97	0x3b4af70b	0.0030970003
98	0x00000000	0.0
99	0xbc1b61f9	-0.009483808
100	0xbbcf35f9	-0.0063235727
101	0x3ac2ae65	0.0014852999
102	0xbc15b264	-0.00913677
103	0xbb807706	-0.0039204387
104	0x3b9245c2	0.004463882
105	0x00000000	0.0
106	0xbc0e51f3	-0.00868653
107	0x3bb44169	0.0055009616
108	0xb92e4f61	-0.00016623504
109	0x3baf7d03	0.0053554787
110	0x00000000	0.0
111	0x00000000	0.0
112	0x00000000	0.0
113	0x3b4d9580	0.0031369627
114	0x3c320593	0.010865587
115	0x3b9f4057	0.004859965
116	0xbad26272	-0.0016051068
117	0x3af0fd15	0.0018385971
118	0x00000000	0.0
119	0xbc050263	-0.008118245
120	0xbc5b2cdf	-0.013377397
121	0xbb966b32	-0.0045904154
122	0xbc0c0361	-0.0085457275
123	0xbb742721	-0.0037254768
124	0x3b98066e	0.0046394384
125	0x00000000	0.0
126	0x00000000	0.0
127	0x00000000	0.0

const_fold_opt__179 f4 [1, 256, 1]
0	0xbc290192	-0.010315316
1	0x3bc56082	0.0060234675
2	0x00000000	0.0
3	0x00000000	0.0
4	0x3bd68003	0.006546022
5	0x00000000	0.0
6	0x3bddeb61	0.006772444
7	0xbbb7823f	-0.0056002433
8	0x00000000	0.0
9	0x3b95fe79	0.0045774546
10	0x3bbe42d9	0.0058063087
11	0xbbb3f119	-0.0054913876
12	0x3b96b067	0.0045986655
13	0xbbd70512	-0.0065618837
14	0x3be2015c	0.0068971347
15	0xbbc20853	-0.0059214025
16	0xbb8780c9	-0.0041352254
17	0xbb1df03d	-0.0024099492
18	0xbbac0be5	-0.0052504414
19	0x3b8313df	0.0040001716
20	0x00000000	0.0
21	0x3ba40b9d	0.005006267
22	0x00000000	0.0
23	0x3b650440	0.003494516
24	0x00000000	0.0
25	0xbbee29b5	-0.0072681555
26	0x00000000	0.0
27	0xbc0222ec	-0.007942896
28	0x00000000	0.0
29	0x00000000	0.0
30	0xbc3a0738	-0.01135426
31	0x00000000	0.0
32	0x00000000	0.0
33	0x00000000	0.0
34	0x3b50e86c	0.0031876815
35	0x39b55ccb	0.00034592146
36	0xbbc5e67d	-0.0060394392
37	0xbbe53bf0	-0.0069956705
38	0xbba9528f	-0.0051673125
39	0x3b53b3eb	0.0032303284
40	0x39b8a7c0	0.00035220198
41	0x3a748d24	0.0009328893
42	0x3bd72a48	0.0065663196
43	0x00000000	0.0
44	0xbb8d903d	-0.004320173
45	0x3b6dd4e5	0.0036290225
46	0xbb59369f	-0.003314413
47	0xbc040f22	-0.008060249
48	0x00000000	0.0
49	0xbc1af6e5	-0.009458278
50	0x3bcd528e	0.006265945
51	0x3bbb4ea5	0.0057161623
52	0x3beda9d9	0.0072529134
53	0xbbe282dc	-0.0069125723
54	0x00000000	0.0
55	0x00000000	0.0
56	0x3b30ee57	0.002699753
57	0x00000000	0.0
58	0xbc4c38ad	-0.012464684
59	0xbc0b920e	-0.008518709
60	0x3b00725e	0.0019599418
61	0xbbd76693	-0.006573507
62	0xbb512f52	-0.0031919074
63	0x00000000	0.0
64	0x00000000	0.0
65	0x00000000	0.0
66	0xbaaa600b	-0.0012998594
67	0x3bc551d9	0.00602172
68	0xbbb496eb	-0.005511155
69	0x00000000	0.0
70	0x00000000	0.0
71	0x384d9a36	4.901943e-05
72	0x3bd9658d	0.0066344202
73	0xbc0b03f7	-0.008484832
74	0xbbc369ab	-0.0059635243
75	0x3be4bb12	0.0069803083
76	0xbacc482b	-0.0015585473
77	0xbab39418	-0.0013700752
78	0xbc523afc	-0.012831446
79	0xbc2498d9	-0.010046207
80	0x00000000	0.0
81	0x00000000	0.0
82	0xbc31fef1	-0.010864005
83	0x3bbfda57	0.0058548856
84	0x00000000	0.0
85	0x00000000	0.0
86	0x3be6bc25	0.0070414715
87	0xbc0fe5d5	-0.008782824
88	0x3beb4433	0.007179761
89	0x00000000	0.0
90	0x00000000	0.0
91	0xbb908a84	-0.0044110436
92	0xbc103000	-0.008800507
93	0x3bf3d793	0.00744147
94	0xbba2dc20	-0.0049700886
95	0x3b4df8e2	0.0031428863
96	0xbc009a1f	-0.007849245
97	0x00000000	0.0
98	0x00000000	0.0
99	0xbbf5d25c	-0.0075018834
100	0x00000000	0.0
101	0x3b57d221	0.0032931643
102	0xbc1fe59b	-0.009759332
103	0x00000000	0.0
104	0xbc270dfe	-0.010196207
105	0x3bbd52cb	0.005777692
106	0x3a8232d7	0.0009933364
107	0x3bbbbea8	0.005729515
108	0x3b9d73ca	0.004805063
109	0xbbebcb4f	-0.007195867
110	0x00000000	0.0
111	0x3bc9334e	0.006140149
112	0xbbde3993	-0.0067817657
113	0x3be9748a	0.0071244882
114	0x3c022353	0.007942992
115	0x3b88d470	0.004175715
116	0xbbad7625	-0.005293625
117	0x3b7e085f	0.0038762314
118	0x3c03fc70	0.008055791
119	0xbc0744d7	-0.008256159
120	0x00000000	0.0
121	0xbbd22de0	-0.00641416
122	0x3b9d4135	0.004799033
123	0x3b3d9a6f	0.002893116
124	0xbb9c881f	-0.004776969
125	0x3bbf4660	0.005837247
126	0xbbd91b6d	-0.006625584
127	0xbbf14c19	-0.007363808
128	0x3ba2e3b4	0.004970992
129	0xbb70c688	-0.0036739428
130	0x00000000	0.0
131	0x00000000	0.0
132	0xbbddc3b7	-0.006767716
133	0xbbac1185	-0.005251112
134	0xbb925929	-0.004466195
135	0x3bc2cd66	0.0059448956
136	0x00000000	0.0
137	0x00000000	0.0
138	0xb7f3fc60	-2.9085379e-05
139	0x3bbffad9	0.005858761
140	0x3a368c9d	0.0006963702
141	0xbb812d69	-0.003942181
142	0x3be5fcbd	0.007018654
143	0xbaa96fce	-0.0012926997
144	0x3bd21ecb	0.006412362
145	0x00000000	0.0
146	0x3bb6ca86	0.005578342
147	0x3c01f121	0.007931025
148	0x3bccee5c	0.0062540006
149	0xbbaabb50	-0.0052103177
150	0xbb808b5f	-0.0039228643
151	0x3bd033ff	0.0063538547
152	0xbc03d9a7	-0.008047498
153	0x00000000	0.0
154	0xbc158779	-0.0091265375
155	0xba8f2848	-0.0010922039
156	0x3b03b436	0.0020096428
157	0x00000000	0.0
158	0x00000000	0.0
159	0x00000000	0.0
160	0x3bdb723c	0.0066969674
161	0xbc20a018	-0.009803794
162	0xbad686d2	-0.0016367084
163	0xbb6970ff	-0.003562033
164	0x3bac3cd8	0.0052562766
165	0xbbbdac10	-0.0057883337
166	0x00000000	0.0
167	0xbbcac8f3	-0.006188506
168	0xbbe28303	-0.0069125905
169	0xba5f2f57	-0.0008513829
170	0x00000000	0.0
171	0x00000000	0.0
172	0x00000000	0.0
173	0x00000000	0.0
174	0x00000000	0.0
175	0xbb0cfda1	-0.002151348
176	0xbb83a06f	-0.004016928
177	0xbb4197ac	-0.0029539866
178	0xbbab3ccc	-0.0052257534
179	0x00000000	0.0
180	0x3bb7cf32	0.0056094164
181	0xbbe72b61	-0.0070547317
182	0x00000000	0.0
183	0xbb41506a	-0.0029497393
184	0xbba765ea	-0.0051085846
185	0x3bec3997	0.0072090137
186	0xbbce6b9d	-0.0062994496
187	0x3abca489	0.0014392297
188	0xbac051d0	-0.001467282
189	0xbc00a081	-0.007850767
190	0x00000000	0.0
191	0xba0a9ba1	-0.0005287473
192	0xbbe71031	-0.0070514907
193	0xbbeedd0e	-0.0072895354
194	0x00000000	0.0
195	0x3bbe40b3	0.0058060526
196	0x3bd5ada5	0.006520944
197	0x00000000	0.0
198	0xbb32041a	-0.002716309
199	0xbbe86f00	-0.0070933104
200	0xbbf87878	-0.0075827204
201	0x00000000	0.0
202	0x3aecff02	0.0018081369
203	0x3b2f1000	0.0026712418
204	0xbc1eeed3	-0.009700495
205	0x3bf1488b	0.007363384
206	0x3b9b1267	0.0047324183
207	0xbb11ccd0	-0.0022247322
208	0xbc02af95	-0.007976432
209	0x3b372ea3	0.0027951382
210	0xbb8ed4b6	-0.004358853
211	0x00000000	0.0
212	0xbbc36dc3	-0.0059640124
213	0x00000000	0.0
214	0xbb832973	-0.004002744
215	0x00000000	0.0
216	0x00000000	0.0
217	0xbc0d2b55	-0.008616288
218	0x3b416a83	0.0029512949
219	0x3be47340	0.0069717467
220	0x3b8020a4	0.003910141
221	0x00000000	0.0
222	0x00000000	0.0
223	0x00000000	0.0
224	0xbbc355da	-0.005961162
225	0x3b9953c9	0.0046791774
226	0x3b4988f4	0.0030751796
227	0x00000000	0.0
228	0xbc1efeb7	-0.009704283
229	0x3bdf3c32	0.0068125958
230	0x3bd0c05e	0.006370588
231	0x00000000	0.0
232	0xbbde0c77	-0.0067763883
233	0x00000000	0.0
234	0xbb96c3e7	-0.00460099
235	0x00000000	0.0
236	0x3b889e8c	0.004169291
237	0xbc24a02d	-0.0100479545
238	0xbc157959	-0.00912317
239	0x3bdb5f18	0.0066946857
240	0x3c13f2b1	0.00903003
241	0x00000000	0.0
242	0x00000000	0.0
243	0x3b9fb5a5	0.0048739486
244	0x3bcee5f4	0.0063140336
245	0x3ba577f3	0.0050496995
246	0x3bfd1e42	0.0077245543
247	0x3b10b299	0.0022079109
248	0x00000000	0.0
249	0x00000000	0.0
250	0xbb8ce0c0	-0.004299253
251	0xbc478abf	-0.012179076
252	0xbc21ffe1	-0.009887666
253	0x3bdab6d1	0.0066746254
254	0xbc040db1	-0.008059905
255	0xbb31a644	-0.0027107159

const_fold_opt__168 f4 [1, 128, 1]
0	0x00000000	0.0
1	0x3c0ca3b6	0.008583954
2	0x00000000	0.0
3	0x3c11a327	0.008888996
4	0xbbc37140	-0.005964428
5	0x3bea70f8	0.00715458
6	0xbbc34e93	-0.0059602945
7	0xbc16841c	-0.009186771
8	0x3c131cc5	0.008979027
9	0x3bcfe81e	0.006344809
10	0xbbb4a4ae	-0.0055127954
11	0xb9213a80	-0.0001537595
12	0xbc331ad4	-0.010931689
13	0x3bee6736	0.0072754873
14	0x3c1e9b38	0.009680562
15	0x3c1216ba	0.008916551
16	0xbc0addcd	-0.008475733
17	0xbbc36546	-0.0059630005
18	0xbb8bdc96	-0.0042682393
19	0x00000000	0.0
20	0x3b4df5d3	0.003142704
21	0xbc0b9a7d	-0.00852072
22	0xbbc36de4	-0.0059640277
23	0x00000000	0.0
24	0xbbc371ae	-0.0059644794
25	0xbc24a419	-0.01004889
26	0xbc0770f5	-0.008266677
27	0x3b53458b	0.0032237496
28	0xbbdbfbb2	-0.006713354
29	0x3c115ea1	0.008872659
30	0x00000000	0.0
31	0x3c130908	0.008974321
32	0xbc0775c3	-0.008267823
33	0x00000000	0.0
34	0x3c133be1	0.008986444
35	0xbbcf849d	-0.0063329474
36	0x00000000	0.0
37	0xbc077865	-0.00826845
38	0x3ac4240e	0.0014964358
39	0xbbc3733d	-0.005964665
40	0xbba71db0	-0.0050999746
41	0x00000000	0.0
42	0x00000000	0.0
43	0x00000000	0.0
44	0x3bc36733	0.00596323
45	0x00000000	0.0
46	0x3c133bb4	0.008986402
47	0x3c1346fb	0.008989091
48	0x00000000	0.0
49	0x00000000	0.0
50	0x00000000	0.0
51	0xbbaa9c34	-0.005206609
52	0xbbc319d6	-0.0059540076
53	0xbc148687	-0.009065277
54	0x3bfe7463	0.007765339
55	0xbbc37231	-0.0059645404
56	0x3c1310a3	0.0089761345
57	0xbc1c2d3f	-0.009532272
58	0xbc20a42f	-0.009804769
59	0xbc16048b	-0.009156357
60	0x00000000	0.0
61	0x00000000	0.0
62	0x3c143125	0.00904492
63	0x00000000	0.0
64	0x3c119a2b	0.008886854
65	0xbc22516d	-0.009907109
66	0x00000000	0.0
67	0x3c12f041	0.008968414
68	0x3c132a77	0.008982292
69	0x00000000	0.0
70	0xbc020482	-0.007935645
71	0xbc2e43e4	-0.010636304
72	0xba41d775	-0.00073944713
73	0x00000000	0.0
74	0xbbc3a706	-0.0059708385
75	0x00000000	0.0
76	0xba4dea7c	-0.000785507
77	0x00000000	0.0
78	0x3c13623f	0.008995592
79	0x00000000	0.0
80	0xbc15b165	-0.009136532
81	0x00000000	0.0
82	0x00000000	0.0
83	0xbc20e348	-0.009819813
84	0x00000000	0.0
85	0x3c12d5f3	0.008962142
86	0x3b925e86	0.0044668345
87	0xbc1e59b0	-0.009664938
88	0x00000000	0.0
89	0xb9ea887b	-0.00044733644
90	0x00000000	0.0
91	0x3c13257e	0.008981107
92	0x3c126342	0.008934798
93	0x3bc351d1	0.005960681
94	0xbc1641d4	-0.009170968
95	0xbc0753b3	-0.008259702
96	0xbc170ad1	-0.009218887
97	0xbbc37167	-0.0059644463
98	0xbbe8b2a3	-0.0071013733
99	0xbbc37317	-0.0059646475
100	0x00000000	0.0
101	0x3c13510d	0.008991492
102	0x3c133f67	0.008987284
103	0xbbc392df	-0.005968436
104	0xbc186427	-0.009301222
105	0x00000000	0.0
106	0x00000000	0.0
107	0x3c133d7f	0.00898683
108	0x00000000	0.0
109	0xbbd798aa	-0.0065794783
110	0xbc225af3	-0.009909379
111	0xbc16bede	-0.00920078
112	0x3c12ea85	0.008967047
113	0xbb95607c	-0.004558621
114	0x3c02b992	0.007978814
115	0x3c130bb2	0.008974956
116	0x00000000	0.0
117	0x00000000	0.0
118	0xbc32d6ba	-0.010915453
119	0x00000000	0.0
120	0xbbc372c2	-0.005964608
121	0xbc15e84d	-0.009149623
122	0x3bd52a26	0.0065052686
123	0x3c12c539	0.008958154
124	0xbbc370bf	-0.005964368
125	0x3c13139c	0.008976843
126	0xbc036179	-0.008018845
127	0xbbc37222	-0.0059645334
