Unity_diploma_Impl/Assets/LPNN/Models/model_new.onnx (onnx, 838543 bytes, 11 tensors)

functional_1/conv1d_5_1/convolution/ExpandDims_1:0 f4 [1, 128, 1, 1]
00000000: 6397 7ebc b785 19be 7658 103e 2351 273e
00000010: 30fd d93d 43a0 353c 204b 44be f186 443e
00000020: a8d6 e2bd 82a8 95bc 884d dfbd a5f9 d8bd
00000030: 6ff3 483e c5a6 d1bd 6c1c 163e 2bc1 1bbe
00000040: 4b4a 313e b419 1abc edd9 ffbd b08d ecbc
00000050: 1c65 79bd 31a8 d6bd 223a 68bd 5fd0 a4bd
00000060: c8fd 0f3e 6a94 f03c 7429 2c3e 2fcb 98bc
00000070: 5c14 46bd 90eb 1fbe 298a 4e3e 8e6d e73d
00000080: 4bc3 c6bd de98 a5bd 7965 f7bd 7108 e2bd
00000090: 70ed 473d 086a 8ebc ae1e 3a3e b90d 32be
000000a0: f56b fbbb ace3 e83d 18a9 d1bd ce79 85bd
000000b0: 83a2 6a3d b342 443e 7f12 f63d f9dc 033d
000000c0: 0936 bbbd 0959 42be 4a26 253e 1be4 d0bd
000000d0: 4117 843d ac70 113e 9538 2dbe 443d bdbd
000000e0: c1f1 4cbe a932 1cbe 6536 d0bd b023 f83d
000000f0: e0d1 93bc 3ba9 45be ac2c 353e e861 58be
00000100: 60f5 19be 4689 e03d 503b 213d 7f74 423e
00000110: 9365 823d c091 4d3e fc80 de3d ca43 44be
00000120: 7ab7 a83d 4397 4abe 592d 2cbe 3d75 f63d
00000130: c658 383e 94c8 473e 01d0 863b a0af 563e
00000140: 56d2 5cbd c3c2 17bd d643 1bbe c9d1 18be
00000150: c9c0 a63b f00a 0d3c 8450 2e3e b12e 5abe
00000160: 3c79 ad3d 8a74 c23b 3e4e d23c b1e3 9e3d
00000170: 5309 c9bd 3602 0f3e 54c3 f0bc 64c2 93bd
00000180: ac1a 02be a3b5 003e a552 033e 1804 593d
00000190: d31b 3b3e c1ca c8bb 5116 2c3e a678 023e
000001a0: a5f8 173e aa36 293e da04 983d c626 30bd
000001b0: b926 5bbc f309 6b3d 7f69 ff3d 8c4b ca3d
000001c0: c85a adbc 57d6 323e 9bed 5b3c b774 90bb
000001d0: b2ea 22be 7b44 82bc 9105 5a3d c585 0e3e
000001e0: 7c19 88bb 3bbf 37bd 482b 37be 4208 3abe
000001f0: 9d6e 143d c681 303e c63b 243e fead 8ebd
-0.015539023 -0.14992414 0.14096245 0.16339545 0.10643995 0.011085573 -0.19169283 0.19192101
-0.11076099 -0.018268827 -0.1090346 -0.10594491 0.19624113 -0.10236887 0.1465928 -0.15210406
0.17313497 -0.009405542 -0.12492738 -0.028876156 -0.06088744 -0.10481299 -0.056696065 -0.08047556
0.14061654 0.029367644 0.16812688 -0.018651573 -0.04835926 -0.15617204 0.20169891 0.11300193
-0.09705218 -0.08085798 -0.12079901 -0.11036766 0.048810422 -0.017384544 0.18175766 -0.17388047
-0.0076727816 0.1137155 -0.1023733 -0.06517373 0.05728389 0.19166069 0.120152466 0.032193158
-0.09141166 -0.18979277 0.16127887 -0.10199758 0.06449748 0.14203137 -0.16916116 -0.09240201
-0.20014097 -0.152537 -0.10166625 0.12116182 -0.018044412 -0.19302838 0.17692822 -0.21131098
-0.1503501 0.10963683 0.039363205 0.18989752 0.0636703 0.2007513 0.108644456 -0.19166484
0.082381204 -0.19784264 -0.16814174 0.1203408 0.18002614 0.19510108 0.0041141515 0.20965433
-0.05391153 -0.037050974 -0.15162596 -0.14923777 0.0050888998 0.008608565 0.17022902 -0.21306874
0.08470389 0.0059343027 0.025672074 0.077582724 -0.098162316 0.13965687 -0.029390015 -0.072148114
-0.12705487 0.12569289 0.12824495 0.05298242 0.18272333 -0.006127686 0.16805388 0.12741336
0.14840944 0.16524759 0.074228 -0.043005727 -0.013375931 0.057382535 0.12471294 0.09877691
-0.021161452 0.17464577 0.013423349 -0.0044084447 -0.15909842 -0.015901795 0.053227965 0.13918217
-0.0041534286 -0.044860106 -0.17887604 -0.18167213 0.0362383 0.17237005 0.16038427 -0.0696678

functional_1/conv1d_4_1/convolution/ExpandDims_1:0 f4 [128, 256, 1, 1]
00000000: 70a9 9d3d 380e e43d 806c 20bd 3900 e8bc
00000010: 1883 993d 1cee c2bd 28b4 ce3d 505e cebc
00000020: efd6 8ebc 1992 8bbd f0e4 393d 4979 28bd
00000030: e510 23bd 58e9 88bd 7aac 2d3d 00e8 d43d
00000040: 9356 0c3d dd2c c6bc 4096 5b3c 5e63 b4bc
00000050: 74dc 41bd f89f 0bbc 1712 8bbd 0853 44bd
00000060: f20f c63d 1b98 eabd e0e4 8b3c 2947 b33d
00000070: 7906 d43d e0fa 13bd 2a96 df3d f866 f63d
00000080: 9560 ed3d c3d4 b53d 0625 073b b07a ae3c
00000090: aa7a 8bbd 9a23 d3bd c045 673c dc36 b13d
000000a0: 108b c4bc d06c 8c3c 487e d33d 204a c23c
000000b0: 9c18 e83d 664f 69bc 6dd9 dbbc 331f a1bd
000000c0: c074 51bc afcf 59bd 4088 28bc 688c e3bd
000000d0: 58f0 ad3d 6f65 393d 28c0 413d 8d28 2c3c
000000e0: 081b 89bd d821 a0bc 40c2 833c f076 b0bd
000000f0: d84a da3d e812 64bd cf4f b6bd 005f d23c
00000100: b6eb aa3d 0702 bd3d 5b0c e4bd 3378 3cbc
00000110: 8d43 92bd 8099 033b e3d6 27bd 053d cebd
00000120: 3875 553d cee5 b63d 2ca1 93bd 287b a63d
00000130: ce11 12bd ed39 73bd 8217 633c 00ed bf3a
00000140: f86d c1bd 64b8 903c 93f5 3f3b e93b b6bd
00000150: 88a5 763d d5c4 d4bd f00a 87bd 980b 5e3c
00000160: b649 49bd 9a6f 9b3c 601a 8abc f50a ec3d
00000170: 12e7 01be c7bf 9b3d f234 013e 4c78 af3d
00000180: f8b2 61bd 840b cdbd b2bc 133c 801f df3b
00000190: 683a e93d e77f 48bd fb6e 843d a052 693d
000001a0: d1ed 90bd 88c0 9dbd 04c6 afbd 8582 b0bd
000001b0: 1434 4fbd 7e41 28bd be77 49bc b0d3 a3bd
000001c0: 3d26 f03c 516b 5dbd 800d bebd 73ae e93d
000001d0: 5047 303d 4567 df3d 9681 e03d 471a f23d
000001e0: b044 05bd 6068 b5bd 388d a73d 20e8 933c
000001f0: c03a c2bd 5f4c e33b 904b 1cbd 6df2 d33d
00000200: 60d2 cb3c 409b b2bd 07e9 34bd d266 debc
00000210: 40f7 e33d ee09 d7bc 6ee3 93bd cdd7 86bd
00000220: 6321 8dbd 4922 e1bd 5094 9a3d d48d a6bd
00000230: 3bcf 3e3d 0031 71bd 6f90 193c 20c7 28bd
00000240: 8c55 b7bd df0c de3c 01f7 ee3d 83b6 68bd
00000250: 186c 043d 8e8d 55bd eb57 493c fa66 9cbd
00000260: 9234 b03c 208f 60bd 7b29 18bd 245f cf3d
00000270: f4bc b4bd 8880 373d 80c9 92bc a038 df3b
00000280: 5fc5 dcbd 5c6a cebd 16d9 003e 6f44 9c3d
00000290: 7d7b 493d 8826 213d 4d93 e83b e20f afbd
000002a0: ac4c 5fbc 088a 59bd b1ae d43d 2a41 8bbd
000002b0: acc3 163c 7987 31bc 788c 1c3d f415 513d
000002c0: 0ce1 eb3d dc51 81bd c182 8d3c b8b7 753d
000002d0: 0051 5cbb 4bcc a93d c751 dbbd 81ea 473d
000002e0: 4831 033d 18e4 d73d 483b ecbd d45b c13d
000002f0: 00ba 05bc ac21 de3d 50cc fabc a613 8cbd
00000300: 8bf1 8cbd 00af 9dbb 7273 14bd b6a8 a03d
00000310: 78c1 c4bd ef07 79bd 20bf 66bc bd0d a6bc
00000320: c009 d8bd 00f5 3fbb 2933 ddbd c5ab bd3d
00000330: 90df a3bd 8d57 a53b 9243 fb3d b455 96bd
00000340: 589e c33d 1480 8e3d 1c2f fd3c 9bcb a63d
00000350: 783e f9bd 72a6 a1bd 7e50 54bd 5cbd a53d
00000360: 40c9 413d 8848 f0bc 994b 623d 9b30 a1bd
00000370: b428 6f3d 48da 9c3c 61dd c13d 9126 d13c
00000380: 609b 3c3d 7ad7 bbba c0d2 103c fbc0 a2bb
00000390: 5c88 30bd 7765 cc3d 0018 a5bd 5dc9 33bd
000003a0: e864 98bd 7433 ffbd 60f2 7f3c e7a0 3fbd
000003b0: 3830 e63d a38a c03d 0735 b8bd a01e a83c
000003c0: cf34 843d cfd3 c03d 28ef f7bd 633b 4abd
000003d0: c874 2a3d ac94 b23d 9755 eb3d 0005 e13d
000003e0: e25b e93d ec4c a2bd 868c f0bb 4d61 7f3d
000003f0: dab4 be3d f4d2 efbd 4657 b0bd 9008 ecbc
0.07698333 0.111355245 -0.039165974 -0.028320419 0.07495707 -0.09518072 0.10092956 -0.025191456
-0.017436473 -0.06814975 0.045384347 -0.04113129 -0.039811034 -0.06685132 0.042400815 0.10395813
0.03426225 -0.024191314 0.013402522 -0.022020038 -0.04732938 -0.008522026 -0.0679056 -0.047930747
0.0967101 -0.11454793 0.01707691 0.08753807 0.10352797 -0.036127925 0.109173134 0.120313585
0.11590687 0.08878472 0.0020621433 0.021298736 -0.06810506 -0.10309525 0.014115751 0.08653042
-0.023992091 0.01714173 0.103268206 0.023716986 0.11332819 -0.0142401215 -0.026837075 -0.07867279
-0.012784183 -0.053176578 -0.010286391 -0.11110765 0.084931076 0.04526275 0.047302395 0.010507715
-0.06694609 -0.019547388 0.016083837 -0.086164355 0.106588066 -0.055682093 -0.08901941 0.025680065
0.083457395 0.09228902 -0.11135169 -0.011503267 -0.071417905 0.0020080507 -0.040976416 -0.10070232
0.05211374 0.089305505 -0.072084755 0.08128959 -0.03566151 -0.059381414 0.013860585 0.0014642775
-0.09444803 0.01766605 0.002929066 -0.08898146 0.060216457 -0.10389105 -0.06593883 0.013552569
-0.04914256 0.018974114 -0.01685828 0.115255274 -0.12685803 0.07604938 0.12617853 0.08567867
-0.05510232 -0.10011962 0.009017156 0.006809175 0.11388093 -0.048950102 0.0646648 0.056963563
-0.0707661 -0.07702738 -0.0858269 -0.086186446 -0.050586775 -0.041078083 -0.012296615 -0.079993606
0.029315108 -0.054057423 -0.09279919 0.11410227 0.04303676 0.10908369 0.109622166 0.11821418
-0.03253621 -0.088577986 0.08181232 0.018055022 -0.09483862 0.0069365944 -0.038158 0.103489734
0.024880588 -0.08721018 -0.044167545 -0.027148638 0.111311436 -0.026249852 -0.07221113 -0.065841295
-0.06891134 -0.109928675 0.075478196 -0.0813252 0.04658435 -0.05888462 0.009372815 -0.041205525
-0.08951864 0.027105747 0.11668206 -0.05681468 0.03232965 -0.05213695 0.012289028 -0.07636829
0.021509442 -0.054823995 -0.037148934 0.101255685 -0.088251024 0.04480031 -0.017918348 0.00681217
-0.10779833 -0.1007888 0.12582812 0.0763024 0.049190033 0.039343387 0.0070976377 -0.08547951
-0.01362912 -0.053110152 0.10384882 -0.067995384 0.009201925 -0.010835522 0.0382199 0.051046327
0.11517534 -0.063144416 0.017274262 0.05998966 -0.0033617616 0.08290919 -0.10708957 0.048807625
0.03202942 0.10541552 -0.115347445 0.09441343 -0.008162022 0.10846266 -0.030615002 -0.06839685
-0.06882008 -0.0048121214 -0.03624291 0.07844679 -0.09607214 -0.06079858 -0.014083654 -0.020270223
-0.10548735 -0.0029290318 -0.10800774 0.09261278 -0.080016255 0.0050458373 0.122687474 -0.07340565
0.09551686 0.06958023 0.030906253 0.081443034 -0.12170118 -0.07893075 -0.051834576 0.08092758
0.047311068 -0.02933146 0.055247877 -0.07870599 0.058388427 0.019147053 0.09466053 0.025531085
0.046046615 -0.0014331185 0.008839309 -0.0049668527 -0.043098792 0.099802904 -0.08061218 -0.043893207
-0.07441121 -0.12460986 0.015621752 -0.046784308 0.11239666 0.09401443 -0.08994489 0.020522416
0.06455385 0.09415399 -0.12106162 -0.04937304 0.041615278 0.08719763 0.11490934 0.10987282
0.113944784 -0.07924828 -0.0073409704 0.062348653 0.093118384 -0.11710158 -0.08610396 -0.028812677

functional_1/conv1d_3_1/convolution/ExpandDims_1:0 f4 [256, 512, 1, 1]
00000000: 1b31 4c3b c415 653d 1e54 863d 6698 7b3d
00000010: e835 e1bc ab3b 153b 1b91 f63c 1ce8 00bc
00000020: 6bc2 5fbb 702b debb 10a6 74bd 385d 6dbd
00000030: 2f2c 2f3d b85f 553c 132b 483d dbfb 78bd
00000040: e748 2a3d 8007 6b3d a6dc 77bd 06dd 593d
00000050: 5b7d a23d 2517 85bd 5de5 6b3b f27b 563d
00000060: ea1d df3b 857f 05bd 0049 8d3d dc99 423c
00000070: bd4f 163c 7834 b8bd a84e 3bbc fdd9 a8bd
00000080: 336d 60bd ca6a 2a3d be7a 71bd 8a79 2abd
00000090: c5d7 b6bc 7e0e 413d e5ed 98bd 6b66 48bd
000000a0: bda4 f2bc 6fdf 9d3d 62d8 6b3d 43c4 b13d
000000b0: cee2 50bd ceb3 91bd 0739 9fbd fe89 89bd
000000c0: 4411 debc c871 9cbd 9475 87bd 9768 89bb
000000d0: 26bf 21bd 3e02 2fbd b972 8d3d 6650 0abd
000000e0: 03e1 b7bd 0108 9bbd 8081 0abb 7d38 6f3d
000000f0: cbdb 79bd 8b39 abbd 39c0 a23d 4ff0 8d3d
00000100: 3271 273d c1f5 6abd ead5 ad3d 0ec8 803d
00000110: 4955 94bd d654 173d 661b 293d 6702 aebd
00000120: f735 5ebd 1d78 b1bd affb bbbc 22dc 363d
00000130: 0f40 bfbc e86d c23c efbd 0abd 094e 82bc
00000140: 6c2b 1d3d 1427 22bb 36a7 6c3d 0ea0 9dbd
00000150: 6a38 9a3c 9754 72bd 0fc7 983d 26f3 2d3d
00000160: dff7 983d 51a7 8ebc 6b6c 8dbd e7ac 6ebc
00000170: 2b95 833c 3ad3 d2bc 2f64 92bd 1d44 833d
00000180: 1313 8c3d 0239 39bd 5be8 763d f029 16bd
00000190: dc03 a9bc c601 013d 4047 c93b a4bc a73d
000001a0: 2fc9 553d 56ad fcbc 62cc 2e3d ff11 ad3d
000001b0: b974 123d 4e56 833b fb82 b03d 7eda 4fbd
000001c0: c6f0 873c 9a84 30bd 82fa 8dbb 490c 2a3c
000001d0: c777 a43c 0a96 08bd 446d 153c 3401 bdbd
000001e0: ec2d b7bd 780f c93c 26d6 0abd 7f6a b5bd
000001f0: b89d 24bc 1caa 97bc f75d 36bb 27ef 8fbd
00000200: 8155 12bd ed46 2c3b 3467 7fbd 5728 193c
00000210: 59b6 7b3c d41d d6bc 265b 8ebd 13ae 99bd
00000220: 056f 44bd 1ed7 3a3d 068c 433d 65df 903d
00000230: 0b2a 50bd ccea bfbd a475 313d 0229 673d
00000240: 36ea 8abd 8e59 1f3d 82b6 8bbd 4508 8a3c
00000250: 9d59 843c 8063 a53d ae8c 9a3d f992 06bd
00000260: 38b2 f63c 1069 a9bc a90c 38bd 106f a63c
00000270: 00cb 81bc fe93 88bd e02f 55bb 24ee 0a3d
00000280: 01e4 8d3d cda8 a23d b0c1 a6bd e2ca 81bd
00000290: c400 acbd aacd 93bc 2839 723d 5984 893d
000002a0: 4666 5c3d 0e45 95bd 3435 6c3d f191 0ebc
000002b0: ba7d b8bc adfd 9b3b e8dc 8e3d 6ea9 513d
000002c0: d8f4 a83d 3617 8ebd d75c ab3d 9fbd 8dbd
000002d0: e81e 81bc 4af4 2b3d d731 363c 7faa a5bc
000002e0: 53c8 a1bc c975 073d c0e2 fe3c 9a0f 22bd
000002f0: c4f8 e43c e8e6 703d 8035 863a 72d6 573d
00000300: 66ac a6bd e689 bfbd dab6 bbbd f2d6 76bc
00000310: 0bc8 513d 8654 153d 8eca 6c3d 8565 9bbd
00000320: f003 3d3c 049e b93c 57e4 8fbd 0a62 373d
00000330: 99e4 f2bc 5243 babd 7841 29bd 4f09 0ebd
00000340: a73e 0c3d 159d 323d e902 8a3d 127f 1d3d
00000350: af5a 493d 26ba 133d 3f89 5a39 a5e7 e3bc
00000360: cab5 25bd be8a 9bbd e5aa 8b3d 782d 2f3c
00000370: 4296 143d 9d1a 40bd 9d75 3fbd 9207 673c
00000380: c820 acbd 17e0 923d e4a3 293d 3767 98bd
00000390: 48c3 083d ad70 83bd 04d5 d2bc e5c4 62bd
000003a0: 9180 b23d c1dd 113c 05d3 b3bd b8b9 2fbd
000003b0: 15f8 ebbc 3eb1 7d3d e977 09bd 8516 a53d
000003c0: 0dfa 81bd fe63 023d 7a6c 8abc cd0c 963d
000003d0: 0804 1dbd 1618 aebc e022 623b 718f aa3d
000003e0: 3c32 87bd c42c de3b 4986 22bc f34d 3f3d
000003f0: e964 8fbb daa8 9dbc f8c8 ff3c 0b99 96bd
0.0031157199 0.05592896 0.06559013 0.061424635 -0.027491525 0.002277116 0.030098489 -0.007867839
-0.0034142982 -0.0067800805 -0.059728682 -0.05795023 0.042766746 0.013023309 0.048869204 -0.060787063
0.04157343 0.0573802 -0.06051316 0.0531893 0.07934066 -0.06498555 0.0035994865 0.052364297
0.006808986 -0.032592315 0.06898689 0.011877503 0.0091742845 -0.089943826 -0.011432327 -0.08244703
-0.05479164 0.04160575 -0.058954947 -0.041619815 -0.022319684 0.04713296 -0.0746725 -0.0489258
-0.029619569 0.07708632 0.057579406 0.08680012 -0.050997548 -0.07114373 -0.07774549 -0.06715773
-0.027107842 -0.076388896 -0.06614223 -0.0041933763 -0.039488934 -0.042726748 0.06906647 -0.03376808
-0.089784645 -0.07569886 -0.0021134317 0.05840348 -0.061000627 -0.08360585 0.0794682 0.06930601
0.040879436 -0.057363275 0.084880665 0.062881574 -0.07242829 0.03694614 0.041285895 -0.08496552
-0.054250684 -0.08665488 -0.02294716 0.04464353 -0.023345975 0.023734048 -0.03387254 -0.01590635
0.03837149 -0.002474253 0.057776652 -0.07696544 0.018825728 -0.059162702 0.074598424 0.042468213
0.07469153 -0.017413767 -0.06905445 -0.01456759 0.01606234 -0.025735486 -0.07148015 0.06409476
0.068395756 -0.045220383 0.060280185 -0.03666109 -0.020631723 0.031495832 0.006142527 0.08190277
0.052193817 -0.030844372 0.042675383 0.08450698 0.035755847 0.004008091 0.086187325 -0.05074548
0.016594302 -0.04309521 -0.0043328414 0.010378906 0.020076646 -0.033346213 0.009120289 -0.09228745
-0.08944306 0.024543509 -0.033895634 -0.08858203 -0.010047369 -0.018513732 -0.0027827004 -0.070280366
-0.035726074 0.0026287392 -0.06235428 0.009347997 0.015363299 -0.02613727 -0.06950979 -0.07503905
-0.04795744 0.045615308 0.04774096 0.07073859 -0.050821345 -0.09370956 0.04332508 0.056435592
-0.067829534 0.038903765 -0.0682192 0.016849646 0.016156012 0.08075619 0.07546364 -0.032855008
0.030114278 -0.02067998 -0.04493395 0.02031663 -0.015843868 -0.06668852 -0.0032529756 0.033918515
0.06928254 0.079423524 -0.08142412 -0.06337525 -0.083985835 -0.018042404 0.05913654 0.067146964
0.053808473 -0.07288562 0.057667926 -0.008701787 -0.022520889 0.004760465 0.06975728 0.05118697
0.08249825 -0.06938021 0.08367317 -0.06920933 -0.015761808 0.04198102 0.011120281 -0.0202229
-0.019748842 0.033071313 0.031113982 -0.03956566 0.027950652 0.05881396 0.0010239333 0.052694745
-0.08138351 -0.09352474 -0.091657355 -0.015065895 0.051216166 0.03645756 0.05781036 -0.07587723
0.011536583 0.022658356 -0.07025974 0.04477123 -0.02965002 -0.090948716 -0.0413222 -0.034676846
0.034239437 0.043606836 0.06738836 0.03845126 0.04915875 0.036066197 0.00020841228 -0.027820418
-0.04045657 -0.07594822 0.06819705 0.010691993 0.03627611 -0.04690038 -0.046743024 0.014100926
-0.0840469 0.07171648 0.041416064 -0.07441562 0.03338936 -0.064179756 -0.02573634 -0.055363555
0.08715928 0.008902968 -0.08780483 -0.042901725 -0.028804818 0.06193661 -0.03356162 0.08060936
-0.063465215 0.03183364 -0.016897429 0.0732666 -0.038333923 -0.02125172 0.003450565 0.083281405
-0.06601378 0.006780239 -0.009919711 0.046705198 -0.004376043 -0.019245554 0.031223759 -0.073534094

functional_1/conv1d_2_1/convolution/ExpandDims_1:0 f4 [256, 128, 1, 1]
00000000: 8ba1 2cbd 9f5d 723d e04a 4bbd 80c1 c63b
00000010: 48d8 88bd e837 1d3d 8184 a3bd f274 7f3c
00000020: 73aa 2c3d 7415 b3bd 00ce 013b f07c bd3c
00000030: f828 ce3d 2a62 cf3d 2f4b 643c ac47 483c
00000040: 7432 d23d 00bf fe3c 1bba 223d 88d2 a63d
00000050: c0bd d83b f944 bb3d 1852 14bd f0e6 923d
00000060: 0873 85bd 1c48 fdbc e392 193d d58e fb3d
00000070: 9afc 263c b537 843d 0a47 d73d 0a73 07be
00000080: a7eb ecbd 63b6 b33d 5271 ee3d 04f1 6ebd
00000090: d604 81bd 1152 ec3d 446f d7bd 711f eebd
000000a0: 39eb 163d 59bc 82bd 50bb 763d 68f4 88bd
000000b0: f2fd eebc f456 80bd 3ee2 b23d bec1 f93d
000000c0: 521a 8bbd 790f 163c 25bd ed3d f0d6 99bc
000000d0: c6df a83d 69b1 a13d 4d78 023d d04a e8bd
000000e0: 00ac f63b 2dc2 82bd 9e11 61bd c055 52bd
000000f0: af48 853d 5ab7 b53d 7213 a63c 2dde 23bd
00000100: ed8e 913d 7108 85bd 0d1e d0bd 6093 a0bc
00000110: 23ba 2cbc 2583 81bd a00c 10bd ffe5 75bd
00000120: 33f6 b3bc 349b b53d 3f66 abbd 70ad 7f3c
00000130: bf1b 933c 82d0 b4bd 7129 523b f45c 0d3d
00000140: e1a8 8ebd d45d 8b3d 5e61 83bd 03d3 b1bd
00000150: d1d8 f93c 802a abbb 8b2a c7bd 5a74 973d
00000160: d177 2bbd 33d9 a5bc 48cc 1a3d d956 243d
00000170: 7991 e2bc a277 98bd 2b8e fa3c c36f d4bd
00000180: 0fc2 b53d 5aee 833d 04ef 93bd a8c7 3abd
00000190: d0ab cfbd beaa 253d e0f8 da3c 670c be3d
000001a0: cdb4 eabb cc4e 8abd 901b 023c 0f69 8f3d
000001b0: 52fe 0bbd 05bc 44bd 300f 673d 664a a2bd
000001c0: 98d0 c9bd 4ed8 853d 3759 bcbd 9500 f73d
000001d0: 23bf e53d 69ff f5bd 7c8c fd3d c0c1 903d
000001e0: 874e a23d 40dc 593d c0df aebd 71c0 143d
000001f0: 4337 01bd fc6c cbbc c0de 7dbd 3f13 fbbd
00000200: 7d8e 54bd 0973 d63d 8970 aabc a81f 263d
00000210: e400 86bd 74d4 4abd 0147 43bd 1d5d 953d
00000220: 93ec e6bd 383d ac3d 3ca2 df3d e0d6 d53d
00000230: d820 19bd 5030 f8bc 22fa 1d3c b7d3 c93d
00000240: b48d cd3d c04d a43c eb68 d0bd 6840 4d3d
00000250: 4884 913d f201 ddbd 2c55 afbd bde1 823c
00000260: 6812 173d d031 fa3c 878f d7bd a06c 1dbd
00000270: f4e2 1ebd c203 15bd ec5a b43d 080f 1bbd
00000280: 7c7f d63d 182c 97bd ffdb c33d 0636 1fbd
00000290: 90f2 a63d 76f3 d9bd 9ec8 b23d d859 713d
000002a0: eeb8 62bc 421b 043d c94a 93bd 48fc 443d
000002b0: 606d 843c 109a c73d 530d 68bb bc59 f03d
000002c0: 21d5 263d d788 c2bd 1be8 77bd 88ae 1dbd
000002d0: dd47 e2bd a980 70bd 5b31 a0bd b8bb 7ebd
000002e0: f024 e83d 6eb2 da3c 7d0d cebd e05e 1c3c
000002f0: 4be5 35bd 189c 94bc a4d5 67bc db87 1fbd
00000300: 9072 f93d 0050 2cbc 9342 8c3d a883 2ebd
00000310: ffe7 c63d cdf7 063d 802b 99bd 7f23 f6bd
00000320: 98c4 cb3d 8007 0c3c 6e77 8bbd 29cf 823d
00000330: d2bb e73d 1958 1f3d a722 d53b f6e4 e83d
00000340: d4e0 b63b 78d0 213d ad6d 7d3d 83b2 ea3d
00000350: 70dc 03be 601d b43d e855 263d ec85 d0bd
00000360: b0f0 8cbd 3dfc df3d cc48 83bd f7b3 aabd
00000370: 0b1d ccbd 1933 59bd 8928 c8bd 0fa8 9ebd
00000380: 406a 413d bd9d a6bd 6c42 b73d c4f4 c4bd
00000390: 9076 83bd e087 6dbc 601c 5e3d 144c 0d3d
000003a0: 7b25 54bd 402f c23c 5e52 493a 8ccd c33d
000003b0: 074a bb3d f9b6 f739 24e7 8dbd b466 debd
000003c0: 1833 f73d d8e5 dfbd 6dec 68bd 161b 333d
000003d0: 45d5 31bd 59f8 4f3d 2031 dbbd 405c 4fbc
000003e0: 4151 813d c4ba b13d 9956 0abd 06a5 b43d
000003f0: 8b25 e23d 0a1a e93d b5e4 ce3b 97a4 82bd
-0.042146247 0.059171315 -0.049631953 0.0060655475 -0.066818774 0.038383394 -0.079842575 0.015591847
0.04215474 -0.08744326 0.0019806623 0.023130864 0.10066408 0.10126145 0.013933941 0.012224119
0.102635294 0.031096935 0.039728265 0.081456244 0.006614417 0.09144015 -0.036211103 0.07172954
-0.06516081 -0.030918173 0.037493598 0.122831024 0.010192061 0.06455938 0.105115965 -0.13227478
-0.115683846 0.08775022 0.11642708 -0.05833532 -0.062997505 0.115390904 -0.10519269 -0.11627091
0.03684542 -0.06383581 0.06023723 -0.06687242 -0.029173825 -0.06266585 0.087345585 0.121951565
-0.067921296 0.009158962 0.11608342 -0.018779248 0.082458064 0.078951664 0.03185301 -0.11342394
0.007527828 -0.06384692 -0.05494844 -0.05135131 0.06508004 0.08872862 0.020272944 -0.040006805
0.07107339 -0.06495751 -0.10161982 -0.019601524 -0.010542425 -0.06323842 -0.03516829 -0.060033794
-0.021967983 0.08867493 -0.08369111 0.015605316 0.017957566 -0.08828832 0.0032068158 0.034512475
-0.06965805 0.06805006 -0.06415056 -0.086828254 0.030498894 -0.0052235723 -0.09724911 0.07395239
-0.041862313 -0.02024517 0.037792474 0.040121887 -0.027657257 -0.07444693 0.03058537 -0.10372879
0.08874904 0.06441946 -0.07223323 -0.045600563 -0.101401925 0.040446036 0.026730001 0.09279709
-0.0071626664 -0.067533106 0.007941142 0.0700246 -0.034178086 -0.048030872 0.05641097 -0.079243466
-0.09854239 0.065353975 -0.09196704 0.12060658 0.11218097 -0.12011606 0.12380311 0.07068205
0.07925134 0.053188562 -0.08538771 0.03631634 -0.031546842 -0.024832241 -0.06198001 -0.1225953
-0.0518937 0.1047116 -0.020805614 0.040557534 -0.065431386 -0.049519017 -0.047675136 0.072931506
-0.11275592 0.08410114 0.109196156 0.10441375 -0.037384838 -0.030296475 0.009642156 0.098548345
0.10036793 0.020056605 -0.101762615 0.05011025 0.07105309 -0.10791387 -0.08561167 0.015976781
0.036882788 0.03054133 -0.105254225 -0.03843367 -0.038790658 -0.036380537 0.088064045 -0.03785613
0.104735345 -0.07381457 0.09563445 -0.03886988 0.08151734 -0.106421396 0.08729671 0.058923572
-0.013838036 0.032252558 -0.071919985 0.048092157 0.016165435 0.09746182 -0.0035408332 0.117358655
0.0407306 -0.094987564 -0.060524087 -0.038496524 -0.11048863 -0.05871645 -0.07821914 -0.06219074
0.1133517 0.02669641 -0.100611664 0.009544104 -0.044408124 -0.018140838 -0.014150057 -0.03894792
0.12180054 -0.01051712 0.068486355 -0.042606026 0.097122185 0.032951165 -0.07479 -0.12018489
0.09949607 0.00854671 -0.06809889 0.06387169 0.11315121 0.038902376 0.006504375 0.11371796
0.005581001 0.039505452 0.061872173 0.1145983 -0.12877059 0.08794665 0.04060927 -0.101817936
-0.06881845 0.109367825 -0.06410369 -0.08335107 -0.09966477 -0.053027246 -0.097733565 -0.077468984
0.04722047 -0.08135555 0.08948216 -0.09616998 -0.064190984 -0.014497727 0.05422628 0.034496382
-0.051793557 0.023704171 0.0007679815 0.09560689 0.09144979 0.00047247836 -0.06928852 -0.10859433
0.12070292 -0.10932511 -0.0568661 0.043727003 -0.04341628 0.050773952 -0.10702729 -0.012656271
0.06314326 0.08678201 -0.033773992 0.08820538 0.11042317 0.1138192 0.006313885 -0.06379049

functional_1/conv1d_1_2/convolution/ExpandDims_1:0 f4 [128, 64, 1, 1]
00000000: af39 e83c 7e6a da3d c643 00be d1d8 dcbd
00000010: 5b6f d5bd a073 88bd 8ef9 24bd 04ac 4b3d
00000020: 3c09 1abe cbdb 273e 4087 1e3d 7a86 ad3d
00000030: a653 b83c 9c7d 583d a64e 0dbe 7628 a7bd
00000040: a7e4 c43d b7b8 083e 3d46 c0bd e09f 523c
00000050: 1438 cdbc 018d 143e 7aff b73d 95bf a0bd
00000060: 0a08 433d 82a5 e7bd ab4c 81bd 407e 8e3d
00000070: f013 c33c 2e44 4dbd ebaa 093e e806 db3c
00000080: 6826 973d 7bf5 99bd 74ea 08be 1632 8b3d
00000090: 4f04 1f3e 6e0a c4bd f9cf f8bd 3510 0a3e
000000a0: 08a2 833d 58e1 063d dd01 343e 2a68 ac3d
000000b0: 9f4d 98bd 27d3 af3d 34f2 30bd 74f3 243e
000000c0: 41ef 853d 9ade 01be 4a08 d93d a873 143e
000000d0: ad6b 493c 5da7 943d fb5c 123d 6b79 343e
000000e0: 5bb8 e5bd e5f4 afbc 0bf4 933d 7673 103e
000000f0: 96b5 88bd 67d7 823d 708e 24bc 0740 893d
00000100: 1476 8e3d 7585 28be f468 71bd 5b49 dd3d
00000110: fc5e 1ebe 813c c1bd a306 703d 4e27 753d
00000120: 1021 6c3d 0470 f7bd fe49 d03d 520a 1abe
00000130: 0aa0 f93d 004c dcbb 0459 293e 3c68 2cbd
00000140: b769 2abe c339 bebd ce96 8abd 419d 183e
00000150: 8b5f 12be 03f8 f4bd 081f a73d 4a30 b83d
00000160: 5a82 60bd 262a 2fbe 3d48 91bc 5f20 113e
00000170: 45d0 0cbe a69c 8d3d 6df0 debd 6cfa 02bd
00000180: 9966 cd3d bae5 8e3d 148a febd 52f9 fdbd
00000190: 42c4 d83d 41b1 9b3d c212 5b3d 2a32 173e
000001a0: 7d1b d2bc f28e 833d d7dd c4bd 060f cfbd
000001b0: 0df0 b23d 8c27 ac3d a018 32be e9b0 2cbe
000001c0: 4775 e2bd d27a 173c cda9 abbd 2125 8ebd
000001d0: e281 eb3d 359d 96bd ccca c73d 2e43 fbbd
000001e0: 286b 8e3d ca30 e03d 3abd c03d 439f a93c
000001f0: 203e 05bd a3ff 883b 23c9 273e 559e b23d
00000200: 2054 a63d 7c60 0dbe f1b4 183e 2609 e33d
00000210: 222e febd c818 89bd 8ba7 853d a8ab a03d
00000220: 409a 66bd a4ab 12bd e0c4 9d3c 9ac7 bbbd
00000230: 63ad 36be 944e 8f3d 5b28 0f3e e218 82bd
00000240: 725b e8bd ef20 90bb 5c78 d13d bae4 b23d
00000250: 6cfa c3bc 203a 31be 0aba aabd a217 45bd
00000260: 1bd4 e3bd a4a2 62bd b77e 763d fa5c 13be
00000270: c5a6 8abd a24c 13be 2884 9fbb a1fd 143e
00000280: 3ba8 023e 2eca 08be 1860 babc e9e6 fabd
00000290: 6da1 28be d024 a3bc 964f 213e b41b b5bd
000002a0: 19dc 823d e8db ebbd d61c f13d d4e4 763d
000002b0: df47 d13c 6777 9a3b a4f6 3ebe 4358 0d3e
000002c0: ea55 b2bd 2ec3 a13d f973 16be 6fb2 2f3e
000002d0: d774 02be 6810 663d c367 a23d 08f2 9ebc
000002e0: 9c59 1fbe 077e 5e3d 0aa4 ed3d 39b6 e7bd
000002f0: 0a4f 1ebe 2e8a 8cbd e0e0 d93b fa39 8b3d
00000300: d4e0 38bd 6007 0dbd c0bf 08be f8fd 1f3d
00000310: 6406 10be ecd6 e2bd 2a22 ff3d 0b2e 1bbe
00000320: aaa6 eabd 5e80 dd3d 057c ccbd 205a 9bbb
00000330: c0ea 35bb 10c5 00be bd92 323e 5e8b b13d
00000340: d5e4 9dbd 70d5 7d3d 2716 09be 88d1 6abd
00000350: 0516 80bd 7dd4 acbd 1481 8e3d 205d febb
00000360: 9401 afbd d2b1 9f3d 1129 33be ae4e e43d
00000370: 7a96 883d 4b36 163e ff5c e5bd ee96 92bd
00000380: ccf2 033d 126a a43d 5538 14be f926 263e
00000390: 70db b2bd c27e 893d 804b 843c eabd a2bd
000003a0: 4869 233d 15d3 1ebe d888 3bbd 7e3b 9a3d
000003b0: 4ccd b6bd 872d fbbd 41ce 073e a0d5 bfbb
000003c0: f486 2c3d e80f 0b3d f6b4 f3bd ae9a e33d
000003d0: bdbe adbd d105 e2bd e7e3 f1bd 8ba1 febd
000003e0: 0353 2a3e 5316 a3bd 15cc 06be 9259 59bd
000003f0: ba0c a03d 06ac b5bd 0132 98bd 2e64 ba3d
0.028347818 0.10664843 -0.12525854 -0.10783542 -0.1042163 -0.06662679 -0.040277056 0.049724594
-0.15042585 0.16392438 0.038703203 0.08472915 0.022500824 0.052854165 -0.13799533 -0.08162014
0.096139245 0.13351713 -0.09388397 0.0128555 -0.025051154 0.14506914 0.08984275 -0.078490414
0.04761509 -0.11310865 -0.063134514 0.06957674 0.023813218 -0.05011385 0.13444106 0.026736692
0.07380372 -0.07517525 -0.13370687 0.067966625 0.15528987 -0.09572302 -0.12149043 0.13482745
0.064273894 0.03292975 0.17578836 0.08418305 -0.0743668 0.08585196 -0.043199733 0.16108495
0.06539775 -0.12682572 0.10597284 0.14497244 0.012293738 0.072584845 0.035733204 0.17624442
-0.11216804 -0.02147908 0.07224282 0.14106545 -0.0667526 0.06388741 -0.010043725 0.06701665
0.06956115 -0.1645716 -0.05893798 0.10805007 -0.15465921 -0.09435368 0.05860008 0.059851937
0.05764872 -0.12081912 0.10170363 -0.15043 0.12188728 -0.006722927 0.16537863 -0.042091593
-0.1664189 -0.09288361 -0.06767045 0.14903738 -0.14294259 -0.11961367 0.081602156 0.089935854
-0.054811813 -0.17105922 -0.017734641 0.14172505 -0.13751324 0.06914644 -0.10885701 -0.031977102
0.100293346 0.069774106 -0.1242868 -0.1240107 0.10584308 0.07602168 0.053484686 0.1476523
-0.025647873 0.06423749 -0.09612625 -0.10110287 0.08737192 0.084059805 -0.17392206 -0.16864361
-0.11057525 0.009245591 -0.08381996 -0.069406755 0.114993826 -0.073542036 0.09755477 -0.12268673
0.06954032 0.10946806 0.09411092 0.020705825 -0.03252995 0.004180865 0.16385321 0.08721606
0.08121514 -0.13806337 0.14912774 0.11085729 -0.12411143 -0.0669418 0.06526097 0.07845241
-0.056299448 -0.03580822 0.019258916 -0.0916893 -0.1783958 0.069974095 0.13980238 -0.06352402
-0.11345567 -0.0043984572 0.10228035 0.087350324 -0.023923121 -0.17307329 -0.083362654 -0.04811824
-0.1112444 -0.055330887 0.06017944 -0.14390936 -0.0677009 -0.14384702 -0.004868049 0.14549877
0.12759487 -0.13358375 -0.0227509 -0.12251074 -0.16467829 -0.019915015 0.15753016 -0.088431746
0.063896365 -0.11516553 0.11773078 0.06027682 0.025546966 0.004713941 -0.18648773 0.138032
-0.08707793 0.07898556 -0.14692678 0.17157911 -0.12739883 0.05616799 0.07929947 -0.019402519
-0.15561527 0.054319408 0.116035536 -0.11314053 -0.15459839 -0.06862293 0.0066491216 0.067981675
-0.045136288 -0.03443086 -0.13354397 0.039060563 -0.14064938 -0.11076149 0.12457688 -0.15154283
-0.1145757 0.108155 -0.09984592 -0.0047409683 -0.002775833 -0.12575173 0.17438789 0.0866916
-0.07709662 0.061971128 -0.13387357 -0.05732873 -0.062542 -0.084389664 0.069582134 -0.007762566
-0.08545223 0.077975884 -0.17496134 0.111478195 0.06669326 0.14669149 -0.11199378 -0.07157694
0.03221397 0.08028044 -0.14474614 0.16225804 -0.08733261 0.0671363 0.016149282 -0.079463795
0.039895326 -0.15510209 -0.0457848 0.075308785 -0.08925876 -0.12264543 0.13262273 -0.0058543235
0.04212089 0.033950716 -0.1189975 0.11113487 -0.08483646 -0.11036266 -0.11811047 -0.124331556
0.16633229 -0.079632424 -0.13163789 -0.053063937 0.078149274 -0.088707015 -0.074314125 0.09101139

functional_1/conv1d_1/convolution/ExpandDims_1:0 f4 [64, 30, 1, 1]
00000000: 797d 223d 1103 81be 55c9 0e3e a4fd a6bd
00000010: 7103 483e 390b 243d acab 48be 78f0 3f3e
00000020: fa85 463e a009 393e 7a19 01be 041c 503e
00000030: 951e 3cbe 5631 12be 6fe5 fcbd 8c88 723e
00000040: 0bf6 1dbe e28d bebd d8bf 1f3e 89f5 60be
00000050: c5d2 98bd 2d53 1cbe 0880 c1bd 3da1 5fbe
00000060: 4fe8 9d3d 9f53 353c 0b0b be3d 9c2b 93bc
00000070: 5514 9b3d 003c 2fbe aae3 3fbe c288 643e
00000080: e0f0 223e 2c97 9d3d 5864 20bd 46a5 743e
00000090: 1881 6cbe aac9 43be 60cb 5d3d e26d 36be
000000a0: 0ce2 573e a098 abbd 4873 eebd e01c 1d3e
000000b0: e084 ddbb 44d9 ab3d 30b9 3cbc 3865 3a3e
000000c0: a414 3abe 42f3 7ebe 289b 723d acd4 b73d
000000d0: a8ce 0c3d 2b23 1cbe 1dc7 26be 309b 383e
000000e0: 78f7 42bd 78bf bd3d 8435 993d 6d3f 0dbe
000000f0: ac60 0ebd 4051 8e3c 800f 22bd 54a3 86bd
00000100: 38f5 35bd 404a 06bc d066 0dbc ebb0 58be
00000110: 7c27 22be 60cb fd3d e15c 803e a80f 1ebd
00000120: d010 7bbc 185a 59be b87a 943d 8ae3 7b3e
00000130: 441d e3bd 06ce 95bd 27f1 5fbe f020 0fbc
00000140: d0ba 283d 8049 bf3d ced8 173e e029 233c
00000150: c2fb 243e a036 d63c 8095 cbbd 3877 a5bd
00000160: 9804 7dbe 18b8 eebd 5ab8 4abe b5f2 573e
00000170: 191c 203e b12d 32be 20e2 373e fb69 66be
00000180: 1e6e fcbc 0b82 9fbd 0b14 e0bd d71a 35bc
00000190: 9255 823d f7ca 36be 49fb 233e 0f0b f43d
000001a0: ca63 75be d5df 663e 00a4 443e 0272 3ebe
000001b0: 5393 563c b35f 553e d8a6 a83c 5456 283e
000001c0: c212 e23d 30c7 0bbe ad54 033e 1b32 663e
000001d0: eb95 bf3d 1810 bbbd f884 15bd 211f 0dbe
000001e0: 7075 95bd 4270 2abe f2a2 1ebe a01d 463c
000001f0: 7a15 bcbd 92a7 21be 604b d73c 5e80 32be
00000200: 47f3 06be 3a21 e1bd 5670 053e 2c39 653e
00000210: fc01 07bd 9c86 7b3e cc87 583e 662d 4fbe
00000220: 2106 2abe a0d3 efbd d890 52bd 10bb 5ebe
00000230: 5ba4 59be 98bc d03d 807f a9bc 50fe 953d
00000240: 06b3 a2bd 1094 3b3e 806a bc3b 82a3 213e
00000250: 8064 833d 140a d43d 478b 5f3c b7ba 2bbd
00000260: 0ab4 5f3e 21e4 103e e915 383e 3d80 65be
00000270: 3d38 663e 9c1b 00be 6c78 323d 0e2b fabc
00000280: 1baa 0abe f61d 5ebe 2a3e 19be 7b38 1f3d
00000290: 6515 513d f936 5a3e 3046 72be 9622 3fbe
000002a0: 6b51 7f3e 318a cf3d d38f 8cbd 4e13 043e
000002b0: 27ac b73d 3a1b 2cbe 9b36 bbbd d8e0 2ebe
000002c0: 1448 4abe bf4d 803d e644 ecbd 3694 693e
000002d0: d79f 2f3e 5f61 0a3e 7ff7 77be cc8a 523e
000002e0: 5866 92bd dc2b b33d 31d4 c4bd 4394 debd
000002f0: ead4 5b3d 0cf3 debb 2a2c 86bd 2b29 9e3d
00000300: 0e78 713e aa06 adbd d256 84be 5cb3 223e
00000310: d45b 233e b6ae 31be 1916 713e b155 b1bd
00000320: 9aea 393e 299d 103e 1be5 fbbd 225b 73be
00000330: c36b 93bd f5c6 153e afd7 50bd 6c5f 173e
00000340: 9dac 6c3e e166 60be b3ce 5b3e 4938 5b3e
00000350: 2e93 333e fb5c 433e 8145 1fbe 35da 293e
00000360: d09f 8b39 7105 233e 6870 933c a2ae c53d
00000370: f380 6a3e adca 1a3e 0b95 40be a51c 593d
00000380: a777 1a3d a094 3f3d 0a9a 603e aa86 533e
00000390: 2829 30be 804d 6fbd 051c d83d 3c9a 963d
000003a0: 1a18 5f3e 1fcb 1abe 0710 fa3d 4e37 0fbe
000003b0: 9653 e03d d26e ec3d cf96 9fbb 474c 393e
000003c0: fc14 093d 85ab 0dbe 5753 263e 536a fabd
000003d0: 9efd b43d 61e3 043e 114e a3bd 7d4d 69be
000003e0: eb5f 0d3c b581 1bbe 1782 133e cff3 a2bb
000003f0: d5d1 8f3d d84d 6c3e 96aa d63d 4ab6 22be
0.03967044 -0.25197652 0.1394399 -0.08153847 0.19532563 0.040049765 -0.19596738 0.18744075
0.19387046 0.18070078 -0.12607375 0.20323187 -0.18371041 -0.14276633 -0.123484485 0.23684901
-0.15425889 -0.09304406 0.15600526 -0.21968664 -0.07462076 -0.15266104 -0.09448248 -0.21838851
0.07710325 0.0110673 0.0927945 -0.01796513 0.075722374 -0.17112732 -0.1873919 0.22317794
0.15912199 0.07694849 -0.039158195 0.23891172 -0.2309612 -0.19119897 0.05414903 -0.17815354
0.21082324 -0.0837872 -0.11643082 0.15343046 -0.0067602247 0.083910495 -0.0115187615 0.18202674
-0.18171936 -0.24897483 0.05923 0.08976111 0.03437677 -0.1524779 -0.16286893 0.1802795
-0.047599286 0.092650354 0.074809104 -0.13793726 -0.034760162 0.017372727 -0.039565563 -0.06574121
-0.044423312 -0.0081964135 -0.008630469 -0.21161239 -0.15835375 0.12392306 0.2507086 -0.03858915
-0.015323833 -0.21225774 0.07249969 0.24598518 -0.11089566 -0.073146865 -0.21869336 -0.00873588
0.041193783 0.09340191 0.14828798 0.009958714 0.16111663 0.026149094 -0.09940624 -0.0807938
-0.24708784 -0.11656207 -0.19796887 0.21088679 0.15635718 -0.17400242 0.17957354 -0.22501366
-0.030814227 -0.077884756 -0.10941323 -0.011053762 0.063639775 -0.17850862 0.16013826 0.11916172
-0.23963848 0.22546323 0.19203186 -0.18598178 0.013096648 0.20837288 0.02058737 0.16439182
0.11038734 -0.13650203 0.1282527 0.22480051 0.093547665 -0.09133929 -0.036503762 -0.13781406
-0.0729779 -0.16644385 -0.15491846 0.012092024 -0.09183784 -0.15786579 0.026281059 -0.1743178
-0.1317874 -0.109926656 0.13031134 0.2238509 -0.032960877 0.24563068 0.21145552 -0.20232162
-0.166039 -0.11710286 -0.051407665 -0.21751046 -0.21254103 0.101922214 -0.02069068 0.07323897
-0.07944302 0.183182 0.0057500005 0.1578503 0.06415653 0.10353485 0.013644046 -0.041926112
0.21846023 0.14149524 0.17977108 -0.224122 0.2248239 -0.12510532 0.043571874 -0.030538108
-0.13541453 -0.21691117 -0.1496512 0.038872223 0.051045794 0.21310033 -0.23659587 -0.18665537
0.24933402 0.1013378 -0.0686337 0.12897989 0.08968382 -0.16807261 -0.091412745 -0.17077959
-0.19754058 0.06264829 -0.11536579 0.22810444 0.17150818 0.13513707 -0.24215506 0.2056076
-0.07148427 0.087486 -0.09610785 -0.108681224 0.053669848 -0.006803876 -0.065513924 0.07722696
0.23580953 -0.08448537 -0.2584749 0.15888733 0.15952998 -0.17351803 0.23543586 -0.086589225
0.181559 0.14122452 -0.12299558 -0.23765233 -0.07198288 0.14626677 -0.050986942 0.14782494
0.23112722 -0.21914245 0.21465568 0.2140819 0.17536613 0.19078438 -0.15553857 0.16587146
0.00026631216 0.15920044 0.017997935 0.09652449 0.22900753 0.15116377 -0.18806855 0.053005833
0.037711766 0.0467726 0.21933761 0.20656839 -0.172032 -0.05842352 0.10552219 0.073536366
0.21786538 -0.15116547 0.12210088 -0.13985941 0.10953443 0.11544575 -0.0048702727 0.18095504
0.033467278 -0.13834961 0.16242729 -0.12227311 0.08837436 0.12977363 -0.07973874 -0.22783466
0.008628826 -0.15186198 0.14405094 -0.004972912 0.07022444 0.2307657 0.104817554 -0.1588985

const_fold_opt__184 f4 [1, 256, 1]
00000000: 35d9 80ba d8e4 1cbb b715 0dbb 2e76 f0bb
00000010: b8c6 89bb e26b c13b 118c d83b 86f4 28bc
00000020: 66b3 b33b acfa f8bb 0000 0000 2457 5f3a
00000030: 821d 35bc 0000 0000 3e58 6a3b 5bb5 b13b
00000040: 66dd 13bc 36e1 2ebc 0000 0000 0000 0000
00000050: 1216 28bc 499d 813b 35b7 04bc 99b9 11bc
00000060: ab30 f9bb 126e 773b 9bfa 99bb 84f5 42bc
00000070: 4ce9 423a 79aa edbb 9d9f ce3b 0000 0000
00000080: 0000 0000 0000 0000 0000 0000 0d3d 9a3b
00000090: 9b7e 1cbc d84e 14bc 0000 0000 8350 1a3a
000000a0: 2fc5 8c3b 23f8 e63b 0000 0000 0000 0000
000000b0: a83b 8fbb 9c5e 983b fd06 c9bb 4a6a 09ba
000000c0: 0000 0000 6ad1 8cba 9dc7 dfbb ddd1 27bc
000000d0: 8baf a6bb 5fc1 8f3b 351c 783b 2e0b f4bb
000000e0: aa96 01bc 0fdc dc3b 0000 0000 94cf af3b
000000f0: ec3d 31bb e961 6a3b a3dc 8c39 0000 0000
00000100: 0000 0000 726e c3bb 31b5 f1bb 40cd 983a
00000110: af53 a73b c80b 113c 0000 0000 312d d0bb
00000120: 0000 0000 e097 173c e265 dab9 80cc c7bb
00000130: ca77 e6bb 0000 0000 06f1 e33b 3610 b8bb
00000140: c317 84bb 496f c3bb 205e a5bb 0000 0000
00000150: b228 fabb 4347 343b 72ae 993b 0000 0000
00000160: 54c8 213a 9864 a23b 0000 0000 8393 2fbc
00000170: 5ebf 64bb 8eca 9d3b ca9b 003c 0000 0000
00000180: 0000 0000 f26d 833b 9a00 e0bb 8cab a6bb
00000190: 8983 00bc 0000 0000 22e1 01bc 9f7a 26bc
000001a0: aff5 53ba 1067 673a 0000 0000 d1ac 073b
000001b0: 6dbf b3bb 08a2 30bb fb79 a6bb 0000 0000
000001c0: 1596 bbbb 874c a8bb f732 adbb 1234 913b
000001d0: 4db1 9f39 8595 82bb 4a5c 29ba 01b1 603b
000001e0: cba0 c5ba 59bc 10bc c94a 42ba 791c 0abc
000001f0: 0000 0000 40a2 3d3b 0ed0 9c3b 3a32 d6ba
00000200: 5520 a13b 1338 6a3b 0000 0000 c0d9 573b
00000210: a029 c83b 5866 f5bb a56a 70ba c1f5 48bc
00000220: e1e8 e4bb 0000 0000 0000 0000 0000 0000
00000230: b970 163b af3b 9c3b 2367 5dbc 8662 603b
00000240: 491e ddbb 5f0a 9c3b 0000 0000 1308 7a3b
00000250: 5907 d1bb 38f9 d13b 36fb 20bb 0000 0000
00000260: 0000 0000 653d c6bb 5646 3dbc fa4f 833b
00000270: efc6 b2bb 036e c3bb 2fae d3bb 1804 b53b
00000280: fa89 b6bb 6231 b8bb 9585 c53b 7968 793b
00000290: 0000 0000 fb10 22bb b8eb d53b f34a e43b
000002a0: 0000 0000 994f 45bc c84d 113a ffb0 55bb
000002b0: 9d76 b53b 6bc9 043c 242f 80bb 0000 0000
000002c0: 13ae cb3b 2164 783b 9cb2 b13b 593b fb39
000002d0: 7098 093c a10f ad3b 55a1 ccbb d5cf febb
000002e0: ecc2 c43b 742c 333b 0000 0000 cce0 c83b
000002f0: 0000 0000 a9b9 683b d97a a7bb 0000 0000
00000300: f524 bf3b 7fc7 63bc ac0d b4b8 929f 6b3b
00000310: 5741 c3bb d719 593b 0af8 e5bb 9dbb 8abc
00000320: 6e95 27bc aba0 d9bb 28b7 e13b 0000 0000
00000330: cf98 d73b dc62 a73b 0000 0000 addd e93b
00000340: 88b4 01bc 2d5f 2dbc 1cca df3b 0000 0000
00000350: 3da5 9cbb 0000 0000 8064 6c3b f5de ef39
00000360: 89bf 6abc 2c70 c3bb 0000 0000 9236 d3bb
00000370: 0000 0000 0000 0000 0000 0000 89e9 aebb
00000380: 1c29 17bc ae78 8a3b bb91 26bb 8960 c3bb
00000390: 5896 1fbc cc4b c3bb 0000 0000 2caf a73b
000003a0: 0000 0000 67d3 d63b e694 d83b 6d1b 873b
000003b0: a86b febb 0000 0000 0000 0000 2143 9039
000003c0: 5beb 2abb 1ae1 79b9 dd93 ca3b fa02 bd3b
000003d0: 9b79 28bc abc3 d7bb 0000 0000 0000 0000
000003e0: b66e 5abb 678a d73b ba12 a53b d741 ac3b
000003f0: c5dd ad3a 40dd c03b 3771 b1bb 9835 a03b
-0.0009830358 -0.0023940112 -0.0021527836 -0.007338307 -0.0042045973 0.005902753 0.006608494 -0.010312205
0.0054840324 -0.007598242 0.0 0.000851976 -0.0110543985 0.0 0.0035758163 0.0054232306
-0.0090249535 -0.010673812 0.0 0.0 -0.010259168 0.0039555174 -0.008100321 -0.008894348
-0.0076046786 0.0037754816 -0.004699064 -0.011899356 0.00074352766 -0.007252988 0.0063056485 0.0
0.0 0.0 0.0 0.004706985 -0.0095516695 -0.009052001 0.0 0.0005886631
0.004295967 0.007048623 0.0 0.0 -0.0043711253 0.00464995 -0.0061348663 -0.00052419736
0.0 -0.0010743563 -0.0068292157 -0.010242906 -0.0050868443 0.0043870653 0.003785861 -0.007447622
-0.007909456 0.0067401 0.0 0.0053653214 -0.0027044965 0.0035763925 0.00026867268 0.0
0.0 -0.005964094 -0.007376336 0.0011657849 0.0051064114 0.0088529065 0.0 -0.0063530435
0.0 0.009252518 -0.0004165611 -0.0060973763 -0.007033323 0.0 0.0069562225 -0.005617167
-0.004031153 -0.005964194 -0.005046621 0.0 -0.007634246 0.0027508296 0.004689985 0.0
0.0006171514 0.0049558394 0.0 -0.010716322 -0.0034904103 0.004815406 0.007849643 0.0
0.0 0.0040109092 -0.006836009 -0.005086368 -0.00784386 0.0 -0.007927211 -0.010161071
-0.0008085621 0.0008827308 0.0 0.0020702372 -0.005485466 -0.0026952047 -0.005080459 0.0
-0.0057246783 -0.005136076 -0.0052856165 0.004431256 0.00030458943 -0.0039851093 -0.00064605905 0.003428519
-0.0015077827 -0.008833968 -0.00074116566 -0.00842964 0.0 0.002893582 0.0047855442 -0.0016341873
0.0049171844 0.003573899 0.0 0.0032936186 0.0061084777 -0.007489007 -0.0009171165 -0.012265624
-0.006985769 0.0 0.0 0.0 0.0022955372 0.004767857 -0.013513359 0.0034238412
-0.006747995 0.0047619785 0.0 0.0038151785 -0.0063790497 0.006407883 -0.0024563796 0.0
0.0 -0.0060497993 -0.011552414 0.0040073367 -0.0054558436 -0.005964042 -0.0064599733 0.0055241697
-0.0055706473 -0.0056211213 0.006027887 0.0038056655 0.0 -0.002472936 0.006528344 0.0069669425
0.0 -0.012042903 0.00055429013 -0.0032606719 0.0055378214 0.008104662 -0.0039118696 0.0
0.0062158196 0.0037901478 0.005422903 0.00047918668 0.00839816 0.005281404 -0.006244818 -0.0077762404
0.006004682 0.0027339729 0.0 0.0061303135 0.0 0.0035511053 -0.00511108 0.0
0.005833263 -0.013902544 -8.5856154e-05 0.0035953266 -0.005958717 0.0033126974 -0.007018094 -0.016935164
-0.010228498 -0.0066414676 0.006888289 0.0 0.0065794955 0.0051082205 0.0 0.0071370215
-0.007916577 -0.010581774 0.0068295132 0.0 -0.00478044 0.0 0.0036070645 0.00045751748
-0.014327892 -0.0059642997 0.0 -0.0064457143 0.0 0.0 0.0 -0.005337898
-0.00922611 0.004225812 -0.0025416452 -0.0059624356 -0.009740435 -0.0059599634 0.0 0.0051173177
0.0 0.006555963 0.006609547 0.0041231425 -0.0077642985 0.0 0.0 0.00027515835
-0.0026080224 -0.00023830347 0.0061821775 0.005768177 -0.010282899 -0.0065846047 0.0 0.0
-0.003333015 0.006577778 0.005037633 0.005256872 0.0013264945 0.00588575 -0.0054151076 0.0048892014

const_fold_opt__183 f4 [1, 128, 1]
00000000: 8565 6b3a 16d0 06bc 5f96 10bc 0000 0000
00000010: 0000 0000 80de 20bb 6852 1ebc 376a 48bb
00000020: 2ad9 1cbc 0000 0000 0000 0000 0000 0000
00000030: 0000 0000 3796 d0bb 107f ce3a 1a6f 8a3b
00000040: 0000 0000 0000 0000 fd08 343b 0000 0000
00000050: 0000 0000 d952 0e3c 2816 af3a 0c30 ff3b
00000060: 0000 0000 cd11 c0bb 3d67 d1ba 7120 c13b
00000070: c869 32bb 4a37 bf3b 5906 ea3b cfd3 a93b
00000080: 7106 94b8 2f5a f2bb 9be2 a73b 3140 a4bb
00000090: 58b3 a3bb a184 8a3b b2a9 5639 9601 91bb
000000a0: 786a 7d3b a968 bebb 1fd1 a83a 0000 0000
000000b0: a5b9 1cbc 0000 0000 6787 353b d441 c3bb
000000c0: df3b a1ba f57e 3fbc c2bb 38bb 0000 0000
000000d0: 65b0 bd3b 8cfc b03c 9408 a73b 0000 0000
000000e0: 0000 0000 668c afbb 614c 523b 0000 0000
000000f0: e6bc 70bb 806e 923b 5d5f e5bb ecfd 413b
00000100: 96e5 1bbc e51f b4bb 0966 91ba 0000 0000
00000110: a061 edbb b296 18bc 0000 0000 793e 583b
00000120: 35f3 57bb 0000 0000 6952 34bc 8c3d 023b
00000130: d5bb 133b 9565 603b e813 69bb 6e7f 78bb
00000140: e96a 09bc 0000 0000 f9ca 373a a46a 08bc
00000150: 2f06 5a3b 0000 0000 de4f a13b 93f7 133c
00000160: 0562 9abb 0261 fc3b 0000 0000 987b 47bb
00000170: 24a7 11bc 968d d139 baae 7abb 1fac cb3b
00000180: f63c a2ba 90f7 533b 0000 0000 0000 0000
00000190: 0000 0000 9ab9 81b9 0000 0000 dd3c aeb8
000001a0: c0ed e536 0000 0000 735c 73bb 1200 62b9
000001b0: f87d 6fbc 5981 7abb 0000 0000 9d3c 883b
000001c0: 0000 0000 0c88 0fbb cb79 0fbc c4ca 17bc
000001d0: b66f 8d3b 249f 703b 0000 0000 0000 0000
000001e0: d7ad 093b 0000 0000 c466 4d3c f39c ba3b
000001f0: fc89 873b 72b6 343b c6db af3b 39d7 18bc
0.0008979666 -0.0082283225 -0.008824914 0.0 0.0 -0.0024546683 -0.009663202 -0.0030580887
-0.00957326 0.0 0.0 0.0 0.0 -0.0063655633 0.001575442 0.00422467
0.0 0.0 0.0027471178 0.0 0.0 0.008686745 0.0013358044 0.00778771
0.0 -0.005861497 -0.0015976202 0.00589376 -0.0027223695 0.0058354484 0.00714187 0.0051827203
-7.05839e-05 -0.0073960046 0.005123449 -0.005012535 -0.0049957447 0.0042272364 0.00020471847 -0.004425238
0.0038668197 -0.0058108163 0.0012879706 0.0 -0.0095657455 0.0 0.0027699114 -0.005958775
-0.0012301168 -0.011687984 -0.0028188084 0.0 0.00578885 0.021604799 0.005097458 0.0
0.0 -0.005357313 0.0032088982 0.0 -0.0036733686 0.004468739 -0.0069998936 0.0029600812
-0.009515187 -0.005496966 -0.0011093031 0.0 -0.007244304 -0.009313272 0.0 0.003299622
-0.003295136 0.0 -0.011005976 0.001987311 0.0022542377 0.0034240235 -0.0035564844 -0.003791775
-0.008387306 0.0 0.0007011141 -0.008326206 0.0033267846 0.0 0.004922851 0.009031194
-0.004711392 0.007701994 0.0 -0.0030438658 -0.008889947 0.00039969076 -0.0038251118 0.006215587
-0.0012377787 0.0032343604 0.0 0.0 0.0 -0.0002474308 0.0 -8.308303e-05
6.8524096e-06 0.0 -0.0037133961 -0.00021553066 -0.014617436 -0.003822407 0.0 0.0041576163
0.0 -0.0021901159 -0.008757065 -0.009264652 0.0043162955 0.003671595 0.0 0.0
0.0021008158 0.0 0.012536708 0.0056949793 0.004136322 0.0027574566 0.005366775 -0.009328657

const_fold_opt__179 f4 [1, 256, 1]
00000000: bc6e c3bb 0000 0000 0000 0000 2898 5d3b
00000010: 0000 0000 29ac e6bb eda8 e03b 0000 0000
00000020: d8ac dfbb e57a 1ebc 0000 0000 017a c33b
00000030: 66fa 05bb dd63 c3bb a507 b23b 0000 0000
00000040: c3b1 503b 9f61 bebb 0000 0000 eb70 da3b
00000050: 124b 0f3c 0551 98bb 6f12 f13b 6dd5 b9bb
00000060: eb21 073b e597 9f3b 8b16 c0bb b096 1d3b
00000070: 6db5 0e3c 0000 0000 aabc 2fbb 4d3b bc3b
00000080: 5e5e 13bc fb69 053c 77c6 fd3b 0000 0000
00000090: 1326 b03b f9ce a3bb 0000 0000 0000 0000
000000a0: 0000 0000 0000 0000 7557 c3bb 0000 0000
000000b0: 0000 0000 0063 09bc bf76 a5bb 8802 123c
000000c0: b338 a1bb 2a44 8dbb 106f c3bb dd5f 1cbc
000000d0: 9d40 fdbb d625 20bb 0000 0000 c971 f33b
000000e0: 0000 0000 736a f4bb 0000 0000 0000 0000
000000f0: 0000 0000 d46f c3bb d5df f03b 0000 0000
00000100: ae60 da38 c229 0f3c 699c f8b9 fb10 e9bb
00000110: 6d67 eebb d472 c3bb 1f34 053c 4213 a93b
00000120: 7dd0 f7b7 3c9d d7bb 0000 0000 fbb2 043c
00000130: a7c4 923b 9433 e73a 915a a6bb 0000 0000
00000140: d504 13bc cafe f9bb 645c d3bb e545 c9bb
00000150: af97 c2bb 9bb2 e1bb 0000 0000 e1a0 023b
00000160: 396b c63a bfa1 d93b d203 083c df78 d03b
00000170: db43 f73b e33a 533b 9066 ddbb 0000 0000
00000180: 0000 0000 796d 8ebb 88e6 01bc 0000 0000
00000190: 0000 0000 521c 7cbb 76ec c1bb 41d0 2c3b
000001a0: 1ea5 0b3c 9e60 8f3b 0000 0000 c441 83bb
000001b0: 7971 80bb 5197 033c 89e0 dc3b 68f5 96bb
000001c0: 6028 d6bb 45e3 0f3c 2a6c e5bb cfd3 c33b
000001d0: 0000 0000 62ad e2bb 209c 893b 1b9e 8cba
000001e0: 0000 0000 0000 0000 0000 0000 0000 0000
000001f0: 0000 0000 3986 0a3c 0000 0000 d949 20bc
00000200: a44a e3bb 9e9b 043c bf4d afbb 0794 d2bb
00000210: 9853 eebb 5df3 323b eace 0d3c 7ebf 84bb
00000220: fe8b 833b 7f0a c33a b597 e2bb 342b c73b
00000230: 1e54 9c3b 0000 0000 0d96 b63b 0000 0000
00000240: e741 1e3a cfeb c3bb 877d cbbb ca66 ccbb
00000250: 0000 0000 b665 0c3c f5ab 013c efb6 fbbb
00000260: 80ef e3bb e7d9 d5bb 0662 d23b 0000 0000
00000270: 0000 0000 0000 0000 0000 0000 99f0 ff3b
00000280: a49a 003c 0000 0000 898e 173c 7184 8dbb
00000290: 4302 013c 3324 bfbb 994e 5ebb 010a f0bb
000002a0: 83c9 30bc 0000 0000 38d0 043c daaa 2dbc
000002b0: 9bc8 12bc f23a 893b 0000 0000 9da1 e43b
000002c0: 0000 0000 0000 0000 5b3e 01bc 0000 0000
000002d0: 0000 0000 e583 cbbb 6f2a 0f3c 9e0f ae39
000002e0: 0000 0000 ab8c a73b 4e90 c1bb 8dae 0abc
000002f0: 0000 0000 4ac9 913a 0000 0000 3b35 0c3c
00000300: b2e9 bc3b 0000 0000 0c05 d9bb 4214 163c
00000310: 0000 0000 2f08 913b 0000 0000 8510 09bc
00000320: 797b 95bb 0000 0000 64d4 eabb 2a4d 13bb
00000330: 0000 0000 f41a d9bb eeb7 b4bb b1bf 133c
00000340: 356c bdbb 0000 0000 c752 d7bb 78df 1dbc
00000350: 0000 0000 0b02 d2bb b7fd 093c f4f6 f03b
00000360: a790 7eba 9084 753a 65a6 0d3c 42db 1cbc
00000370: 96d8 c6bb 732e fa3b a9f2 153c 2b96 a2bb
00000380: 301e b0bb f453 19bc 9c66 c3bb 0b58 053c
00000390: 95dd a2bb bf51 f53b 648f f83b 6cbf d73b
000003a0: 0000 0000 89bd c13b 0000 0000 e6b4 023c
000003b0: 2c63 a63b 7ae9 0d3c 0044 be3b 0000 0000
000003c0: 7937 df3b ad90 103c 1e13 99bb 5d68 ea3b
000003d0: 0000 0000 0000 0000 09de 14bb 440c c4ba
000003e0: 2c56 9c3b 2cb7 c3bb 1bd8 09bc 7b3f 0e3c
000003f0: b0d3 06bc 0000 0000 f1e7 f4bb 0000 0000
-0.0059641283 0.0 0.0 0.0033812616 0.0 -0.007039566 0.006856075 0.0
-0.0068260245 -0.009672855 0.0 0.0059654717 -0.0020443439 -0.0059628324 0.00543304 0.0
0.0031844235 -0.005809977 0.0 0.006666293 0.0087459255 -0.00464833 0.007356934 -0.0056711943
0.0020619582 0.004870402 -0.0058620623 0.0024046116 0.008710247 0.0 -0.0026815333 0.005744374
-0.008994667 0.0081429435 0.007744606 0.0 0.0053756326 -0.0049990383 0.0 0.0
0.0 0.0 -0.0059613534 0.0 0.0 -0.00838542 -0.005049556 0.008911736
-0.004920089 -0.0043111043 -0.0059641674 -0.00954434 -0.00772865 -0.0024436614 0.0 0.0074293357
0.0 -0.007458979 0.0 0.0 0.0 -0.0059642587 0.0073509016 0.0
0.00010413058 0.008737983 -0.0004741878 -0.00711262 -0.007275513 -0.0059646163 0.008130102 0.0051597664
-2.954178e-05 -0.006580023 0.0 0.008099313 0.004479009 0.0017639273 -0.0050767143 0.0
-0.00897332 -0.00762925 -0.006450223 -0.0061423653 -0.0059384922 -0.0068877465 0.0 0.0019932317
0.0015138156 0.006641596 0.008301692 0.006362065 0.007545931 0.0032231144 -0.006756611 0.0
0.0 -0.0043465463 -0.007928498 0.0 0.0 -0.0038469029 -0.005918081 0.0026369246
0.008523254 0.0043755313 0.0 -0.0040056426 -0.003919777 0.008031682 0.006740634 -0.0046068914
-0.006535575 0.008782213 -0.0070014196 0.0059761773 0.0 -0.0069176415 0.0041995198 -0.0010728271
0.0 0.0 0.0 0.0 0.0 0.008454853 0.0 -0.009783232
-0.006936388 0.008093743 -0.005349844 -0.0064263376 -0.0072731487 0.00273057 0.008655289 -0.004051148
0.004014491 0.0014880447 -0.0069150575 0.0060781483 0.0047707697 0.0 0.0055720867 0.0
0.0006037042 -0.0059790383 -0.0062100324 -0.0062378393 0.0 0.008569172 0.007914533 -0.0076817195
-0.006956041 -0.00652622 0.0064203767 0.0 0.0 0.0 0.0 0.007810664
0.007849369 0.0 0.009250292 -0.0043187668 0.007874074 -0.0058331727 -0.003392136 -0.0073254113
-0.010790232 0.0 0.008106284 -0.010599816 -0.008958961 0.004187935 0.0 0.0069772736
0.0 0.0 -0.007888402 0.0 0.0 -0.0062107914 0.008738144 0.00033199502
0.0 0.0051132045 -0.005907095 -0.008464468 0.0 0.0011122611 0.0 0.008557613
0.0057651633 0.0 -0.006622916 0.009160103 0.0 0.0044260244 0.0 -0.008365755
-0.004561838 0.0 -0.007166432 -0.0022476413 0.0 -0.0066255275 -0.00551509 0.009017871
-0.0057807215 0.0 -0.006571147 -0.009635799 0.0 -0.006408935 0.008422307 0.007353658
-0.0009710886 0.00093657617 0.008645629 -0.0095737595 -0.0060682995 0.0076349317 0.009152093 -0.004961749
-0.0053746924 -0.009358395 -0.0059631597 0.008138667 -0.0049702623 0.0074865515 0.007585453 0.0065840986
0.0 0.005912487 0.0 0.0079777 0.00507774 0.008661622 0.005806446 0.0
0.006812033 0.008823556 -0.0046714684 0.0071535544 0.0 0.0 -0.002271535 -0.0014957269
0.0047710147 -0.0059727635 -0.00841334 0.008682127 -0.008229181 0.0 -0.0074739386 0.0
