NN_model/models/lightprobe_model.onnx (onnx, 837789 bytes, 11 tensors)

functional_1/conv1d_5_1/convolution/ExpandDims_1:0 f4 [1, 128, 1, 1]
0	0xbdd27288	-0.10275751
1	0xbe11d13f	-0.14239977
2	0x3db62e9b	0.08895608
3	0x3ddf2665	0.10895995
4	0x3d6792c8	0.056536466
5	0xbe0a971b	-0.13534205
6	0x3d7d6c21	0.061870698
7	0xbe4db501	-0.20088579
8	0xbe39de48	-0.181512
9	0xbd9f66ae	-0.077832565
10	0xbe0c6ba6	-0.1371294
11	0xbe2544e7	-0.16139565
12	0xbd3a90e3	-0.04554833
13	0x3de5ddab	0.112239204
14	0xbdb4d02d	-0.08828769
15	0x3e228901	0.15872575
16	0x3e4f9808	0.20272839
17	0x3e468bfa	0.19389334
18	0x3d773ed0	0.060362637
19	0x3df697bb	0.12040659
20	0xbe4bcc82	-0.19902232
21	0xbda192c8	-0.078893244
22	0xbdd98aa0	-0.10622144
23	0xbe2472db	-0.16059439
24	0x3e03d481	0.12874033
25	0x3a9c3f07	0.0011920639
26	0x3ce518d8	0.027965948
27	0x3d7f9f31	0.062407676
28	0x3da91951	0.08256782
29	0xbd36e536	-0.044652186
30	0xbcdeed68	-0.027212813
31	0x3e1c76e5	0.1527973
32	0xbdcb53bc	-0.099280804
33	0x3e3cd7f5	0.18441756
34	0xbdf1c230	-0.118046165
35	0xbd271a93	-0.040796828
36	0xbd172c64	-0.03690757
37	0xbe1a021e	-0.1503987
38	0xbb6ae49b	-0.0035841826
39	0x3e34adf6	0.17644486
40	0x3d29f34c	0.04149179
41	0x3cb54658	0.02212827
42	0xbe4c0176	-0.19922432
43	0xb89cc800	-7.4759126e-05
44	0x3e2016db	0.15633719
45	0x3e4ebb50	0.20188642
46	0x3e24e772	0.16103914
47	0x3d8c89e1	0.06862236
48	0x3c0c8d6e	0.008578641
49	0x3e1e6ef6	0.15472016
50	0xbe0ca867	-0.13736115
51	0x3db992d3	0.090612076
52	0x3e47e9e8	0.19522822
53	0x3ba65771	0.005076342
54	0xbd384c22	-0.04499448
55	0x3d16e610	0.0368405
56	0x3d4fe3d8	0.050754398
57	0xbe0a4f66	-0.1350685
58	0x3e2135f0	0.15743232
59	0x3e4c5300	0.19953537
60	0xbdde162f	-0.10844075
61	0x3e187634	0.14888841
62	0x3bdc8c81	0.0067306166
63	0x3bfbbcdc	0.007682426
64	0xbd4596da	-0.048239566
65	0x3d6c8aad	0.05774944
66	0x3d901ee5	0.07037143
67	0xbe0cb136	-0.13739476
68	0xbe3f3756	-0.18673453
69	0x3e4e54df	0.20149563
70	0x3e56412a	0.20923296
71	0x3e20bf72	0.1569803
72	0xbd51b3bc	-0.0511968
73	0xbca98ff4	-0.020698525
74	0x3aae2fb0	0.0013289358
75	0x3d732ed7	0.05937084
76	0xbe4577a5	-0.19283922
77	0x3cc128a6	0.023578953
78	0x3e2be835	0.16787799
79	0xbe24566b	-0.16048591
80	0x3d920bbf	0.07131147
81	0xbbc8b6de	-0.006125315
82	0x3da026e4	0.07819918
83	0xbe014e2a	-0.12627473
84	0x3c8b9cd8	0.017042562
85	0x3e078f8d	0.13238354
86	0xbd9d96b8	-0.07694763
87	0x3d88cfaa	0.06680234
88	0xbdf5d734	-0.12003937
89	0x3e28c297	0.1648048
90	0xbbc4284e	-0.00598625
91	0xbe009830	-0.12558055
92	0x3d030d37	0.031995025
93	0x3d544cd8	0.051831096
94	0x3d93ed8c	0.07223043
95	0xbdce026c	-0.10059056
96	0x3e05ff30	0.13085628
97	0x3e270f85	0.16314514
98	0xbe25854b	-0.16164128
99	0xbe435783	-0.19076352
100	0x3e1617c7	0.14657508
101	0xbdf9b521	-0.12192751
102	0xbd99f2ce	-0.075170144
103	0xbd19e1d7	-0.037568893
104	0x3d309a2d	0.043115783
105	0x3c8d45ba	0.017245162
106	0xbe3eb7df	-0.18624829
107	0xbda6bc8d	-0.08141432
108	0x3d8808b1	0.06642283
109	0xbdf0f525	-0.117655076
110	0x3c62fa0d	0.013853562
111	0xbe17331a	-0.14765587
112	0xbe4154f7	-0.18880068
113	0x3bcc390c	0.0062323865
114	0x3e0c8f2f	0.13726495
115	0x3da487eb	0.08033737
116	0x3e3ef3ea	0.18647733
117	0x3e5873de	0.2113795
118	0x3e0d44cc	0.13795775
119	0xbe06f937	-0.13181005
120	0xbdbb43a3	-0.0914376
121	0x3e115488	0.14192402
122	0x3d326080	0.04354906
123	0x3d87a198	0.066226184
124	0xbde96640	-0.11396456
125	0x3d3dcfd0	0.046340764
126	0xbdabf3f5	-0.083961405
127	0x3d96a1c8	0.07355076

functional_1/conv1d_4_1/convolution/ExpandDims_1:0 f4 [128, 256, 1, 1]
0	0x3de75564	0.11295584
1	0xbd943667	-0.07236939
2	0x3de1e28c	0.110295385
3	0x3afb5b00	0.00191769
4	0x3bb9c9c0	0.0056698024
5	0x3cb26e10	0.021780998
6	0x3c757020	0.014980346
7	0x3d074f84	0.033034816
8	0x3c7f8000	0.015594482
9	0x3de12956	0.10994212
10	0x3c53d900	0.012930155
11	0xbd724c60	-0.059154868
12	0xbd97b087	-0.07406717
13	0x3da54513	0.080698155
14	0xbdc637d3	-0.096786164
15	0xbd651cf8	-0.05593583
16	0xbc009d51	-0.007850007
17	0x3b3da380	0.0028936565
18	0xbd8fa93d	-0.070147015
19	0x3d920760	0.07130313
20	0x3a8e8300	0.0010872781
21	0x3dece00c	0.11566171
22	0xbd9fa365	-0.07794837
23	0x3d5bcb18	0.053660482
24	0x3dac9e67	0.0842865
25	0x3d16d3a5	0.036822934
26	0xbdbaec90	-0.09127152
27	0xbdfd4edd	-0.123685576
28	0x3dd99060	0.106232405
29	0xbdc7f110	-0.09762776
30	0xbd79b070	-0.06095928
31	0xba9f8a0b	-0.0012171877
32	0xbdcebd18	-0.100946605
33	0xbd18a526	-0.037266873
34	0xbddf0da4	-0.108912736
35	0x3dc1a660	0.09455562
36	0x3d3d9418	0.04628381
37	0xbde7d89a	-0.1132061
38	0x3de76a80	0.1129961
39	0xbd4c06e8	-0.049811274
40	0xbbf8b062	-0.007589386
41	0xbdf14ef8	-0.1178264
42	0x3da41eb4	0.08013669
43	0xbd8cb974	-0.0687131
44	0x3d33de6b	0.043913286
45	0xbc3fd9a0	-0.011709601
46	0x3d922ab2	0.0713705
47	0x3da96040	0.08270311
48	0xbd937648	-0.07200295
49	0xbda8bf43	-0.08239605
50	0x3d6e78a8	0.058220536
51	0x3d060938	0.032723635
52	0xbd0f8ff8	-0.03504941
53	0x3dd58fa4	0.10427788
54	0xbdbc09e4	-0.09181574
55	0x3d50207e	0.050812237
56	0x3dfb777c	0.12278649
57	0x3dbd8cb0	0.0925535
58	0x3d6e81b0	0.05822915
59	0x3dff474b	0.1246477
60	0x3cee9510	0.029123813
61	0xbdaa91b9	-0.08328576
62	0x3d3619e8	0.0444583
63	0xbd0f3d08	-0.034970313
64	0x3c953302	0.018212799
65	0xbdd19e63	-0.10235288
66	0xbc87a5c8	-0.016558543
67	0xbd697c48	-0.05700329
68	0x3dca22db	0.098699294
69	0xbdd5a18b	-0.104312025
70	0x3dc93104	0.09823802
71	0xbd826b93	-0.063681744
72	0xbc1fb577	-0.009747854
73	0x3d2974f8	0.041371316
74	0x3d395982	0.045251377
75	0x3daba104	0.08380321
76	0x3d47e670	0.048803747
77	0xbc382ba0	-0.01124087
78	0xbddf4b88	-0.10903078
79	0x3e019f2d	0.12658377
80	0x3d8c8321	0.06860948
81	0x3df023fb	0.11725613
82	0xbdf4ece9	-0.119592495
83	0x3cecb3d7	0.028894348
84	0x3d90c990	0.07069695
85	0xbc9c1ce0	-0.019056737
86	0x3cadf107	0.021233095
87	0x3dd94550	0.106089234
88	0xbdfc97c4	-0.123336345
89	0x3d11e5f2	0.035619684
90	0xbdd4ff6c	-0.1040028
91	0xbd6bd620	-0.057577252
92	0xbbc6d740	-0.0060681403
93	0xbdab36a0	-0.08360028
94	0xbd2c76e0	-0.042105556
95	0xbdca795e	-0.0988643
96	0xbdce3932	-0.10069503
97	0xbd1a3cd8	-0.03765568
98	0x3cb430a9	0.02199586
99	0x3d6886b0	0.056769073
100	0x3cf1dbf0	0.02952382
101	0xbc06c4b6	-0.0082256105
102	0xbdafdf8a	-0.085875586
103	0xbcd78fc0	-0.026313663
104	0x3b27dc00	0.0025613308
105	0xbb9b373d	-0.0047368095
106	0xbdeade9b	-0.1146824
107	0x3d28ea31	0.041238967
108	0xbe00bdeb	-0.12572448
109	0x3dbb3578	0.09141058
110	0xbd29e305	-0.04147627
111	0xbdd2869f	-0.10279583
112	0x3d9a7964	0.07542685
113	0xbd4a9910	-0.049462378
114	0xbb638080	-0.0034714043
115	0x3d26c480	0.04071474
116	0x3cef9c1a	0.02924924
117	0xbd4031e7	-0.04692259
118	0xbd92062d	-0.07130084
119	0x3d5ee297	0.05441531
120	0xbddecf8a	-0.10879429
121	0x3dacce20	0.08437753
122	0x3d8379a0	0.064196825
123	0x3c1663be	0.009179054
124	0xbb734680	-0.0037120879
125	0x3daf95f8	0.08573526
126	0x3aff6954	0.0019486346
127	0x3da658aa	0.0812238
128	0xbde81e27	-0.11333876
129	0xbda60904	-0.08107188
130	0x3d286f28	0.04112163
131	0x3d6141a8	0.054994255
132	0x3c099de9	0.008399465
133	0x3bc63000	0.0060482025
134	0xbd7ca940	-0.061684847
135	0xbde46080	-0.111512184
136	0x3d52aa08	0.051431686
137	0x3c581320	0.0131881535
138	0xbc682ce0	-0.014170855
139	0x3cc63600	0.024195671
140	0xbcc2cd0b	-0.023779413
141	0xbd277f48	-0.04089287
142	0x3d3f0cc8	0.04664305
143	0xbd9d01f4	-0.07666388
144	0xbd93a4cc	-0.07209167
145	0xbdcd1334	-0.10013428
146	0x3d831948	0.064013064
147	0xbd927504	-0.07151225
148	0xbad29251	-0.0016065334
149	0xbdc02510	-0.09382069
150	0xbd7a4f70	-0.061110914
151	0x3d6420d3	0.055695366
152	0xbda73344	-0.08164075
153	0x3cb6bbb2	0.022306297
154	0xbdde3cfc	-0.108514756
155	0xbcf76d7b	-0.030203572
156	0xbdc42dae	-0.09579025
157	0xbd059498	-0.032612413
158	0xbd75e0a2	-0.06002868
159	0x3c90b0a0	0.017662346
160	0xbc108b98	-0.008822344
161	0xbd636f30	-0.05552596
162	0x3c604a40	0.013689578
163	0x3d48b400	0.048999786
164	0x3c96b2ed	0.018395865
165	0xbcbf6c40	-0.023367047
166	0x3dd99829	0.10624725
167	0xbcaa3e60	-0.020781696
168	0xbdf15e28	-0.11785537
169	0x3cf087ce	0.029361632
170	0x3d9345e7	0.07191067
171	0xbd8d1974	-0.068896204
172	0x3b418b6f	0.0029532572
173	0x3cb99bd0	0.022657305
174	0x3ccd42ae	0.02505621
175	0x3df011a8	0.11722118
176	0xbd2af248	-0.041734964
177	0xbdd39974	-0.10332003
178	0x3dc2ea07	0.095172934
179	0x3d73c378	0.059512585
180	0x3d156888	0.036476642
181	0xbcef25d0	-0.029192835
182	0xbd2b9f40	-0.04189992
183	0xbd213f28	-0.03936687
184	0xbdf49ace	-0.11943589
185	0x3c989f50	0.018630654
186	0xbdcc30c8	-0.09970242
187	0xbd53fb80	-0.05175352
188	0xbda96560	-0.08271289
189	0x3d5b8f95	0.053603727
190	0x3d7150d0	0.05891496
191	0xbcd2d440	-0.025735974
192	0x3d62cfd5	0.055373985
193	0x3da91914	0.082567364
194	0x3d6d1234	0.057878688
195	0x3c213b6b	0.0098408265
196	0xbda4c485	-0.080452956
197	0x3d3ccdff	0.04609489
198	0xbdbd1d48	-0.092341006
199	0x3dd39843	0.10331776
200	0xbc43da20	-0.0119538605
201	0xbd1a90f5	-0.037735898
202	0xbdf37428	-0.118873894
203	0x3de7c478	0.1131677
204	0xbd33e0a0	-0.04391539
205	0xbd658ab0	-0.056040466
206	0x3db87dcd	0.090083696
207	0x3cd1776c	0.02556964
208	0x3c82f3c0	0.01598537
209	0xbe0771e0	-0.13227034
210	0xbd49071f	-0.049079057
211	0xbb164900	-0.0022931695
212	0xbdef0d30	-0.11672437
213	0xbd1896d8	-0.03725323
214	0x3dd07a21	0.10179544
215	0xbd98e6a2	-0.07465865
216	0xbbdcfe5b	-0.0067441887
217	0xbdc948c0	-0.09828329
218	0xbd85eaaa	-0.06538899
219	0x3de207d8	0.11036652
220	0x3d4b917e	0.0496993
221	0xbddf22fb	-0.10895344
222	0x3d91c3e0	0.07117438
223	0xbd920788	-0.07130343
224	0x3d92e780	0.07173061
225	0xbcd4b5b0	-0.025965542
226	0xbdf67148	-0.120333254
227	0xbd90c86c	-0.070694774
228	0x3d4b92c8	0.04970053
229	0xbd1a636e	-0.03769248
230	0xbde6ea98	-0.11275214
231	0xbbf93940	-0.0076057017
232	0x3d8420e0	0.06451583
233	0x3d2d3eb5	0.04229613
234	0xbc5cf4d5	-0.013486107
235	0x3d71c5e8	0.05902663
236	0x3d63bbb8	0.055598944
237	0xbdebe468	-0.115181744
238	0xbda5a488	-0.080880225
239	0x3da0c4a4	0.07850006
240	0xbc379f3a	-0.011207396
241	0x3cf1e1e0	0.02952665
242	0xbde7844f	-0.11304533
243	0xbd4247a0	-0.04743159
244	0x3d24a86a	0.040199675
245	0x3c93e730	0.018054575
246	0x3a7e8dd2	0.0009710464
247	0x3d9d7212	0.07687773
248	0x3d69a060	0.05703771
249	0x3d83f42c	0.064430565
250	0xbad63400	-0.0016342402
251	0x3d919452	0.07108368
252	0x3c3ec437	0.011643461
253	0x3d805d78	0.06267828
254	0x3d9b1528	0.075723946
255	0xbdc20465	-0.094734944

functional_1/conv1d_3_1/convolution/ExpandDims_1:0 f4 [256, 512, 1, 1]
0	0x3c912324	0.017716952
1	0x3d3f18c2	0.04665447
2	0xbdb3085d	-0.087418295
3	0x3d24532e	0.04011839
4	0xba0e0480	-0.00054175407
5	0x3d6528f6	0.055947267
6	0x3be10200	0.0068666935
7	0x3d308626	0.043096684
8	0xbd6df808	-0.05809787
9	0xbcba3578	-0.022730574
10	0x3d11b09c	0.03556882
11	0xbd49587b	-0.049156647
12	0x3ceace44	0.028662808
13	0x3c7c82e8	0.01541207
14	0x3db4b9d7	0.08824509
15	0x3d80c659	0.06287832
16	0x3c35f3e0	0.011105508
17	0x3d58d832	0.052940555
18	0x3d0043c8	0.03131464
19	0xbd93eaa6	-0.0722249
20	0x3d7f38a6	0.062309884
21	0x3db0d4f7	0.0863437
22	0x3d9064b7	0.0705046
23	0xbdad3376	-0.08457081
24	0xbd9438fc	-0.072374314
25	0x3d9be7c7	0.076125674
26	0x3d7444f2	0.059636064
27	0x3c8c7bfc	0.017148964
28	0xbd3223db	-0.043491226
29	0xbd2d8401	-0.042362217
30	0x3c89bed8	0.016814634
31	0x3da52439	0.080635495
32	0xbd68733c	-0.05675052
33	0xbd956770	-0.0729512
34	0x3d1be702	0.038062103
35	0x3bd8be20	0.0066144615
36	0xbd2a7ce2	-0.041623004
37	0x3b041860	0.002015613
38	0x3d4abef6	0.04949852
39	0x3da00e77	0.07815259
40	0xbd805ec7	-0.06268077
41	0x3ce904e4	0.028444715
42	0xbc9f4554	-0.019442238
43	0x3d800dc5	0.06252626
44	0x3be79a60	0.0070679635
45	0x3c606338	0.013695531
46	0xbd20802a	-0.039184727
47	0x3db2c9df	0.0872991
48	0x3d220c5e	0.039562576
49	0xbd5ae516	-0.05344113
50	0x3d56e632	0.052465625
51	0xbbe9dfa0	-0.007137254
52	0x3bdcbde0	0.006736502
53	0x3cf8b3ac	0.030359112
54	0xbda5bf25	-0.080930986
55	0x3daf529b	0.085606776
56	0x3d0970cc	0.033554837
57	0x3d9c6e93	0.07638278
58	0xbd494005	-0.04913332
59	0xbd9182c6	-0.07105021
60	0x3d5c55b6	0.053792678
61	0xbdb12141	-0.08648921
62	0x3da98dbf	0.08278989
63	0xbc8f9538	-0.017527208
64	0xbcb8aa34	-0.022542097
65	0x3d6ad71a	0.057334043
66	0x3d52cf0e	0.051466994
67	0xbc14aba8	-0.009074129
68	0x3d7eaf16	0.062178694
69	0xbdb01fa3	-0.08599784
70	0x3d4ec6d6	0.050482593
71	0xbd6fd69c	-0.058554277
72	0xbd24178e	-0.040061526
73	0x3c9eb118	0.019371554
74	0xbd1a856e	-0.037724905
75	0xbd4857d9	-0.048911903
76	0x3c899318	0.016793773
77	0x3d9707ef	0.0737456
78	0xbd104e60	-0.035230994
79	0x3db3e3e9	0.08783705
80	0xbd5cd607	-0.05391505
81	0x3c74ac20	0.014933616
82	0x3d11bb26	0.03557887
83	0xbdb3f440	-0.08786821
84	0xbd8939cb	-0.06700476
85	0x3d0469dc	0.032327518
86	0x3d17735a	0.036975242
87	0xbd6b05e2	-0.057378657
88	0xbcaee2b0	-0.021348327
89	0x3d1e3522	0.03862489
90	0xbd4f2e99	-0.05058155
91	0xbdafe8db	-0.085893355
92	0xbd9fe874	-0.07808009
93	0x3d06df7e	0.032927983
94	0x3d9f7df9	0.07787699
95	0x3d50cf6a	0.050979055
96	0x3d84bbf5	0.064811625
97	0xbb88eb50	-0.004178442
98	0xbc3c1f48	-0.011482067
99	0xba663980	-0.0008782372
100	0xbbb3f460	-0.0054917783
101	0x3c922ea8	0.017844513
102	0xbcff7bee	-0.031187024
103	0x3da7f7e7	0.082015805
104	0x3d5056fe	0.050864212
105	0x3cc89ab0	0.024487823
106	0xbd3717a2	-0.044700272
107	0x3d27940e	0.04091268
108	0xbc8f59d4	-0.017498888
109	0x3daa73ed	0.08322892
110	0x3d92e8d7	0.07173317
111	0xbd811fb2	-0.063048735
112	0xbb8ff530	-0.0043932423
113	0x3d0831f4	0.033250764
114	0x3d1a8ece	0.037733845
115	0x3bc7c910	0.0060969666
116	0xbd4b5a81	-0.049646858
117	0x3d38caca	0.04511527
118	0x3c184900	0.009294748
119	0x3dac5fcb	0.084167086
120	0xbd900015	-0.07031266
121	0xbda720c4	-0.081605464
122	0xbd87099c	-0.0659363
123	0xbd9cbceb	-0.07653221
124	0xbd287e93	-0.041136336
125	0xbd0f16a1	-0.03493369
126	0xbcd73eb6	-0.02627502
127	0x3d61c2a6	0.05511727
128	0xb9a5df00	-0.000316374
129	0x3ccc9880	0.024975061
130	0x3d7eedc2	0.062238462
131	0x3d929f6b	0.07159313
132	0x3d968807	0.07350164
133	0xbd9d942a	-0.07694276
134	0xbd8f18c8	-0.069871485
135	0x3caa1064	0.020759769
136	0xbda79b24	-0.081838876
137	0xbd22b1b2	-0.039720245
138	0x3d7e78ca	0.062126912
139	0xbcf70a9c	-0.030156426
140	0x3d92e4fd	0.07172582
141	0x3da085b9	0.078380056
142	0x3cdf27b0	0.027240604
143	0xbdae4dcc	-0.08510932
144	0xbcbf2234	-0.023331739
145	0xbcac9610	-0.02106765
146	0xbd080b98	-0.03321418
147	0xbd0efa09	-0.03490642
148	0xbd6c5fa8	-0.057708412
149	0x3d1108ce	0.035408787
150	0xbd9c2248	-0.07623726
151	0xbda3e87d	-0.08003328
152	0xbd9a9f51	-0.075499184
153	0xbd8885fa	-0.06666179
154	0x3d1be6fa	0.038062073
155	0xbd84b541	-0.06479884
156	0x3d677cb6	0.056515418
157	0x3d8de447	0.06928306
158	0xbc6e9378	-0.0145615265
159	0xbcd05d14	-0.025435008
160	0xbccaba10	-0.024746925
161	0xbd8e7db4	-0.0695757
162	0x39df3100	0.00042570382
163	0x3a6fae80	0.0009143129
164	0x3da84df1	0.08217991
165	0x3da1eea5	0.07906846
166	0x3c144e98	0.009051941
167	0xbd3ba886	-0.045815013
168	0xbd8ca1a2	-0.068667665
169	0xbbc2d2b0	-0.005945526
170	0x3d5d354e	0.054005913
171	0xbd1cb0f4	-0.038254693
172	0x3d9da60b	0.07697686
173	0xbd4e6299	-0.050387
174	0x3d28fcca	0.041256703
175	0x3ce8c6e4	0.028415151
176	0x3d3c2ae6	0.04593935
177	0xbda3fe28	-0.08007461
178	0x3d9b464f	0.0758177
179	0x3d13991c	0.03603469
180	0x3d95a63b	0.073070966
181	0x3d2c30a2	0.042038567
182	0xbd980235	-0.07422296
183	0xbd6a5b45	-0.057215948
184	0xbd8d4694	-0.06898227
185	0x3d8a10d5	0.06741492
186	0xbcba4b4c	-0.022740982
187	0x3c336d38	0.010951333
188	0x3d92632b	0.07147821
189	0x3da08c37	0.07839244
190	0x3b97b3e0	0.004629597
191	0xbda43651	-0.080181725
192	0xbd977074	-0.073944956
193	0x3c100dc0	0.008792341
194	0x3b365ae0	0.0027825162
195	0x3d3bd1de	0.04585444
196	0x3d0fe53c	0.035130724
197	0x3dab4a03	0.08363726
198	0x3c830a4c	0.01599612
199	0x3db0b17f	0.08627605
200	0xbd9632b8	-0.073338926
201	0xbd75aedf	-0.059981223
202	0xbbbed850	-0.0058241263
203	0xbd9d2545	-0.07673124
204	0xbdb3c7db	-0.08778354
205	0xbd096b1d	-0.033549417
206	0x3d8ef179	0.06979651
207	0xbd00c4e0	-0.031437755
208	0xbd6f8108	-0.058472663
209	0x3db1cf31	0.08682097
210	0xbdaa60c7	-0.0831924
211	0xbd7ae260	-0.061251044
212	0x3b878c30	0.0041365847
213	0xbd95fb80	-0.073233604
214	0xbc2fa7d8	-0.010721169
215	0xbd90eded	-0.07076631
216	0x3d46cf96	0.048537813
217	0x3d2e5626	0.042562626
218	0xbcf83e08	-0.030303016
219	0x3d021d76	0.031766377
220	0x3ca0052c	0.019533716
221	0xbdab4aa1	-0.08363844
222	0x3d983609	0.074321814
223	0xbb296580	-0.0025847852
224	0x3d19aa0e	0.037515692
225	0x3cfbdeb8	0.030745849
226	0xbd101c09	-0.035182986
227	0xbda1a654	-0.07893053
228	0xbbb75b50	-0.005595602
229	0x3d349ed2	0.044096775
230	0xbdb2d1c0	-0.08731413
231	0xbd8118c4	-0.06303552
232	0x3d1c593e	0.038171045
233	0xbd782d3c	-0.060590014
234	0xbd83f705	-0.064435996
235	0xbd88e450	-0.06684172
236	0xbd838b0b	-0.06423005
237	0x3db1bb65	0.08678321
238	0xbd98d2ea	-0.07462104
239	0xbd088df2	-0.033338495
240	0x3d860fed	0.06546006
241	0xbd12efbd	-0.035873163
242	0xbd7a3347	-0.061084058
243	0xbd9e5a66	-0.07732086
244	0xbd87e3e3	-0.06635263
245	0xbda27857	-0.07933109
246	0x3a1de680	0.0006023422
247	0x3c23c870	0.0099965185
248	0xbd789c0d	-0.060695697
249	0x3d02c4f4	0.03192611
250	0xbd08b936	-0.033379756
251	0xbd20016a	-0.03906385
252	0x3b399de0	0.002832286
253	0x3dae6543	0.08515408
254	0xbd87c07c	-0.0662851
255	0xbd92597a	-0.071459725

functional_1/conv1d_2_1/convolution/ExpandDims_1:0 f4 [256, 128, 1, 1]
0	0xbde54220	-0.11194253
1	0xbd84e634	-0.0648922
2	0xbcef0930	-0.029179186
3	0x3d1c1fd8	0.038116306
4	0xbdc3d9cc	-0.09563026
5	0x3b0f8a00	0.0021902323
6	0xbd8ee298	-0.06976813
7	0xbdf5bed4	-0.11999288
8	0x3c0e0100	0.008667231
9	0xbdf617a8	-0.12016231
10	0xbd4176c0	-0.04723239
11	0x3b9178c0	0.0044394433
12	0xbc49b0e0	-0.012310237
13	0xbc1b0b20	-0.009463102
14	0xbdaf13cc	-0.08548698
15	0xbd069b00	-0.032862663
16	0x3d04fdf0	0.032468736
17	0xbd446888	-0.04795125
18	0xbc7186c0	-0.0147416
19	0x3d6b0cc8	0.057385236
20	0x3cc98840	0.024601102
21	0x3d733068	0.059372336
22	0xbda73b54	-0.08165613
23	0x3d968764	0.073500425
24	0x3dbbfc40	0.09178972
25	0x3d86f194	0.06589046
26	0x3ddf4d28	0.10903388
27	0xbdf81104	-0.121126205
28	0x3d8f12b8	0.06985992
29	0xbc63c020	-0.013900787
30	0x3dc15f20	0.09441972
31	0xbd220058	-0.03955111
32	0x3d8d5e00	0.06902695
33	0x3d4422c8	0.047884732
34	0x3da192e4	0.07889345
35	0x3c040f40	0.0080602765
36	0x3dbfd1f8	0.0936622
37	0x3daee964	0.085406095
38	0xbb1b7d80	-0.0023725927
39	0xbcfb26a0	-0.030658066
40	0x3d5caf80	0.053878307
41	0xbda17408	-0.07883459
42	0xbd12bd50	-0.035825074
43	0xba589e00	-0.000826329
44	0xbd946118	-0.07245082
45	0xbc1dea80	-0.009638429
46	0xbd412f78	-0.04716441
47	0x3bed9640	0.007250577
48	0xbdcc41ac	-0.099734634
49	0x3d80765c	0.06272575
50	0x3d84a8cc	0.06477508
51	0x3d13f350	0.036120713
52	0x3d76b608	0.060232192
53	0xbd8320a4	-0.0640271
54	0x3c620820	0.013795882
55	0xbd0e7830	-0.03478259
56	0xbb8f0b80	-0.0043653846
57	0xbdd6914c	-0.10476932
58	0xbd884cac	-0.06655249
59	0xbde34b8c	-0.11098394
60	0xbd5b4658	-0.053533882
61	0x3db3a750	0.08772147
62	0x3dfc4de8	0.12319547
63	0xbd1f36e0	-0.038870692
64	0xbdf4fe00	-0.11962509
65	0x3d7908a0	0.06079924
66	0xbdb360ac	-0.08758673
67	0x3d98d50c	0.074625105
68	0x3df6d604	0.12052539
69	0xbde3cff4	-0.11123648
70	0x3de03aac	0.10948691
71	0xbdd21180	-0.10257244
72	0xbd8c3d80	-0.06847668
73	0x3df94190	0.12170708
74	0xbdf08904	-0.11744884
75	0x3ca2d6a0	0.019877732
76	0x3c9e7a00	0.019345284
77	0xbd598b40	-0.053111315
78	0xbd81e418	-0.063423336
79	0x3dd95210	0.10611355
80	0xbd99c278	-0.07507795
81	0x3c61fc60	0.013793081
82	0x3cec6cc0	0.02886045
83	0x3c32c560	0.010911316
84	0xbd83ea58	-0.06441182
85	0xbd32b518	-0.043629736
86	0x3dc27408	0.094947875
87	0x3c6d21c0	0.014473379
88	0xbd3f1cb0	-0.046658218
89	0xbdac67ec	-0.08418259
90	0x3d139858	0.03603396
91	0x3da5acbc	0.08089587
92	0xbddfaef4	-0.109220415
93	0x3dedf8d0	0.11619723
94	0xba02f400	-0.0004995465
95	0x3da4d4f8	0.08048433
96	0xbda0b5b4	-0.07847157
97	0x3dba3920	0.09092927
98	0xbdb98bf0	-0.09059894
99	0x3dced4a4	0.10099152
100	0x3d49e918	0.04929456
101	0xbd1c8ae8	-0.03821841
102	0xbd855450	-0.06510222
103	0xbd0684b8	-0.032841414
104	0x3cdd4850	0.02701202
105	0x3d68c848	0.056831628
106	0xbb101980	-0.0021987855
107	0x3ce67480	0.028131723
108	0xbd9c4548	-0.07630402
109	0x3de5e658	0.11225575
110	0xbb828740	-0.003983408
111	0x3cc2c680	0.023776293
112	0x3d8dbfc0	0.06921339
113	0xbdc9f724	-0.098615915
114	0x3d90b2a8	0.07065326
115	0xbdc387d4	-0.095473915
116	0x3dc3b0d0	0.09555209
117	0xbdd71950	-0.10502875
118	0xbd210750	-0.039313614
119	0xbd9347dc	-0.071914405
120	0x3d0ae838	0.033912867
121	0x3d6aebb8	0.057353705
122	0x3cc60e40	0.024176717
123	0x3d1d8f40	0.038466692
124	0xbc9276a0	-0.01787883
125	0xbc029b20	-0.007971555
126	0x3d9747e0	0.07386756
127	0xbd367268	-0.0445427
128	0xbd810b73	-0.06301012
129	0x3daa5bd2	0.083182946
130	0x3dad13ca	0.0845104
131	0x3de43ab8	0.11144012
132	0xbdedaba2	-0.11605002
133	0xbdabda4c	-0.08391246
134	0xbdc7c9ed	-0.09755311
135	0xbc232220	-0.0099568665
136	0xbd534e4d	-0.051588345
137	0x3dccd2b5	0.10001127
138	0x3c783b36	0.015150836
139	0x3df99be8	0.1218794
140	0x3deb8e18	0.115017116
141	0xbcb50bba	-0.022100318
142	0xbdc01cdb	-0.09380504
143	0xbdb2a2d4	-0.08722463
144	0xbe08e894	-0.13369972
145	0x3dc383c9	0.095466204
146	0xbdba9402	-0.091102615
147	0x3c0e5867	0.008688069
148	0xbdec4ea1	-0.11538435
149	0xbcbe2374	-0.023210265
150	0xbd2c7f70	-0.04211372
151	0xbdde9002	-0.10867311
152	0xbd668258	-0.05627665
153	0x3dd305db	0.10303851
154	0x3c123870	0.008924589
155	0xbd5b5980	-0.05355215
156	0xbd0697f8	-0.032859772
157	0x3d8065bb	0.062694035
158	0x3d769f02	0.060210235
159	0xbdf7ded0	-0.12103045
160	0xbd8eb128	-0.069673836
161	0x3d747670	0.059683263
162	0xbdcc910a	-0.099886015
163	0xbc1728a0	-0.009225994
164	0xbc803b0b	-0.015653154
165	0xbca855df	-0.020548759
166	0xbced7049	-0.028984206
167	0x3d814e1e	0.06313728
168	0x3d63a310	0.05557543
169	0x3d16c750	0.036811173
170	0xbd856d9c	-0.06515047
171	0x3ddf271f	0.10896134
172	0x3d199000	0.037490845
173	0x3db53600	0.0884819
174	0xbde6c94c	-0.11268863
175	0x3d56865e	0.052374236
176	0x3db521bf	0.08844327
177	0xbd89a20c	-0.06720361
178	0xbdd40ec0	-0.10354376
179	0xbc68604d	-0.014183116
180	0xbbbbc15a	-0.0057298364
181	0x3d80c378	0.06287283
182	0x3d836d94	0.06417385
183	0x3d0d31d9	0.034471367
184	0x3b451cd0	0.0030076988
185	0xbd28eb28	-0.041239887
186	0xbd681098	-0.05665645
187	0x3dc60d64	0.09670523
188	0x3ced6fb0	0.02898392
189	0x3dcf085c	0.10109016
190	0xbd50f628	-0.051016003
191	0xbc01bb3c	-0.007918175
192	0x3c8ed31d	0.017434651
193	0x3cb0d4d0	0.021585852
194	0xbac476a6	-0.0014988973
195	0xbda5d860	-0.08097911
196	0x3d2a0078	0.041504353
197	0x3d22072f	0.039557632
198	0xbcfd1c50	-0.03089729
199	0x3deafe1f	0.11474251
200	0xbdca0fcd	-0.09866295
201	0x3d322768	0.043494612
202	0xbc455520	-0.012044221
203	0x3d1ae920	0.03781998
204	0x3de28860	0.11061168
205	0xbdea2841	-0.11433459
206	0xbd475243	-0.048662435
207	0xbd32f288	-0.043688327
208	0xbc476ea6	-0.012172377
209	0xbdb71474	-0.08939448
210	0x3ce1a370	0.027543753
211	0x3b01b6d2	0.0019792807
212	0xbd469b48	-0.04848793
213	0x3dd5a45d	0.104317404
214	0x3ca4840c	0.020082496
215	0x3d92a45d	0.07160256
216	0xbdb20370	-0.08692062
217	0xbd606690	-0.05478531
218	0xbddd1f12	-0.10796942
219	0x3d9613d0	0.07327998
220	0xbbdafe1d	-0.0066831247
221	0x3cccaea2	0.024985615
222	0x3da00947	0.078142695
223	0x3d04bf86	0.032409213
224	0x3d76a45f	0.06021535
225	0xbcd0c301	-0.02548361
226	0xbd041664	-0.032247916
227	0x3d1a3d70	0.037656248
228	0x3d6eb398	0.058276743
229	0xbe01e9ed	-0.12686892
230	0x3c940670	0.018069476
231	0xbdac223c	-0.08404967
232	0xbd50b7b8	-0.050956458
233	0xbd584080	-0.052795887
234	0x3dc9a1bc	0.098453015
235	0xbdeaedb8	-0.114711225
236	0x3d07c873	0.033150148
237	0x3c4e1a20	0.012579471
238	0xbd4ab538	-0.04948923
239	0xbd3e6a22	-0.046487935
240	0x3d28b116	0.041184507
241	0xbdce91a4	-0.100863725
242	0x3d2e4a7e	0.04255151
243	0x3d4dbd28	0.05022922
244	0xbd9e0614	-0.07716003
245	0xbdd4c155	-0.10388438
246	0xbc924408	-0.017854705
247	0xbd4bd5e0	-0.049764514
248	0x3de3abbd	0.11116741
249	0x3ce76a9f	0.028249083
250	0xbd724710	-0.0591498
251	0x3c26ed28	0.010188378
252	0x3d71799e	0.058953874
253	0x3dd93700	0.106061935
254	0x3dc46b39	0.095907636
255	0xbdfe5808	-0.124191344

functional_1/conv1d_1_2/convolution/ExpandDims_1:0 f4 [128, 64, 1, 1]
0	0xbd6bc29e	-0.05755865
1	0xbe17599e	-0.1478028
2	0x3e1ab312	0.15107372
3	0x3e0e2e63	0.13884883
4	0xbe10c0fc	-0.14136118
5	0x3e28644d	0.16444512
6	0x3de9ba81	0.11412526
7	0xbd1d1679	-0.03835151
8	0xbd57f908	-0.05272773
9	0xbd3d68ef	-0.04624265
10	0xbe2fec5d	-0.17180009
11	0x3dad3a13	0.084583424
12	0xbe3215d6	-0.17391142
13	0xbcc17cf0	-0.023619145
14	0xbe215d48	-0.1575824
15	0x3d4c1a3c	0.049829707
16	0xbd92ebe9	-0.071739025
17	0xbdbbc4f7	-0.091684274
18	0x3d4d82a9	0.050173435
19	0x3e12b7d4	0.14327937
20	0x3b2d5ac0	0.0026451796
21	0x3e20770b	0.15670411
22	0x3dee63c2	0.11640121
23	0x3d55d944	0.052209154
24	0x3d6c5b7e	0.05770444
25	0x3df2bdfa	0.118526414
26	0xbe2a6962	-0.16641763
27	0xbd004eb7	-0.03132507
28	0x3e24ef86	0.16106996
29	0x3ad3a49e	0.0016147082
30	0x3d52e2b2	0.051485725
31	0xbc3bc329	-0.011460104
32	0x3d7d541a	0.061847784
33	0xbccbce10	-0.024878532
34	0x3e295bbc	0.165389
35	0xbe0a2a8e	-0.13492796
36	0x3de1c4a0	0.11023831
37	0x3c34e07e	0.011039851
38	0xbd4d71eb	-0.05015747
39	0xbc824db0	-0.015906185
40	0xbd790e3e	-0.060804598
41	0x3db4a9d9	0.08821458
42	0xbc90bb91	-0.017667564
43	0x3d7c3f48	0.061583787
44	0xbc27af90	-0.010234728
45	0x3c2e97aa	0.010656277
46	0x3e21e2c7	0.15809165
47	0x3e0d14b1	0.13777424
48	0xbd998a0c	-0.074970335
49	0xbd25440f	-0.04034811
50	0x3d67db60	0.056605697
51	0x3dff8620	0.12476754
52	0x3e32e853	0.17471437
53	0x3d8a8174	0.067629725
54	0xbe12fc7b	-0.14354126
55	0x3d9af506	0.07566266
56	0xbce4e2a8	-0.02794011
57	0xbdfa15b6	-0.12211172
58	0x3e2841ce	0.16431352
59	0x3e065b36	0.13120732
60	0xbe3ae8b5	-0.18252833
61	0x3e320877	0.17386042
62	0x3d8b3ba8	0.06798488
63	0x3e16cecd	0.14727326
64	0xbdf6f427	-0.12058287
65	0x3d6d95e0	0.05800426
66	0x3e326015	0.17419465
67	0x3dc05518	0.0939123
68	0xbab357b3	-0.0013682753
69	0xbd7551f4	-0.05989261
70	0x3dd55ce2	0.104181066
71	0xbc4b2310	-0.012398496
72	0x3e20b159	0.15692653
73	0xbdd82e7d	-0.10555742
74	0xbd51cb31	-0.05121917
75	0x3d8bc981	0.06825543
76	0x3dc99c25	0.09844235
77	0xbd918148	-0.071047366
78	0xbd70f361	-0.058825854
79	0xbd4ddd04	-0.050259605
80	0x3e284e9c	0.16436237
81	0xba1a8f00	-0.00058959424
82	0x3d92e136	0.07171862
83	0xbd7d1f4d	-0.06179743
84	0xbe00393e	-0.12521836
85	0x3db58926	0.088640496
86	0xbd312a24	-0.04325308
87	0xbd7ecb8e	-0.062205844
88	0xbdc69a22	-0.09697367
89	0x3d90f2de	0.07077573
90	0xbd98db74	-0.07463732
91	0x3d28b285	0.041185874
92	0x3df628cf	0.12019502
93	0x3cb1ec92	0.02171925
94	0xbe126b3b	-0.14298718
95	0xbc7ff6b3	-0.0156227825
96	0xbddbae15	-0.10726563
97	0x3e2dd3ff	0.16975401
98	0x3e097583	0.13423733
99	0x3cd7c6c0	0.026339889
100	0xbcc40fbf	-0.02393329
101	0x3def2ed8	0.116788566
102	0x3dd2af42	0.10287334
103	0x3de0f9b6	0.109851286
104	0x3d841962	0.06450154
105	0xbe347ce0	-0.17625761
106	0x3e1af90b	0.15134065
107	0xbe0dcf58	-0.13848627
108	0x3e0ebaa7	0.1393839
109	0x3e1fcd41	0.15605642
110	0xbe2bb556	-0.16768393
111	0x3e054641	0.13015081
112	0x3cea26bf	0.028582929
113	0xbe0aca61	-0.13553764
114	0x3cc9c940	0.024632096
115	0x3cec842c	0.028871618
116	0x3ca62ec9	0.02028598
117	0x3dab0506	0.083505675
118	0xbc83dd3b	-0.016096702
119	0x3bbbd8a0	0.005732611
120	0x3cca5818	0.02470021
121	0xbda586be	-0.08082341
122	0x3dfc5d87	0.123225264
123	0x3db89ed2	0.090146676
124	0xbe1871a7	-0.14887105
125	0x3e21e8b0	0.1581142
126	0x3c8af70e	0.016963508
127	0x3dcd59c8	0.1002689
128	0x3c8e8f59	0.017402338
129	0xbdc632bc	-0.096776456
130	0xbd5dbd86	-0.05413582
131	0xbdbb5e50	-0.09148848
132	0x3da883b3	0.08228245
133	0x3dfba8de	0.12288068
134	0x3d57852d	0.05261724
135	0xbe1f251d	-0.15541501
136	0x3ceca028	0.028884962
137	0xbe29c4f8	-0.16579044
138	0x3d17535c	0.036944732
139	0x3cdd3b7f	0.027005909
140	0xbda6728d	-0.081273176
141	0x3e2090eb	0.15680282
142	0x3e120177	0.14258371
143	0x3dd25486	0.10270028
144	0xbe072ba2	-0.13200238
145	0xbe18ab0a	-0.14908996
146	0xbd9bf0d2	-0.07614292
147	0xbd9c519f	-0.076327555
148	0xbdb43997	-0.08800047
149	0x3d0b7775	0.03404947
150	0xbd05594c	-0.032555863
151	0xbe246ecd	-0.16057892
152	0xbd1ec95c	-0.03876625
153	0xbe014408	-0.12623608
154	0x3e17a3d6	0.14808592
155	0xbdc706b4	-0.097180754
156	0xbda45514	-0.0802404
157	0xbd7faa64	-0.062418357
158	0x3e1124ae	0.14174148
159	0xbe2e2240	-0.17005253
160	0xbb8f6214	-0.0043757055
161	0xbd957636	-0.072979376
162	0xbd0c0e64	-0.03419341
163	0x3d4f8424	0.05066313
164	0x3e198ab0	0.14994311
165	0x3e25637c	0.16151232
166	0xbde94457	-0.11389988
167	0xbda34a62	-0.07973172
168	0x3c42485e	0.011858074
169	0xbde2c76b	-0.11073192
170	0x3e1337c1	0.14376737
171	0x3e1e11f3	0.15436535
172	0xbd7924a2	-0.06082595
173	0x3e137092	0.14398411
174	0xbe0e4d06	-0.1389657
175	0x3dd9f62a	0.10642655
176	0x3d9c3f7d	0.07629297
177	0xbcbc68a7	-0.02299912
178	0x3e192d1b	0.14958613
179	0xbd4a7335	-0.049426276
180	0xbe3656a7	-0.17806493
181	0x3de01e29	0.109432526
182	0x3db0b537	0.08628314
183	0x3c0335e0	0.00800845
184	0xbe1e3a3c	-0.15451902
185	0xbe00e5b9	-0.12587632
186	0x3daa3d2c	0.08312449
187	0xbdabb810	-0.083847165
188	0xbdf28849	-0.118424006
189	0x3e011d6b	0.12608878
190	0xbbeb6d71	-0.0071846773
191	0xbd72b55b	-0.059254985
192	0xbdc0f85b	-0.0942237
193	0xbda992e0	-0.08279967
194	0xbe2463f8	-0.1605376
195	0x3cedfeb8	0.029052123
196	0x3da32876	0.07966702
197	0xbd7f2708	-0.062293082
198	0x3abf4300	0.0014592111
199	0x3dc60716	0.0966932
200	0x3d6a82e8	0.05725375
201	0x3da1468e	0.07874785
202	0xbda245d1	-0.07923473
203	0xbe29e680	-0.16591835
204	0xbd8294b2	-0.06376018
205	0xbddb20bf	-0.10699605
206	0xbd192850	-0.03739196
207	0x3cd58028	0.026062086
208	0x3e309991	0.17246081
209	0xbd4ab010	-0.049484313
210	0x3d1572e4	0.03648652
211	0x3d36d84c	0.04463987
212	0x3c2b42f0	0.010452971
213	0xbdd83db0	-0.10558641
214	0x3d123b28	0.035700947
215	0xbd4ed850	-0.05049926
216	0x3d66a588	0.056310207
217	0xbe2e421b	-0.17017405
218	0x3e19a591	0.15004565
219	0x3ddc889a	0.10768242
220	0x3e18a617	0.14907108
221	0xbdae1535	-0.08500139
222	0x3db8474a	0.08997972
223	0xbd88a6f5	-0.066724695
224	0xbd4007b4	-0.046882346
225	0x3c652bc0	0.013987482
226	0xbdf60726	-0.12013082
227	0x3e3241d5	0.17407925
228	0xbd4b72a8	-0.04966989
229	0xbdcdef51	-0.100554116
230	0xbce6c570	-0.028170317
231	0xbdfa4b8a	-0.12221439
232	0xbdda49c4	-0.10658601
233	0xbb82fd20	-0.00399746
234	0xbd6d5e98	-0.05795154
235	0xbdb3a102	-0.08770944
236	0x3c8fafb0	0.017539829
237	0x3df9de72	0.12200631
238	0x3df11d7a	0.117732
239	0xbdc95dc9	-0.09832341
240	0x3e14986b	0.14511268
241	0x3e2ca797	0.16860805
242	0xbdb2cd68	-0.087305844
243	0xbdc7aa68	-0.09749299
244	0xbe330d5e	-0.17485568
245	0xbe1e9fed	-0.15490694
246	0xbbf18e40	-0.007371694
247	0x3dff9de6	0.124812886
248	0xbe11f512	-0.14253643
249	0x3e18c0c3	0.14917283
250	0xbd7c32ea	-0.061571993
251	0xbd5bdbe4	-0.0536765
252	0x3ca81d18	0.020521685
253	0xbe15fe65	-0.14647825
254	0x3d482184	0.048860088
255	0x3c2e4af0	0.010637984

functional_1/conv1d_1/convolution/ExpandDims_1:0 f4 [64, 27, 1, 1]
0	0x3d28cba9	0.04120985
1	0x3de7e0de	0.11322187
2	0xbd8fe018	-0.07025164
3	0x3ac39825	0.0014922662
4	0xbe5945ed	-0.21218081
5	0xbe0dfa1f	-0.13864945
6	0xbe7d98ad	-0.24765272
7	0xbe554212	-0.20825985
8	0xbe211999	-0.15732421
9	0xbe2f54cb	-0.1712219
10	0x3c296c17	0.010340712
11	0x3e3eb754	0.18624622
12	0x3b467713	0.0030283376
13	0x3e1e58ee	0.15463611
14	0x3e33ee1d	0.17571302
15	0x3db9fe23	0.09081676
16	0xbe007a2c	-0.12546605
17	0xbe371fef	-0.17883275
18	0x3da0ade7	0.07845669
19	0x3cdb42e4	0.026765294
20	0xbcd16ed8	-0.02556555
21	0x3e602c08	0.21891797
22	0x3b566eeb	0.003271992
23	0x3daa8557	0.08326214
24	0xbe180ffd	-0.14849849
25	0x3e6b0776	0.22952065
26	0x3e56c75d	0.20974489
27	0x3e031304	0.12800223
28	0xbc109f10	-0.008826986
29	0x3e33d148	0.17560303
30	0x3da9d988	0.08293444
31	0xbdaf088e	-0.085465536
32	0xbe1648a2	-0.14676145
33	0xbdb546d4	-0.088514
34	0xbe6f791e	-0.23386046
35	0x3e0a7ed2	0.1352494
36	0x3d367a58	0.04455027
37	0x3db00704	0.08595088
38	0xbda817a2	-0.082076326
39	0x3d8471e8	0.064670384
40	0x3e04425c	0.12915939
41	0xbe75625d	-0.23963304
42	0xbe607716	-0.21920428
43	0xbe6eda7e	-0.23325536
44	0xbe0d1199	-0.13776244
45	0x3e373e5a	0.17894879
46	0x3e1fda4c	0.15610617
47	0x3e5232a6	0.20527133
48	0xbdade624	-0.084911615
49	0xbe059a9b	-0.13047259
50	0x3e6805a4	0.22658402
51	0x3e634b98	0.22196805
52	0x3e11c0a2	0.1423364
53	0xbe0cf72e	-0.13766167
54	0xbe11fd21	-0.14256717
55	0xbd9a5fd1	-0.07537807
56	0x3e0e08e4	0.13870579
57	0xbe540b73	-0.20707493
58	0xbe647760	-0.22311163
59	0x3e6d40d0	0.23169255
60	0x3daaf06e	0.083466396
61	0x3e199749	0.14999117
62	0x3e3b1263	0.18268733
63	0xbdbed929	-0.09318764
64	0x3e1ab779	0.15109052
65	0x3d76942e	0.06019991
66	0xbdc15c14	-0.09441391
67	0x3df75c6f	0.12078177
68	0xbe001e3b	-0.12511532
69	0x3e684dad	0.22685881
70	0x3c1e91aa	0.009678284
71	0xbb921187	-0.004457656
72	0xbe80e8be	-0.25177568
73	0xbd8591ce	-0.06521951
74	0x3db313ef	0.087440364
75	0x3e8048ec	0.25055635
76	0x3e20aed0	0.15691686
77	0xbd9cd1d2	-0.076572075
78	0xbe7e702e	-0.2484748
79	0xbddb6955	-0.1071345
80	0xbd67eb4a	-0.056620874
81	0x3bba2c0f	0.0056815217
82	0xbe83ee13	-0.25767574
83	0xbe330b49	-0.17484774
84	0x3e3cc613	0.18434934
85	0x3e6c8aa5	0.23099764
86	0x3bcbbdb0	0.006217681
87	0xbd361d19	-0.044461343
88	0xbdbfaca4	-0.093591005
89	0xbe53429c	-0.20630878
90	0xbe7c79c4	-0.24655825
91	0x3cd0001b	0.025390675
92	0x3e168053	0.1469739
93	0x3e633e5b	0.22191755
94	0x3d0ecea4	0.034865037
95	0x3e45d307	0.19318782
96	0xbd77a9c0	-0.06046462
97	0xbe7a753c	-0.24458784
98	0xbe835525	-0.25650898
99	0xbdb130da	-0.08651896
100	0xbe85d9bf	-0.2614269
101	0x3e061962	0.1309562
102	0xbc00d4b3	-0.007863211
103	0xbca02aba	-0.019551624
104	0x3e3b109b	0.18268053
105	0xbdc88404	-0.09790805
106	0x3d9e6589	0.0773421
107	0xbe847070	-0.25867033
108	0xbddcca9d	-0.10780833
109	0x3e15e716	0.14638934
110	0xbdf312d8	-0.118688285
111	0x3d973b31	0.07384337
112	0xbdd1a9d3	-0.102374695
113	0x3e1d1501	0.15340044
114	0x3e4b1123	0.19830756
115	0x3db73c81	0.08947087
116	0xbe51d67c	-0.20491976
117	0x3e830bb5	0.2559487
118	0x3dcb7150	0.09933722
119	0x3e592f32	0.2120941
120	0xbd7d619c	-0.061860666
121	0x3e3e6b8e	0.18595716
122	0xbe110409	-0.14161696
123	0xbd84e25f	-0.06488489
124	0x3d6ffb05	0.058589
125	0x3e317290	0.17328858
126	0xbe25b421	-0.16181995
127	0x3d116689	0.035498176
128	0xbd8f4201	-0.06995011
129	0xbd28930f	-0.04115587
130	0x3e0fdfbc	0.14050192
131	0x3e5f0740	0.2178011
132	0x3e25158e	0.16121504
133	0x3dc5ffb3	0.096679114
134	0x3ceabd96	0.028654855
135	0xbe0fd204	-0.14044958
136	0xbdc5ceba	-0.096585706
137	0x3e7cee56	0.24700293
138	0xbdb2f84e	-0.087387666
139	0x3cc36df0	0.023856133
140	0xbe384e6c	-0.17998666
141	0xbe68a1e3	-0.22718005
142	0xbe01d99e	-0.1268067
143	0x3e12b822	0.14328054
144	0x3d234828	0.039863735
145	0x3e70bddc	0.23509926
146	0xbdd96be4	-0.10616282
147	0x3dbda368	0.09259683
148	0x3e24870c	0.16067141
149	0xbd00c050	-0.031433403
150	0x3e2d9484	0.16951185
151	0x3e5602a4	0.20899445
152	0x3e6dfc5e	0.23240802
153	0xbe0186be	-0.12649056
154	0x3e258044	0.1616221
155	0xbe63c568	-0.22243273
156	0xbe21064e	-0.15725061
157	0x3d34da60	0.04415357
158	0xbe674d67	-0.2258812
159	0x3de8c828	0.11366302
160	0xbe3b7564	-0.183065
161	0xbe4e4486	-0.20143327
162	0x3e0d6fe6	0.13812217
163	0xbca3777c	-0.019954436
164	0xbe54bb11	-0.20774485
165	0xbe2715a5	-0.1631685
166	0x3d37a1de	0.044832103
167	0x3e560c85	0.20903213
168	0x3e509467	0.20369111
169	0x3e0526fe	0.13003156
170	0x3e71c223	0.23609214
171	0x3de08833	0.10963478
172	0xbcde84e5	-0.027162978
173	0x3d1bc7a0	0.038032174
174	0xbd3d8ac0	-0.0462749
175	0x3e40525c	0.18781418
176	0xbe1e9110	-0.15485024
177	0x3e1c8939	0.15286721
178	0xbe37d89d	-0.17953725
179	0x3e474a54	0.19461948
180	0x3e4b502f	0.19854806
181	0xbe5cf03d	-0.21576019
182	0x3e62e088	0.22155964
183	0x3e6be191	0.23035266
184	0xbe1971cc	-0.14984816
185	0xbd65d1b8	-0.056108207
186	0x3e6b95cb	0.2300636
187	0x3e1a3ecf	0.15063022
188	0xbd073803	-0.0330124
189	0xbe408733	-0.18801574
190	0xbe4e0b8e	-0.20121595
191	0xbe416b74	-0.18888646
192	0xbc9f614b	-0.019455573
193	0xbe294e30	-0.16533732
194	0xbe118c66	-0.14213714
195	0xbe6737d1	-0.22579886
196	0xbe0d2f35	-0.1378754
197	0x3ddad438	0.10685009
198	0x3da7f311	0.08200658
199	0xbe664237	-0.22486196
200	0x3b2e9241	0.0026637467
201	0x3e78f47b	0.24312012
202	0x3e3ba92d	0.18326254
203	0x3d296aa0	0.04136145
204	0x3dfd79b3	0.12376728
205	0xbc21f900	-0.009886026
206	0x3ae545c7	0.0017492109
207	0x3e6b176b	0.22958152
208	0xbe749c4f	-0.23887752
209	0x3d8c8d98	0.06862944
210	0xbe50b435	-0.20381244
211	0xbda20d74	-0.07912722
212	0x3cd79142	0.026314382
213	0x3e162665	0.14663084
214	0x3e470dbf	0.19438837
215	0x3e5ee14a	0.21765628
216	0xbe576439	-0.21034326
217	0x3decbcc4	0.11559442
218	0xbde2e1a4	-0.11078194
219	0xbda9742c	-0.08274111
220	0xbd967f84	-0.073485404
221	0xbe51b4b4	-0.20479089
222	0xbd914346	-0.070929095
223	0xbe7f6c85	-0.2494374
224	0x3e3009b8	0.17191207
225	0xbe7a2151	-0.24426772
226	0xbe28bcb1	-0.1647823
227	0x3cc8be10	0.024504691
228	0x3e42dd16	0.1902965
229	0xbdd38acc	-0.10329208
230	0xbdcc6eac	-0.099820465
231	0xbcfdbc70	-0.030973643
232	0x3e445a2e	0.19175026
233	0x3d0ae350	0.03390819
234	0xbe17e27f	-0.14832495
235	0xbe574120	-0.21020937
236	0xbe179230	-0.1480186
237	0x3e0a12b8	0.13483703
238	0xbe6cd622	-0.2312856
239	0xbdba2af0	-0.09090221
240	0xbe0074c8	-0.12544549
241	0xbe1c7c44	-0.15281779
242	0x3e5f268c	0.21792048
243	0xbe4b384b	-0.19845693
244	0x3da50591	0.08057702
245	0xbe7ad806	-0.24496469
246	0x3da09ea6	0.0784276
247	0xbdfc80f6	-0.12329285
248	0xbe397e18	-0.18114507
249	0x3cbf616b	0.023361882
250	0xbc9519d7	-0.018200798
251	0xbd98c9d9	-0.074603744
252	0x3e4fd119	0.20294608
253	0x3e34bedf	0.17650937
254	0x3d1e2d9d	0.03861772
255	0x3e5efd68	0.21776354

const_fold_opt__177 f4 [1, 128, 1]
0	0xbbcb009e	-0.006195142
1	0xbba16091	-0.0049248417
2	0xbc30148f	-0.010747089
3	0x3ba76b92	0.005109259
4	0x00000000	0.0
5	0x391be65c	0.00014867767
6	0x3c5d99f1	0.013525472
7	0x3bdb59a6	0.0066940365
8	0x3c177d2c	0.009246152
9	0x3c16c1fc	0.009201523
10	0x00000000	0.0
11	0x3c177f1c	0.009246614
12	0xbbe1e764	-0.006894039
13	0xbc2dd267	-0.010609246
14	0x3c1735c8	0.009229131
15	0xbbc37290	-0.0059645846
16	0xbb9536dc	-0.004553659
17	0x00000000	0.0
18	0x00000000	0.0
19	0xbbc37196	-0.0059644682
20	0x3c17bdbe	0.009261547
21	0x3c16461a	0.009171987
22	0xbb1d13c1	-0.0023968073
23	0x3c17c02f	0.009262129
24	0xbc04ff51	-0.008117513
25	0xbc231eb7	-0.009956053
26	0x00000000	0.0
27	0xbbc36e20	-0.0059640557
28	0xbbc3a562	-0.005970643
29	0x3bc8ff15	0.006133924
30	0x00000000	0.0
31	0xbbc371f3	-0.0059645115
32	0x3c16bac4	0.009199802
33	0xbbc372fc	-0.005964635
34	0x3c1740ae	0.009231729
35	0x3c15387c	0.009107705
36	0x3c14dfe4	0.009086583
37	0x00000000	0.0
38	0x3b5d9589	0.0033811054
39	0xbc075318	-0.008259557
40	0xbbc20fca	-0.0059222924
41	0xbbd37178	-0.0064527355
42	0xbba18b3a	-0.004929927
43	0x00000000	0.0
44	0xbb9cefaf	-0.0047893147
45	0x00000000	0.0
46	0xbbef3cc2	-0.007300944
47	0xbae7842c	-0.0017663292
48	0xbbec3500	-0.0072084665
49	0xbc0f88a6	-0.008760607
50	0x3c17cc09	0.009264954
51	0xbbc37059	-0.0059643206
52	0x00000000	0.0
53	0xbc2bdb03	-0.010489228
54	0x3a681eb2	0.00088546716
55	0x00000000	0.0
56	0xbc2003c7	-0.009766526
57	0x3c172541	0.009225191
58	0xbbc3728b	-0.0059645823
59	0x00000000	0.0
60	0x00000000	0.0
61	0xbc38e079	-0.011283987
62	0xbc1eff71	-0.009704457
63	0xbc1d1010	-0.009586349
64	0x3c1521fb	0.00910234
65	0xbc2ea6e8	-0.010659911
66	0xbbd13864	-0.006384896
67	0x00000000	0.0
68	0x3c17aff3	0.009258258
69	0xbc074f3e	-0.008258639
70	0x00000000	0.0
71	0xbc339155	-0.010959943
72	0x00000000	0.0
73	0x3c0ee1e2	0.008720847
74	0xbc21a596	-0.009866139
75	0xbb8aa567	-0.0042311433
76	0xbc2352c1	-0.009968461
77	0xbc1a0c8c	-0.0094024055
78	0xbc3b76d1	-0.011441902
79	0x3c176a4f	0.009241655
80	0xbc00e14d	-0.007866216
81	0x3c020e47	0.007937974
82	0x00000000	0.0
83	0x3c1746b2	0.009233164
84	0x00000000	0.0
85	0xbc20972a	-0.009801665
86	0x00000000	0.0
87	0x3bdd2b9b	0.006749583
88	0x3c173d2b	0.009230892
89	0xbc0e195e	-0.00867304
90	0xbbf90e24	-0.0076005626
91	0xbb824b70	-0.003976278
92	0xbb4309d2	-0.0029760492
93	0x00000000	0.0
94	0xbbe0c9ab	-0.006859978
95	0x00000000	0.0
96	0xbbf5f3ff	-0.0075058932
97	0xbc20a281	-0.009804369
98	0x00000000	0.0
99	0x3c1781fc	0.009247299
100	0xbbc3724c	-0.005964553
101	0x00000000	0.0
102	0x00000000	0.0
103	0x3bb64d8f	0.005563445
104	0xbbe78217	-0.0070650685
105	0xbc244d24	-0.010028157
106	0xbc1298c1	-0.008947552
107	0x3c16d230	0.009205386
108	0xbbc36e90	-0.005964108
109	0x00000000	0.0
110	0xbc0ac673	-0.008470166
111	0x00000000	0.0
112	0x00000000	0.0
113	0xbbed8d48	-0.007249508
114	0xbc18ce4b	-0.009326528
115	0xbbac6c70	-0.00526195
116	0x00000000	0.0
117	0x00000000	0.0
118	0x00000000	0.0
119	0x3c173a02	0.009230139
120	0x3c16f136	0.009212783
121	0xbc074ed5	-0.008258541
122	0xbbc36b45	-0.0059637153
123	0xbc2f2deb	-0.0106921
124	0x3c17505a	0.009235466
125	0x00000000	0.0
126	0xbc03b85d	-0.008039561
127	0xbc083208	-0.00831271

const_fold_opt__175 f4 [1, 128, 1]
0	0xba15490e	-0.0005694785
1	0xbbca5f48	-0.006175909
2	0xbc2700e9	-0.010193088
3	0x00000000	0.0
4	0x3bc7485c	0.006081624
5	0xbbacee9e	-0.005277469
6	0xbc10ec5f	-0.008845418
7	0x00000000	0.0
8	0x3b289537	0.0025723705
9	0x3b845672	0.0040386254
10	0xbbc5c64e	-0.0060356027
11	0xbc044dc9	-0.008075186
12	0x3b83a619	0.004017603
13	0x3ba61b55	0.005069176
14	0xbb3694d1	-0.0027859698
15	0x3b8b3f2a	0.004249473
16	0xbab36a59	-0.001368831
17	0x3b696df1	0.0035618509
18	0x3bd506b5	0.0065010437
19	0xb980675b	-0.00024491068
20	0xbbb0b685	-0.005392852
21	0x3bbae33a	0.005703357
22	0x00000000	0.0
23	0xbb6ab583	-0.0035813756
24	0x38a171c1	7.6982666e-05
25	0xbbbda07b	-0.005786953
26	0xbc0a8ec7	-0.008456892
27	0x00000000	0.0
28	0x00000000	0.0
29	0xbb9abd5e	-0.0047222814
30	0xbc50e61c	-0.012750175
31	0x3ba062ed	0.0048946054
32	0x00000000	0.0
33	0x00000000	0.0
34	0xbc131fc9	-0.008979746
35	0x00000000	0.0
36	0xba032ba8	-0.00050037587
37	0xbc1da96e	-0.009622915
38	0xbbcb6148	-0.006206665
39	0x3a0820d1	0.00051928783
40	0x00000000	0.0
41	0x00000000	0.0
42	0x00000000	0.0
43	0xba119946	-0.00055541506
44	0x00000000	0.0
45	0x00000000	0.0
46	0x00000000	0.0
47	0x39cd9ff9	0.00039219836
48	0x3b07f39c	0.0020744568
49	0x00000000	0.0
50	0x3b961df5	0.004581208
51	0x3ba6c0aa	0.0050888853
52	0xbbf6faf6	-0.007537241
53	0x00000000	0.0
54	0x00000000	0.0
55	0x3bb7b483	0.0056062355
56	0xbbc22492	-0.0059247697
57	0x00000000	0.0
58	0x00000000	0.0
59	0x00000000	0.0
60	0x00000000	0.0
61	0x00000000	0.0
62	0xbb92901d	-0.004472746
63	0x3baf81ca	0.0053560482
64	0x3bc1c888	0.0059137978
65	0x00000000	0.0
66	0x3a94c8a5	0.0011351301
67	0x00000000	0.0
68	0x00000000	0.0
69	0xba25718a	-0.0006311169
70	0x00000000	0.0
71	0x3b600bb7	0.003418667
72	0x3b9502d5	0.0045474567
73	0x00000000	0.0
74	0x00000000	0.0
75	0xb904e28f	-0.000126729
76	0x00000000	0.0
77	0x3bc12945	0.0058948123
78	0x3bd3a0b6	0.006458367
79	0x00000000	0.0
80	0xbb7644df	-0.0037577671
81	0x00000000	0.0
82	0x00000000	0.0
83	0x39d689ca	0.00040919922
84	0x00000000	0.0
85	0xbc20aff0	-0.009807572
86	0xbb9ad868	-0.0047255047
87	0x3be35a31	0.006938242
88	0x3ad667a4	0.0016357792
89	0x3ae06028	0.00171185
90	0x3bce1a0c	0.006289726
91	0xbb3e677f	-0.0029053388
92	0x3b92bb1b	0.004477871
93	0x3a419415	0.00073844317
94	0x3ae597e2	0.0017516578
95	0xbc0df103	-0.008663419
96	0x3ba26867	0.0049562934
97	0xbb3b0788	-0.0028538425
98	0x3bbe665d	0.0058105425
99	0x00000000	0.0
100	0x00000000	0.0
101	0xbba8c74f	-0.0051507126
102	0x3abd90ef	0.0014462749
103	0x3976968a	0.00023516468
104	0xbc418e0a	-0.01181365
105	0xbc13f4ac	-0.009030502
106	0x00000000	0.0
107	0x00000000	0.0
108	0xbbd57054	-0.0065136347
109	0x00000000	0.0
110	0x00000000	0.0
111	0x3bf240e9	0.007392992
112	0xbba58ea5	-0.005052405
113	0x00000000	0.0
114	0xbc3a5c26	-0.011374509
115	0x3b3731c4	0.0027953247
116	0x00000000	0.0
117	0xbadb2db1	-0.0016721991
118	0xbbd16b4b	-0.006390964
119	0x00000000	0.0
120	0x3bd7e5ae	0.0065886592
121	0xbbf69650	-0.007525243
122	0x00000000	0.0
123	0x3b9e81f3	0.0048372685
124	0xbc001711	-0.007817999
125	0x00000000	0.0
126	0xbbf90ed4	-0.0076006446
127	0x00000000	0.0

const_fold_opt__174 f4 [1, 256, 1]
0	0x00000000	0.0
1	0x3b16f07e	0.0023031528
2	0x00000000	0.0
3	0xbbbd4769	-0.005776335
4	0x00000000	0.0
5	0xbbc33874	-0.0059576575
6	0xbbc36a89	-0.0059636277
7	0x3bb18d93	0.0054184883
8	0x00000000	0.0
9	0x3c0b4b34	0.008501817
10	0xbbc355b6	-0.0059611453
11	0x00000000	0.0
12	0x3bd381f5	0.006454701
13	0xbc0c0a31	-0.008547352
14	0x3c0c6856	0.0085697975
15	0x00000000	0.0
16	0xba9b7ed0	-0.0011863355
17	0xbbc338fe	-0.0059577217
18	0xbb4bec70	-0.003111627
19	0x00000000	0.0
20	0x00000000	0.0
21	0x00000000	0.0
22	0x3c148caf	0.009066745
23	0x00000000	0.0
24	0x3c17105e	0.009220211
25	0xbc0909c9	-0.008364149
26	0x00000000	0.0
27	0x3c0ff367	0.008786059
28	0x00000000	0.0
29	0x00000000	0.0
30	0xbb5506d2	-0.0032505286
31	0x3c10b148	0.00883133
32	0x00000000	0.0
33	0x3bc950b9	0.006143656
34	0x00000000	0.0
35	0x00000000	0.0
36	0x00000000	0.0
37	0x3b05ba72	0.002040532
38	0x3bf91c1d	0.0076022283
39	0x00000000	0.0
40	0x39d13407	0.0003990235
41	0xbbf7c137	-0.007560875
42	0x00000000	0.0
43	0x00000000	0.0
44	0xb9911dfe	-0.000276789
45	0xbbafe624	-0.005368011
46	0xbc2590a1	-0.010105283
47	0xbb8b0cc6	-0.004243466
48	0x3b522188	0.0032063443
49	0xbbecd18c	-0.0072271284
50	0xbbf5f002	-0.007505418
51	0x00000000	0.0
52	0x00000000	0.0
53	0xbb0e6381	-0.002172679
54	0x00000000	0.0
55	0xbbd77d48	-0.006576214
56	0x00000000	0.0
57	0x00000000	0.0
58	0xbbc36cb1	-0.0059638848
59	0xbb98804c	-0.004653966
60	0x00000000	0.0
61	0xbbda5321	-0.006662742
62	0xbc098f27	-0.008395947
63	0x00000000	0.0
64	0x3beb891b	0.007187975
65	0x3bf2ed23	0.007413523
66	0xbb906938	-0.0044070743
67	0xbbc18e29	-0.0059068394
68	0xbbe9b646	-0.0071323244
69	0x3c09d201	0.008411885
70	0xbbbe7b10	-0.00581301
71	0xbbe4ee9b	-0.006986452
72	0x3c1be8c5	0.009515946
73	0x00000000	0.0
74	0xbc007b54	-0.007841904
75	0x00000000	0.0
76	0x00000000	0.0
77	0xbc021a82	-0.00794089
78	0x00000000	0.0
79	0xbbd8ac56	-0.006612341
80	0x3b99b0b5	0.0046902546
81	0x3c053388	0.008129962
82	0x3c285942	0.010275187
83	0x3c00f46b	0.007870774
84	0xbbc36be0	-0.0059637874
85	0x00000000	0.0
86	0xbb53082f	-0.0032200923
87	0x00000000	0.0
88	0xbb870a74	-0.004121119
89	0xbb8797f1	-0.004137986
90	0x00000000	0.0
91	0xbc096216	-0.008385202
92	0x00000000	0.0
93	0x00000000	0.0
94	0x00000000	0.0
95	0x3b456d38	0.0030124914
96	0x3c421fbb	0.011848385
97	0xbb3b330f	-0.002856437
98	0x3c17c597	0.009263418
99	0xbb48835c	-0.0030595874
100	0x00000000	0.0
101	0xbb873bab	-0.004126986
102	0xbc0488e2	-0.008089276
103	0x00000000	0.0
104	0x00000000	0.0
105	0x3bee7294	0.0072768424
106	0xbc155e6b	-0.009116749
107	0x3b317ad7	0.0027081275
108	0x3bcfbbd4	0.0063395295
109	0x00000000	0.0
110	0xbb61362f	-0.0034364571
111	0xbba34e42	-0.0049836943
112	0xbb42f8b2	-0.0029750285
113	0x00000000	0.0
114	0x00000000	0.0
115	0x00000000	0.0
116	0x3c150680	0.009095788
117	0xbb99c3af	-0.0046925168
118	0xbbd61f45	-0.0065344893
119	0xbc0dfef3	-0.008666742
120	0x3c217997	0.009855649
121	0xbbc359ed	-0.0059616477
122	0x00000000	0.0
123	0x3bc2efc5	0.005948993
124	0x00000000	0.0
125	0x00000000	0.0
126	0xbc1cd4ac	-0.009572189
127	0x3be08a38	0.0068524145
128	0xbba54211	-0.005043276
129	0x00000000	0.0
130	0xbb932533	-0.0044905185
131	0x3c22c87d	0.009935495
132	0xbb9dc31e	-0.0048145195
133	0x00000000	0.0
134	0xbbf9e45a	-0.0076260986
135	0x00000000	0.0
136	0xbbc3346f	-0.0059571783
137	0x00000000	0.0
138	0x00000000	0.0
139	0xbbbf53aa	-0.005838831
140	0x3bda94a1	0.00667055
141	0x3b9ad873	0.00472551
142	0x00000000	0.0
143	0xbbc5708d	-0.00602538
144	0xbbbdc68d	-0.0057914914
145	0xbbc35715	-0.0059613087
146	0x00000000	0.0
147	0x00000000	0.0
148	0xbb4e0d11	-0.0031440894
149	0x00000000	0.0
150	0x00000000	0.0
151	0x3b947da8	0.004531581
152	0x00000000	0.0
153	0x3c1a04c2	0.009400548
154	0xbc310a4a	-0.010805676
155	0x3bc86c1f	0.0061164047
156	0xbbcbd818	-0.0062208287
157	0x00000000	0.0
158	0xbb7bca3a	-0.0038420097
159	0xbbc225dd	-0.005924924
160	0x3c0192d3	0.007908541
161	0x3bd8b2e0	0.0066131204
162	0xbbf7e619	-0.0075652716
163	0x00000000	0.0
164	0x3bb1a54c	0.0054213163
165	0x00000000	0.0
166	0xbb6084c2	-0.0034258817
167	0x00000000	0.0
168	0x00000000	0.0
169	0xbb80d45c	-0.003931565
170	0x3b4e538d	0.0031482906
171	0x00000000	0.0
172	0x3b9dac8b	0.0048118285
173	0xbb48bfdf	-0.0030631942
174	0x3ad038c3	0.0015886057
175	0x00000000	0.0
176	0x00000000	0.0
177	0x00000000	0.0
178	0x3c08bbc9	0.008345553
179	0x00000000	0.0
180	0x00000000	0.0
181	0x00000000	0.0
182	0x00000000	0.0
183	0x00000000	0.0
184	0xbb5c499f	-0.0033613218
185	0xbb8f7329	-0.004377742
186	0xbbaab1ea	-0.0052091973
187	0xbbc371d7	-0.0059644985
188	0x00000000	0.0
189	0xbaa2d3ab	-0.0012422701
190	0xbb9e743b	-0.004835633
191	0x00000000	0.0
192	0x3bcea766	0.0063065765
193	0xbc47350a	-0.012158642
194	0xbacf449a	-0.0015813292
195	0xbb6817b8	-0.0035414528
196	0xbb3d4673	-0.0028881102
197	0xbabeecfe	-0.0014566479
198	0xbbc38b6e	-0.005967549
199	0xba9d03f7	-0.0011979331
200	0x00000000	0.0
201	0xba2fc2ed	-0.00067047664
202	0x00000000	0.0
203	0xbc03925a	-0.008030498
204	0x00000000	0.0
205	0x00000000	0.0
206	0x3bbb985e	0.0057249507
207	0x3bd3b582	0.0064608464
208	0x00000000	0.0
209	0x3bff7179	0.0077955094
210	0x3c13d9ce	0.009024097
211	0x00000000	0.0
212	0xbc047614	-0.008084793
213	0x00000000	0.0
214	0x3b816003	0.003948213
215	0xbc056021	-0.008140595
216	0x3bd5370a	0.0065068053
217	0x00000000	0.0
218	0xbb858632	-0.004074835
219	0x3bc7422b	0.006080886
220	0x3be93803	0.007117273
221	0x3c138825	0.009004627
222	0x00000000	0.0
223	0x00000000	0.0
224	0x00000000	0.0
225	0x00000000	0.0
226	0x00000000	0.0
227	0xbbff871d	-0.007798089
228	0x00000000	0.0
229	0x3c1a694a	0.009424517
230	0xbb7cb24d	-0.0038558424
231	0xbbbb4256	-0.005714695
232	0xbbc3900b	-0.005968099
233	0x3c128fa5	0.00894538
234	0xbb0f88fc	-0.0021901717
235	0x3be5ca3b	0.007012633
236	0x00000000	0.0
237	0xbbc36ba3	-0.005963759
238	0xbbab16c6	-0.0052212207
239	0x00000000	0.0
240	0x3b7aa38d	0.0038244457
241	0xbb97c503	-0.00463164
242	0x3bed6443	0.007244618
243	0x38588220	5.16196e-05
244	0xbbe97058	-0.007123988
245	0x00000000	0.0
246	0xbb2c88cd	-0.0026326657
247	0x3c06d919	0.008230471
248	0xbbc34fba	-0.005960432
249	0x00000000	0.0
250	0x00000000	0.0
251	0xbc03ace9	-0.00803683
252	0xbb86fae2	-0.004119263
253	0x00000000	0.0
254	0x00000000	0.0
255	0x3be9a7bf	0.0071305926
