NN_model/models/lightprobe_model.onnx (onnx, 838615 bytes, 11 tensors)

functional_1/conv1d_5_1/convolution/ExpandDims_1:0 f4 [1, 128, 1, 1]
000000 45 b9 d9 bd 94 89 20 3e 88 a6 be 3d aa 0b 88 bd
       -0.106310405 0.15677482 0.09309107 -0.0664285
000010 31 bc 3b 3e 34 87 02 be 02 f2 8b 3c f6 00 c6 3d
       0.18333508 -0.12746888 0.017083172 0.09668152
000020 e0 69 b3 bb ad 47 be bd 9c 12 06 3e 7d 8e c3 3d
       -0.005475268 -0.09291015 0.13093036 0.09548662
000030 97 5d 22 be 60 aa c7 bd 57 f8 0e be f3 2a 2b 3e
       -0.15856014 -0.09749293 -0.13961922 0.16715603
000040 93 0a 1b 3e a5 ca a1 3b 18 7f ee bd 4a de e2 bd
       0.15140752 0.004937487 -0.11645335 -0.110775545
000050 70 32 5a 3e b1 d8 0a be e2 d4 bd 3d d0 41 85 3d
       0.21308303 -0.13559224 0.0926912 0.06506693
000060 d0 bd 9e 3d 36 89 f4 bd 61 3e 91 3d 1f 25 ec 3c
       0.077510476 -0.119402334 0.07091976 0.028826294
000070 45 34 fb bc 86 5e c6 bd e4 c1 1b 3e 2f d0 8d bd
       -0.030664572 -0.09685998 0.15210682 -0.069244735
000080 ad 6e d3 bd 00 ad c5 bd 5e 47 07 3e 57 11 2e be
       -0.10323844 -0.09652138 0.13210818 -0.16998802
000090 c2 12 1d 3e 50 25 16 bd 42 86 43 3e a4 11 40 3e
       0.15339187 -0.036656678 0.19094184 0.1875673
0000a0 4e b4 4c 3e 8a 9c 26 bd e4 01 95 3d 4f a1 6f bd
       0.19990656 -0.04067663 0.07275751 -0.058503445
0000b0 df 2d 9d bd 2b 51 42 3d 36 ca 43 3e 60 9f 75 3d
       -0.07674765 0.04744069 0.19120106 0.059966445
0000c0 0d 21 2e be c0 c3 e1 3b 90 ce 4c 3e 37 36 4f 3e
       -0.17004795 0.0068897903 0.20000672 0.20235525
0000d0 f2 7f 3b be 0c 6e 4c bd 91 19 9b bd 48 4e 2e bd
       -0.18310526 -0.049909636 -0.07573236 -0.042555124
0000e0 b6 2c d3 bd 22 53 59 3d cd da fc 3d 8d c4 5d bd
       -0.10311262 0.053057797 0.123464204 -0.054142524
0000f0 70 a7 14 3e b0 26 57 bd 30 e0 2c 3d f0 79 48 bd
       0.14516997 -0.05252713 0.04220599 -0.048944414
000100 30 2f 8b 3d 31 ef c2 3d d7 63 38 bd 98 1b d9 3c
       0.0679611 0.095182784 -0.04501709 0.026502416
000110 2b 06 19 be 36 d9 3b 3e b5 60 56 3e fe db 26 be
       -0.14943759 0.18344578 0.20935328 -0.16294858
000120 41 d5 eb bd 5d b4 02 bd 97 39 3d bd 9c 0c 9e 3d
       -0.11515284 -0.03191029 -0.0461975 0.07717249
000130 fa 88 01 3e 52 dc ca 3d 58 23 77 bd 1c 4b 0d 3e
       0.12649909 0.09905304 -0.06033644 0.13798183
000140 97 2b 38 be 08 17 c7 3d 38 35 26 bd 32 02 62 bd
       -0.17985378 0.0972119 -0.040578097 -0.055177875
000150 4a 10 83 3d ea a7 2c be 56 c5 fe 3d 8a cb d9 3d
       0.06399591 -0.16860929 0.124399826 0.10634525
000160 bf 39 da 3c 97 77 b6 bd 0f 8d 68 bd 06 33 21 be
       0.026638864 -0.08909529 -0.05677515 -0.1574212
000170 a0 73 11 be 62 6c d6 bd 8e 4d ee bb 27 67 ca bd
       -0.14204264 -0.10469891 -0.007272429 -0.09882956
000180 9f 84 45 be 67 82 17 3e 38 9f d2 bd 93 56 0d be
       -0.19288872 0.14795838 -0.10284275 -0.13802557
000190 21 a1 2e 3d 00 03 54 3d c9 30 12 3e cc b0 3b 3e
       0.042634133 0.051760674 0.14276423 0.18329161
0001a0 cc 39 16 bd da 8e dc 3d 61 35 42 be 14 69 59 be
       -0.036676213 0.10769434 -0.18965675 -0.2123149
0001b0 7c 86 b1 bc 50 c3 be 3c 5d e5 60 be 83 26 1d 3c
       -0.021670572 0.023286492 -0.21962495 0.009591701
0001c0 91 75 45 bb d5 6a de bd 89 7b 3b be 89 40 bc 3d
       -0.003012989 -0.1086022 -0.18308844 0.091919966
0001d0 50 42 95 bc b6 6e 59 be 3c 1f d2 bc 15 dd 41 be
       -0.018220097 -0.21233639 -0.02564966 -0.18931992
0001e0 43 13 b5 3d e2 84 af 3d 8b 07 c7 bd 0d f5 55 be
       0.088415645 0.08570267 -0.097182356 -0.2089426
0001f0 62 48 8a 3d 7f 48 b9 bd fc e4 48 3e 9a b7 96 bd
       0.06752087 -0.09047031 0.196186 -0.07359238

functional_1/conv1d_4_1/convolution/ExpandDims_1:0 f4 [128, 256, 1, 1]
000000 26 68 ef 3c e0 c9 66 3c d0 52 3c 3d 81 84 e9 bc
       0.029224467 0.014086217 0.045977414 -0.028505566
000010 2a 46 a3 bd 5c 0f 9e bd e8 b0 30 bd ac b8 c8 3d
       -0.07972367 -0.07717773 -0.04313746 0.09800848
000020 38 fd df bd a2 d3 96 3d e2 6a 2e 3c dc 17 fa bd
       -0.109369695 0.073645845 0.0106456 -0.12211582
000030 80 e2 21 bb 51 5f 6e 3d 1c 42 98 3d 18 93 6c 3d
       -0.0024701655 0.05819637 0.07434484 0.057757467
000040 da 0b 6c 3d c1 27 6e bc 31 67 d9 bc 9c 46 b2 bd
       0.05762849 -0.014535845 -0.026538463 -0.08704874
000050 28 25 f7 bd 70 da 78 3d a0 98 8b 3d 08 f8 90 3d
       -0.12067634 0.060755193 0.0681622 0.07078558
000060 a5 f0 93 bd 84 a3 86 bd a0 28 9e 3d d0 6c d6 bd
       -0.07223634 -0.06574157 0.07722592 -0.10469973
000070 a8 60 c3 bd c2 f9 bb bd 42 86 06 3d a3 07 dc 3c
       -0.0953992 -0.09178497 0.032842882 0.02685911
000080 a2 25 50 ba ba 36 cc 3b 1c dd a7 bd 34 c2 82 bc
       -0.0007940178 0.00623211 -0.0819647 -0.015961744
000090 00 92 24 3b 40 b6 af 3d 00 f4 fc bd f8 41 40 3d
       0.0025111437 0.08579683 -0.12351227 0.046937913
0000a0 86 88 08 3d 5c 04 a9 bd 6c 8d b4 3d fc c0 d4 bd
       0.033333324 -0.082527846 0.088160366 -0.10388371
0000b0 cf b8 90 bd a0 88 c6 bd 24 d9 a6 bd 20 70 96 bc
       -0.070664994 -0.09694028 -0.08146885 -0.018364012
0000c0 50 40 13 bd 60 7d 87 bd f0 47 c9 bd 2c 23 fc bd
       -0.035950005 -0.0661571 -0.09828174 -0.12311396
0000d0 e8 c2 44 bd be 86 1c 3d f4 27 be 3d f0 9a 6c 3d
       -0.04803744 0.038214438 0.09284964 0.057764947
0000e0 b0 15 db 3c dc 9c db bd 54 c7 e0 bd 68 4c b3 3d
       0.02674374 -0.10723278 -0.10975519 0.08754808
0000f0 90 2c 22 3d af 8d 04 bc 48 b0 96 bd 34 27 8f 3d
       0.03959328 -0.008090421 -0.07357842 0.06989899
000100 29 e9 56 bd 0b 23 2c bd c0 5c 40 3d 00 47 85 bd
       -0.052468453 -0.042025607 0.046963453 -0.06507683
000110 a3 ba c0 3d e0 01 8f bd 5d 62 51 3d 80 77 e5 bb
       0.09410598 -0.069827795 0.051119197 -0.007002771
000120 77 19 b5 bd f4 99 8f bd 58 38 b5 3d e5 27 38 bd
       -0.08842748 -0.07011786 0.08848637 -0.04495992
000130 16 6e 86 3d 32 5c d1 3d 55 49 ac 3d 7c 4e b6 3d
       0.06563966 0.10222663 0.084124245 0.089016885
000140 4f 2c 90 3d 08 c7 6a bd a0 91 fc bc 70 cd b7 bd
       0.07039701 -0.057318717 -0.030831158 -0.08974731
000150 a5 31 34 ba e0 01 0e 3d 70 3a c3 3c e4 66 db 3d
       -0.00068738527 0.034669757 0.023831576 0.10712984
000160 6c 28 e5 bd 00 68 d3 b9 58 77 de bd f0 42 70 bd
       -0.111893505 -0.00040322542 -0.10862607 -0.058657587
000170 30 fb 80 bc 08 06 55 bd 44 0d 9f 3d 44 43 f6 3d
       -0.015744776 -0.052007705 0.07766202 0.12024549
000180 fc 62 a4 3d 55 fd 87 bd 08 5e ec bd 00 6a ab bd
       0.08026692 -0.06640116 -0.115413725 -0.08369827
000190 df 4b 8a 3d 08 49 17 bd ec 39 cb bd f9 0a d9 bd
       0.067527525 -0.036934882 -0.09923157 -0.10597796
0001a0 15 cf cc 3d b4 76 ba bd fa cb bb 3d ba cf 0d bd
       0.10000435 -0.09104672 0.09169765 -0.03462193
0001b0 60 af af bd 38 87 a3 bd c8 cc 5c bd e0 4b 23 3d
       -0.08578372 -0.07984775 -0.053906232 0.039867282
0001c0 10 c0 a5 3c 88 3d 57 bd 0e e2 c3 bd c0 b3 12 bc
       0.020233184 -0.052548915 -0.09564601 -0.008953989
0001d0 46 77 9a bd cc 3e a9 3d 6c 4e ad 3d 7b f2 88 3d
       -0.07542281 0.08263931 0.084622234 0.066868745
0001e0 90 15 a8 bd 44 b2 fb bd 89 b5 12 bd be d5 fc bc
       -0.08207238 -0.12289861 -0.035817657 -0.030863639
0001f0 bc 88 d4 3d 68 96 24 3d 64 5a b9 3d 48 19 84 bd
       0.103776425 0.0401825 0.09050444 -0.064501345
000200 28 ea 09 3d 2e ae e5 ba fc 8c 25 bd 64 f4 d8 3d
       0.033670574 -0.0017523223 -0.040417656 0.10593489
000210 7a 96 49 3d 80 62 b3 bd 8c 6c 2a bd e4 6f f3 3d
       0.04921577 -0.08759022 -0.041607425 0.11886576
000220 ba b4 b1 bd 6e 85 80 bd 90 48 79 bd 1c be bf bd
       -0.08677049 -0.0627545 -0.060860217 -0.09362432
000230 68 3a 21 3d c0 5b 76 bd 08 3c 1f 3d 90 22 88 3c
       0.03936234 -0.060146093 0.03887561 0.016618043
000240 74 83 31 3c e8 24 37 bd 40 c1 ed 3d 7c d3 ee 3d
       0.0108345635 -0.04471293 0.11609125 0.11661431
000250 e1 eb 6f bd 9c 5d 90 bd 40 7f e0 bc 02 f4 53 3d
       -0.05857456 -0.070491046 -0.027404428 0.051746376
000260 dc 72 9c bd 8c f2 3b 3d 18 96 46 3d c0 15 67 bc
       -0.07639095 0.045885608 0.048482984 -0.014104307
000270 94 9f df 3d a4 83 81 3d 04 98 c2 3d ec 0c a3 bd
       0.10919109 0.063239366 0.09501651 -0.07961449
000280 40 b0 15 3d 0e 06 02 bd e0 e5 74 bd 08 a5 21 3d
       0.03654504 -0.031744055 -0.05978954 0.039464027
000290 c8 f3 c7 bd 68 63 ce bd 7b 43 8a 3a 39 65 93 bd
       -0.097632945 -0.10077554 0.0010548675 -0.07197041
0002a0 84 eb fa 3d 20 93 fc 3c 48 45 ed 3d eb 40 59 3d
       0.12251952 0.030831873 0.1158548 0.053040426
0002b0 70 2c c7 3d b8 2b a5 3d 68 98 d2 3d 88 48 53 3d
       0.09725273 0.08064979 0.102829754 0.051582843
0002c0 30 f0 0f 3d 80 b9 56 bb 00 fe b5 3d 00 29 6a bc
       0.03514117 -0.0032764375 0.08886337 -0.014292002
0002d0 9c 8e f7 bd b1 11 01 3c 20 dc 48 3c 00 84 f0 ba
       -0.120877475 0.007877753 0.012259513 -0.0018349886
0002e0 80 1b 41 bb 20 6f 36 bd c1 6f 8a bd 62 d5 b0 bd
       -0.0029465854 -0.04453957 -0.067595966 -0.086344495
0002f0 ea 5e 06 bc ab df 84 3d 30 a5 ec 3c 84 b1 1f 3d
       -0.00820134 0.06487974 0.028887361 0.03898765
000300 80 49 3a bd c6 7a e6 bd 90 36 8b 3c 64 ac 9d bd
       -0.04548025 -0.11253886 0.01699379 -0.076988965
000310 7b ad e1 bd 6c 56 01 be 2a ac ee 3d 2b b9 ea 3d
       -0.11019417 -0.12630624 0.116539314 0.11461099
000320 9f e2 b7 bd 84 d8 8d bd 98 6c 57 3d 64 37 85 3d
       -0.089787714 -0.06926063 0.052593797 0.065047055
000330 51 59 a8 bd a8 3b 81 bd e0 21 04 3d cc 0a eb 3d
       -0.08220161 -0.06310207 0.03225887 0.11476669
000340 c0 9e e2 3b 69 10 02 be 5c 70 ea 3d a0 9b c7 bd
       0.006915897 -0.12701572 0.11447212 -0.0974648
000350 60 f6 18 bd 18 f6 8e 3d 88 66 de 3d c0 e9 11 3c
       -0.037344337 0.069805324 0.108594 0.008905828
000360 d9 b1 d6 bc b3 f5 3c bd 40 22 6c bd 47 79 b6 bc
       -0.026207851 -0.046132755 -0.05764985 -0.022274626
000370 ab 0c be bc e1 4d 30 bd 70 66 d0 bc a8 85 96 bb
       -0.0231994 -0.04304302 -0.025439471 -0.00459357
000380 d0 76 b9 bc 04 68 af 3d a3 16 ff bd 80 ca 7a 3b
       -0.022639662 0.08564761 -0.124554895 0.0038267672
000390 78 8a 64 3d 50 2b 92 bd d6 a1 4a bc 6c d2 cb 3d
       0.055796117 -0.071371675 -0.012367686 0.09952244
0003a0 58 b4 ab bd 64 a2 87 bd 6e d3 ad bc 28 4c 3e 3d
       -0.08384007 -0.066227704 -0.021218982 0.046459347
0003b0 00 aa ea 3b aa 58 55 bc 80 41 c2 bc 34 a3 b5 bd
       0.007161379 -0.013021627 -0.023712873 -0.08869019
0003c0 e4 ef bd 3d 88 10 f9 3d b0 83 d8 bd c1 16 1e bd
       0.09274271 0.12161356 -0.105719924 -0.03859592
0003d0 78 3b 0c 3d 75 e5 e0 bd f1 4c e0 3d 6e 14 cd 3d
       0.0342364 -0.109812655 0.109521754 0.10013662
0003e0 ea 47 ee bc 9c 5a ac 3d 98 35 62 3d d4 57 ab 3d
       -0.029087026 0.0841572 0.055226892 0.08366361
0003f0 f0 94 34 bd bd 0e 96 3d 47 f3 dc 3d c8 da 4e 3d
       -0.04408735 0.0732703 0.10788589 0.050501615

functional_1/conv1d_3_1/convolution/ExpandDims_1:0 f4 [256, 512, 1, 1]
000000 d9 b1 fb 3c db 21 a5 3d 88 5b 5b 3c cc 57 6b bd
       0.030724453 0.08063098 0.013388522 -0.057456776
000010 48 9c 89 bd 9f 9f 90 3d a4 f4 2b 3d e4 3b 44 bb
       -0.067192614 0.07061695 0.041981354 -0.0029942924
000020 dd 1b 7b 3d 05 0e a2 3d f8 df 20 3a 99 9a 57 3d
       0.06130587 0.0791283 0.00061368896 0.05263767
000030 09 88 b4 3d 77 61 b1 3d bf ef 35 3d 8c b4 a5 bd
       0.08815009 0.08661168 0.044418093 -0.08091077
000040 f3 7f 1a 3a 4a ba 9e bd 43 d4 67 3d 68 09 69 bd
       0.00058936997 -0.077503756 0.056598913 -0.056893736
000050 d3 b9 63 3d a4 47 8f bc 90 d2 c6 3c 3b 5a 23 b9
       0.055597138 -0.017490216 0.024270326 -0.00015578505
000060 61 c9 81 bd c0 90 45 bd 5b 1f 8c 3d f9 8a a8 3d
       -0.06337238 -0.048233747 0.06841918 0.08229632
000070 68 82 d1 3c 5f 4d 58 3d 8c 25 99 bd 69 aa ba 3a
       0.025574878 0.05280816 -0.074778646 0.001424146
000080 be 20 93 bc 8a 76 c0 3d 66 57 8b bd 38 d7 fe bc
       -0.017959949 0.093976095 -0.06803779 -0.031108484
000090 c8 a1 1d 3c 32 a3 87 bd 75 7b 8d bd 81 be 2c bd
       0.009621091 -0.06622924 -0.06908313 -0.042173866
0000a0 a4 a8 fd 3c 87 5b 9b bd fa e3 1b 3d 32 ae a1 bd
       0.030964203 -0.07585817 0.038059212 -0.07894553
0000b0 6c 63 3c 3c c8 9a 21 3c fe 9e c2 ba 98 3c 53 bc
       0.011498313 0.009863563 -0.0014848409 -0.012892865
0000c0 9a f7 88 3d 15 1b 3e 3b 83 3f 7c 3d 18 72 9b 3c
       0.06687851 0.0029007841 0.061584007 0.018975303
0000d0 f5 57 a1 3d 89 58 b7 3d 00 ab a2 b9 c3 98 a4 bc
       0.078781046 0.089524336 -0.00031026453 -0.020092374
0000e0 e3 70 58 3d 48 de bc 3d ac cb b7 3d 81 e3 ec bc
       0.052842032 0.09222084 0.08974394 -0.028917076
0000f0 2a b9 f6 bc a4 1e 43 bd 20 43 67 3c 78 7a 36 bc
       -0.03011759 -0.047636643 0.014115125 -0.011137597
000100 d9 6f b9 3d 5a 26 a8 bd f5 53 84 3d 34 33 53 3d
       0.09054536 -0.0821044 0.06461326 0.051562503
000110 68 63 8e 3d 95 ae 38 3d 9e 27 9a bd 71 9a 67 3c
       0.06952554 0.04508837 -0.07527088 0.014135943
000120 16 0a 4b 3d 35 5b ac bd 2b 04 4f bd 1f 30 9d 3d
       0.049570166 -0.08415834 -0.050541084 0.07675194
000130 d6 f7 ba 3d 5c c6 e8 bc 1f 67 a8 3d 6b f4 46 bd
       0.09129302 -0.028414898 0.08222794 -0.04857294
000140 6b d6 23 bd 0e e1 db bc 97 af 36 bd c4 69 4f 3d
       -0.039999407 -0.026840713 -0.04460105 0.050637975
000150 42 36 7b 3d 68 9c 4a 3c d3 00 67 bd 54 1e a9 3d
       0.06133104 0.012366392 -0.05639727 0.08257738
000160 26 8c 71 3d 3e 88 50 bd a0 46 0c bc 97 f7 40 bd
       0.058971547 -0.05091118 -0.00856176 -0.04711112
000170 85 cb 07 3c af 9a a6 3d 88 15 81 bd 81 13 65 bd
       0.008288269 0.08134972 -0.06302935 -0.055926803
000180 1a 6a 82 bd c3 e6 7a 3d 5c 68 dd 3c 48 ca 6d 3c
       -0.063678935 0.061255228 0.027027301 0.01451356
000190 a0 48 1c bc 98 b9 42 3d 3a b4 78 3d 5f 8c 96 3d
       -0.0095387995 0.047540277 0.060718752 0.073509924
0001a0 49 fb b0 3d 3b 33 54 bd f9 a6 3c bd f8 33 b0 bc
       0.08641679 -0.05180667 -0.046057675 -0.021509156
0001b0 88 ee 6a bd a0 73 43 bd 31 80 96 3d 40 82 87 bd
       -0.057356387 -0.04771769 0.07348669 -0.0661664
0001c0 af eb 6c bd 82 1e 58 3c a9 b6 6b 3d 53 a9 9f bb
       -0.057841953 0.013190867 0.057547245 -0.00487248
0001d0 2e 48 d6 bc 03 8c 0e bd f4 b3 30 bd f5 ce 01 3b
       -0.026157465 -0.034801494 -0.043140367 0.0019807194
0001e0 e6 de de bc 0e 60 b2 3c 4e d8 1b 3d e1 80 02 bd
       -0.027205896 0.021774318 0.03804808 -0.03186119
0001f0 7b e6 52 3d 88 fa e4 bc ce 24 00 3c 05 26 9e 3d
       0.051489335 -0.027951494 0.007821275 0.077220954
000200 23 45 b2 bd 0f 20 78 3d a0 14 ee 3c 2a f0 56 3d
       -0.08704593 0.06057745 0.02906257 0.052475132
000210 1c 22 af 3d 40 78 3a 3c 56 96 13 bd 7f 3c 45 3d
       0.08551428 0.011381209 -0.036032043 0.048153397
000220 8c 9b aa 3c d4 64 42 3d eb ff 93 bd 08 86 de 3c
       0.020826124 0.04745944 -0.07226547 0.02716352
000230 87 c2 98 3c c9 e8 08 bc 50 3e ae bc 01 1f 8e 3d
       0.018647445 -0.008356282 -0.021269947 0.06939507
000240 26 10 9c bd 04 3f bc bc b8 49 c0 bc 17 b8 ba bb
       -0.076202676 -0.022979267 -0.023472652 -0.0056982148
000250 20 52 94 bc fd 2a 0e 3d 48 63 3d 3d 91 0b b3 3d
       -0.018105567 0.034708966 0.04623726 0.087424405
000260 d0 9d b6 bb bd 0e ea 3c 69 42 3c 3d ed 41 98 bd
       -0.005573012 0.02857148 0.04596177 -0.07434449
000270 8f d4 6f 3c 53 ac d9 bb 5b fc 12 bd b3 76 60 bd
       0.01463808 -0.006642857 -0.035885196 -0.0548007
000280 45 1c a7 3d e1 99 84 bd cf 58 0e bd 32 34 80 bd
       0.08159689 -0.064746626 -0.034752663 -0.062599555
000290 8e 72 1c 3d 28 c0 56 3d c1 54 1f bc b4 cc 14 3d
       0.038195185 0.05242935 -0.009724797 0.036328033
0002a0 3b c7 a9 bb be 19 34 bd 13 ac 28 bc 10 47 7d bd
       -0.005181221 -0.043969862 -0.010294932 -0.06183535
0002b0 5b e6 84 3d aa b1 90 bc 65 41 51 3d 6b 3f 52 3c
       0.06489249 -0.017662842 0.051087756 0.012832503
0002c0 4e d2 72 3d 7c c2 8d 3d 9a 32 98 bd 5c 37 a2 bd
       0.059282593 0.069218606 -0.074315265 -0.07920715
0002d0 25 51 ab 3d bd 13 ba bc 0b c3 b6 3c 00 41 57 3c
       0.083650865 -0.02271449 0.0223098 0.013138056
0002e0 c8 47 41 3c 02 ac 2c bd ca c0 16 3d e7 eb 24 3d
       0.011796899 -0.042156227 0.03680495 0.040264037
0002f0 ff fa 86 3d 41 84 56 bd 75 be a1 bd 60 6c 6c bd
       0.065908425 -0.05237222 -0.07897655 -0.057720542
000300 e3 ee 99 3c c2 02 67 3d 04 14 a3 bd c6 0b 54 3c
       0.018790668 0.056399114 -0.07962802 0.01294226
000310 ef 3e 80 bd 60 23 00 bb 7f aa 9b bd 24 20 50 3d
       -0.06262004 -0.0019552335 -0.07600879 0.0508119
000320 07 92 e7 bb df 2c 9a bd e6 2e 5a 3d 82 bb 1e 3d
       -0.0070669684 -0.0752809 0.053267382 0.03875304
000330 8a a1 da 3c da 2c 2e bc 33 21 58 3d b0 b6 6c 3d
       0.026688356 -0.010630811 0.052766036 0.057791412
000340 d8 f0 66 bc f4 21 4c bd 2a e0 d5 bc e2 75 40 bd
       -0.014095508 -0.049837068 -0.026107866 -0.04698742
000350 f0 5f 4e 3d f0 f6 60 3c 60 e2 4e bc b2 32 a4 bd
       0.050384462 0.0137307495 -0.012627214 -0.08017482
000360 a3 b4 38 bb 39 06 51 3d 57 e0 87 bd 19 d6 63 bd
       -0.002818384 0.051031325 -0.06634586 -0.0556241
000370 fb b9 99 3d b8 05 ef 3c 8d 02 a2 bd 13 99 8f bb
       0.07506176 0.029177532 -0.07910643 -0.0043822615
000380 30 0f bb 3c 73 9b aa 3d 82 18 de bc 84 a1 8e 3c
       0.02283439 0.08330431 -0.027111296 0.017411001
000390 5b c8 b4 3d f0 08 dd bc 75 76 79 3d 5b 50 91 bd
       0.08827277 -0.0269818 0.060903985 -0.07095405
0003a0 68 8f 94 bd a0 21 c4 bc 8d b9 0e 3d c8 50 40 bd
       -0.07253915 -0.023941815 0.034844924 -0.04695204
0003b0 47 29 0d 3d 7a 6b 87 bd 8a 42 9e bd a9 fc a7 3d
       0.034463193 -0.066122964 -0.07727535 0.08202488
0003c0 ab 21 0c bd 08 6d dc ba ae 60 7f 3d dc eb cf bc
       -0.034211796 -0.0016817162 0.06234806 -0.025381021
0003d0 f0 a7 6b 3d 38 ce 8e bc a4 71 49 bd eb cf 87 3d
       0.057533205 -0.017432317 -0.04918064 0.06631454
0003e0 eb 94 e2 3c b9 76 8c bc ad e5 33 bd fe d5 5f 3d
       0.0276589 -0.017146455 -0.043920208 0.05464744
0003f0 c0 8d 4e bb 09 7d 5f bd 73 bf c4 bc 55 53 8a bd
       -0.0031517595 -0.054562602 -0.024017071 -0.067541756

functional_1/conv1d_2_1/convolution/ExpandDims_1:0 f4 [256, 128, 1, 1]
000000 f1 dc 05 bd b1 ab 42 bd 50 0b f8 bd 98 ac 6a bd
       -0.03268141 -0.04752702 -0.12111533 -0.057293504
000010 ec 07 90 3d 58 8a cd 3c 18 f2 5c bd cc 6f 54 bd
       0.07032761 0.025090382 -0.053941816 -0.05186443
000020 58 20 e6 bd 38 a9 b7 bd f0 3e ca 3d 68 f2 10 bd
       -0.11236638 -0.08967823 0.098752856 -0.035387427
000030 60 c5 9c bc 2f de ba 3d 45 e2 53 bd dc 40 c9 bd
       -0.019137084 0.091244094 -0.05172946 -0.09826824
000040 78 92 b1 3d d0 99 57 3d b9 fb 9b 3d e2 52 0f 3d
       0.08670515 0.05263692 0.07616372 0.034991153
000050 11 56 08 bd e4 ce e3 3d d1 25 80 3b b7 c6 20 bd
       -0.033285204 0.11123446 0.003910758 -0.03925201
000060 d0 c5 40 3d 62 e7 34 3d 80 60 44 bd e3 4c 8a 3d
       0.04706365 0.044165976 -0.047943592 0.06752946
000070 38 df 57 3d e8 61 80 bd 1a 3e e6 3c 84 d2 82 3d
       0.052703112 -0.06268674 0.028105784 0.06387809
000080 d3 0e fa 3d f0 41 a0 bc 30 87 be 3d f4 77 ad bd
       0.12209859 -0.019562691 0.09303129 -0.08470145
000090 99 6d 40 bd 20 55 05 3c 3a 91 c1 bd 8d 13 56 3d
       -0.04697952 0.008137971 -0.09451528 0.05226474
0000a0 c8 fc 24 3d a8 44 ca bc 51 5b 98 3d 63 4a e0 3d
       0.040280133 -0.024690941 0.07439292 0.10951688
0000b0 45 d1 b7 bd 89 3f dd bc f0 37 ea 3c 20 69 18 bd
       -0.08975462 -0.027007835 0.028591126 -0.03720963
0000c0 c0 34 6d bc 1a a0 91 bd 90 ae 4c bd 43 7c a1 3d
       -0.014477909 -0.07110615 -0.049971163 0.07885029
0000d0 2f bc 70 3d 6c 24 aa bd 24 81 93 bd 93 e1 e7 3d
       0.058773216 -0.08307728 -0.07202366 0.11322322
0000e0 74 3c ac 3d bf 2a d3 3d f3 43 5d 3c ff e8 ca bd
       0.08409968 0.103108875 0.01350497 -0.09907722
0000f0 c0 d3 ef bb 64 d8 4f bd 63 c9 23 bd 5c 39 6b 3d
       -0.0073189437 -0.050743476 -0.03998698 0.05742775
000100 10 6b 89 bc a0 8f 21 bd c2 fb 00 3e 2e 8b b1 bd
       -0.016774684 -0.039443612 0.12596038 -0.086691245
000110 7c 50 bd bd 48 22 3d bd 1b cf 09 bd 8c 6c 08 bd
       -0.09243867 -0.04617527 -0.033644777 -0.033306643
000120 38 3c 32 3d 3d 35 a7 3c 20 a0 2d 3d 94 3e bc bd
       0.04351446 0.020411128 0.042389035 -0.09191623
000130 00 e0 ed bc 98 ff 7e bd e0 39 68 bd bb 5d e4 bd
       -0.029037476 -0.062255472 -0.05669582 -0.1115069
000140 e0 4d 04 bd cc b1 ee bd 17 da f0 3d a8 91 6a bd
       -0.03230083 -0.11655006 0.11760347 -0.057267815
000150 70 64 af 3c d4 6c a6 3d 5b 4e 44 bd 60 05 ef 3d
       0.021410197 0.08126226 -0.047926288 0.11670947
000160 40 8c d3 bd c7 1d af bd e5 ee 21 3d 60 a8 af bd
       -0.10329485 -0.085506015 0.03953447 -0.08577037
000170 e0 a9 bc bc 65 11 54 3d 80 b1 df 3d 28 6a 60 3d
       -0.023030221 0.0517744 0.10922527 0.05478874
000180 60 a5 c1 bd 24 cd 99 3d c8 ea a4 3d 65 eb b3 3b
       -0.09455371 0.075098306 0.080525935 0.0054907077
000190 8a fb 61 3d 44 ce e5 bc 40 cc 75 bc b5 3b cb bc
       0.055171527 -0.028052457 -0.01500231 -0.024808744
0001a0 f7 c9 65 bd fd 05 d6 3d c4 b2 e6 3d 6a 00 81 3d
       -0.05610081 0.10450361 0.112645656 0.06298907
0001b0 70 54 03 bd b4 c3 d2 3d d0 d5 24 3d 60 5d 30 3d
       -0.032062948 0.10291234 0.04024297 0.0430578
0001c0 7e 02 fd bd 6b a2 78 3a 48 6d 34 3d ad 9a 50 bc
       -0.12353991 0.00094846514 0.04404953 -0.01273219
0001d0 73 96 f2 3c 97 d8 d0 3c 1c 51 bc bd fc 50 88 3d
       0.029612755 0.025493903 -0.09195158 0.066560715
0001e0 f8 df d1 3d c0 b6 a3 3c 76 af af 3d a0 2e f5 bc
       0.10247797 0.019984603 0.085783884 -0.02992946
0001f0 a0 6f 1a bd c0 74 02 3c 94 55 fc bd 34 b7 93 3d
       -0.03770411 0.007962406 -0.1232101 0.072126776
000200 80 8e 43 3d d8 90 36 3d c0 52 df 3d 7c 97 bb 3d
       0.04774332 0.044571728 0.10904455 0.09159753
000210 b8 68 94 bd 48 44 f7 bd 14 ad a5 3d 50 d9 73 bd
       -0.07246536 -0.120735705 0.08089653 -0.059533417
000220 30 97 ed 3c b4 02 b9 bd 68 64 44 3d c0 a2 eb bd
       0.029002756 -0.09033719 0.047947317 -0.115056515
000230 e0 52 f8 3d 48 36 ec bd a4 cf 97 bd 00 1e 87 bc
       0.12125182 -0.11533791 -0.07412651 -0.016493797
000240 f0 5a 2f bd 40 d4 6d 3d 34 7b d6 bd 24 10 b4 3d
       -0.042811334 0.058063745 -0.10472718 0.08792141
000250 3c f0 f9 3d 40 a4 0d bd 6c d3 92 bd 00 61 68 bc
       0.12204024 -0.03458047 -0.07169232 -0.014183283
000260 80 30 00 bd a8 6a 95 3d 00 68 d2 bb b0 ab 4d bd
       -0.031296253 0.07295734 -0.006421089 -0.050212562
000270 14 05 8a 3d 98 80 6d bd 84 8e a9 3d 1c 6c f9 3d
       0.0673925 -0.057983965 0.08279136 0.12178823
000280 c0 f4 8f 3d 9c d7 ad 3d e8 7d 92 3d 20 3f dc bc
       0.07029104 0.0848839 0.07152921 -0.02688557
000290 88 c7 c3 3d 40 e3 4f 3c 70 ab ac 3c c0 b9 75 3c
       0.09559542 0.012688458 0.021077842 0.0149978995
0002a0 bc 89 d8 bd 3c 8d db 3d 90 bd 8f 3d a0 a8 4f bd
       -0.10573146 0.10720298 0.07018578 -0.050697923
0002b0 3c 19 89 bd 24 b9 ed bd 58 33 8f 3d 18 8f a0 bd
       -0.06694266 -0.116075784 0.06992215 -0.07839793
0002c0 00 f5 d2 3b d0 a7 ce bd 38 d9 f0 bd c0 53 11 3c
       0.0064378977 -0.100906014 -0.11760181 0.008870065
0002d0 00 68 83 3d a8 07 7a 3d c8 6f 11 bd 50 bf 3b bd
       0.06416321 0.061042458 -0.035506994 -0.045836747
0002e0 30 e7 d9 bd 78 8d a7 3d c8 32 77 bd 68 75 a8 bd
       -0.10639799 0.0818128 -0.060351163 -0.082255185
0002f0 e0 a6 ef 3c 88 a3 73 bd a0 b2 9b 3d e0 cb 56 bc
       0.029254377 -0.059482127 0.076024294 -0.013110131
000300 cc 5c b3 bd 68 a9 28 bd 78 97 1d 3d 68 87 89 bd
       -0.08757934 -0.041177183 0.03847453 -0.0671528
000310 40 c2 e5 3b e0 7d 8a 3c c0 5a 98 bb 00 58 dd 3c
       0.007011682 0.016905725 -0.00464949 0.0270195
000320 30 56 96 3c b0 33 c1 3d e4 24 8a bd a4 08 e9 bd
       0.018351644 0.09433687 -0.067453176 -0.11378601
000330 5c ff fd bd 78 e5 62 3d 00 e2 fb 3b 24 ac fc 3d
       -0.124022216 0.05539462 0.0076868534 0.12337521
000340 70 37 1f bd 90 fd e5 bd ec 26 a3 bd d8 bb 7f 3d
       -0.03887123 -0.11230004 -0.07966408 0.062435
000350 78 00 5c 3d 20 4c 0b 3d 80 36 03 3d 30 e3 49 bd
       0.053711385 0.034008145 0.032034397 -0.04928893
000360 80 fc 87 3d 40 db 9b bd d0 d2 0d 3d 08 88 3a 3d
       0.066399574 -0.07610178 0.034624875 0.045539886
000370 b0 97 ee 3c 40 1a 23 3d 5c 6b a8 3d 1c da d8 bd
       0.029125065 0.039819956 0.08223602 -0.10588476
000380 dc f4 ad 3d ec 7c ba bd 94 b9 f5 bd 20 14 36 3d
       0.08493969 -0.09105858 -0.11998287 0.044452786
000390 b0 10 7b 3d 40 ca aa 3b 08 99 ec bd 60 e2 34 bc
       0.06129521 0.0052120984 -0.11552626 -0.0110403
0003a0 00 66 69 3b 80 82 2d 3b f0 f1 1d bd 54 19 98 bd
       0.0035613775 0.002647549 -0.038560808 -0.07426706
0003b0 20 62 69 3c 10 9f 15 bd 30 91 c3 3d d8 e0 91 bd
       0.014244586 -0.036528647 0.09549177 -0.07122964
0003c0 50 2f 81 bd b0 a0 81 bd 04 6e e8 bd a8 d3 c7 bd
       -0.06307852 -0.06329477 -0.11349109 -0.09757167
0003d0 00 fa 51 3c 40 9c 29 3d 40 df 5a bd 98 84 53 3d
       0.012815952 0.041408777 -0.053435564 0.051640123
0003e0 80 8c be 3b 60 0a 58 bc 90 5a a7 3c e4 ab 9b 3d
       0.0058150887 -0.013186067 0.020428926 0.07601145
0003f0 b0 da 1d 3d fc 33 e5 bd 14 b8 9c bd 40 0c fa bd
       0.038538635 -0.11191556 -0.076522976 -0.12209368

functional_1/conv1d_1_2/convolution/ExpandDims_1:0 f4 [128, 64, 1, 1]
000000 1f d8 c9 bd cd cd 2f 3e 35 db a4 3c 2e b7 a6 3d
       -0.09855675 0.1716835 0.020124057 0.081404075
000010 b1 86 c5 bd d0 73 fa 3d 38 e8 bb 3d c0 96 4c bb
       -0.09644831 0.12229121 0.091751516 -0.0031217784
000020 bc 6a 11 3d d0 f0 18 bd cd 53 fd 3b 3c a0 ea bd
       0.03550218 -0.03733903 0.007730937 -0.114563435
000030 0a 3e 02 3d 1e 46 c5 bd 86 53 05 3d ee 6f 09 be
       0.031797446 -0.096325144 0.032550357 -0.13421604
000040 3c e9 b4 3d 45 7e 08 3e 65 cc 03 3e 9e 23 7f 3d
       0.088335484 0.13329418 0.12870939 0.062289827
000050 40 db 2c 3c 30 a6 83 3d 48 fd f7 bd f0 6a 6a 3c
       0.01055032 0.06428182 -0.121088564 0.014307722
000060 80 36 e3 bc 00 f6 29 3d 73 38 95 bd a4 9c 14 3d
       -0.027735949 0.04149437 -0.072861575 0.036282197
000070 25 a3 0e 3e c8 9b 67 3d 40 52 0b be ae a5 f5 bd
       0.13929422 0.05654505 -0.13605595 -0.119944915
000080 9f 15 2b 3e 83 8b cb bd 50 32 18 3c 6f 56 39 3c
       0.16707467 -0.09938719 0.009289339 0.011312111
000090 d0 2c 26 be 7e d8 38 bd 9c ca 00 3e 28 1c 7c 3d
       -0.16228032 -0.045128338 0.1257729 0.06155029
0000a0 1e aa 10 3e 54 8c 09 3d 55 72 e8 3d d5 38 2b be
       0.14127395 0.033581093 0.11349932 -0.16720898
0000b0 fa f3 16 be 1a f4 76 b8 cb de aa bd 99 d7 1c 3d
       -0.14741507 -5.8878308e-05 -0.08343276 0.038291547
0000c0 0b 8d da 3d 65 1b 0b bd 1e 3b 33 bd 80 6c 3d bc
       0.10671433 -0.033961672 -0.04375755 -0.011561513
0000d0 70 5a 36 bd bc 60 56 3d 69 ba 8d bc 35 3c 2e 3c
       -0.04451984 0.052338347 -0.017300801 0.010634472
0000e0 e0 23 ec 3c dd d8 97 3b 10 b8 fc 3c a4 90 69 bd
       0.0288257 0.0046340064 0.030849487 -0.057022706
0000f0 bd d5 21 be d8 86 70 3d cd 16 3b be 3b 66 07 3e
       -0.15804191 0.058722347 -0.18270417 0.13222592
000100 4e d0 c4 3d c2 37 96 bd a5 22 23 3d bd 03 23 3e
       0.096100435 -0.07334854 0.03982796 0.15919395
000110 30 a5 07 be bb 91 8a bd 48 70 f2 3d 8f 9a 2e 3e
       -0.13246608 -0.06766077 0.11837822 0.17051147
000120 58 62 b6 3c 1e b1 b3 3d 59 b2 33 3e 53 9d 1f 3d
       0.02226369 0.08774017 0.17548503 0.038968395
000130 d2 ad 9e bd 3e 0f f5 3d 3b 09 fa bd 6c 5f 0c be
       -0.07747997 0.11965798 -0.12208792 -0.13708276
000140 84 82 b7 bd 3f 81 8f 3d f1 9d 13 be ed e3 01 be
       -0.08960441 0.070070736 -0.14415719 -0.12684603
000150 3a 6e c5 3d f6 35 25 bd 58 10 82 3c 00 3d 0a 3a
       0.09640165 -0.040334664 0.015876934 0.0005273372
000160 19 9a 29 3e a2 4f fe 3d 00 84 a0 3c 80 cf c2 bb
       0.1656269 0.124175325 0.019594193 -0.005945146
000170 4d c1 0a 3e e0 07 6f 3d 15 e6 05 be 60 e4 bf bc
       0.13550301 0.05835712 -0.1307605 -0.023424327
000180 e1 42 e8 bd 47 55 26 3e b6 99 0a be 6a 60 1f 3e
       -0.11340881 0.16243468 -0.13535199 0.15564123
000190 59 46 c3 bd bf 27 0c bc 19 3a 1f be 7f 55 06 be
       -0.09534902 -0.008554398 -0.15549506 -0.13118552
0001a0 ef 5f fe 3d ac ce 78 bd 24 93 19 bd 80 25 f2 3c
       0.12420642 -0.060743973 -0.03749384 0.029558897
0001b0 35 b2 9c 3d 7b c6 22 bd 39 76 5c 3c ee 5d 91 3c
       0.07651178 -0.039740067 0.013455921 0.017744984
0001c0 2f ee 27 bd 89 15 33 be ca 72 0f 3e 59 11 df bd
       -0.040998634 -0.17488684 0.14008632 -0.10891981
0001d0 f2 df ee 3d 7b 1a 8b bc ac 17 eb bd 6e 94 0a 3e
       0.11663808 -0.0169804 -0.114791244 0.13533184
0001e0 c3 af 13 be df 9e d6 3d ee c6 cd 3d 18 51 10 bd
       -0.14422517 0.10479521 0.100477085 -0.035233587
0001f0 88 3e 07 be eb 7c dd 3b 47 bc 7b bc 48 5b 14 3e
       -0.13207448 0.006759276 -0.015364713 0.14487946
000200 44 16 18 bd aa a9 eb bd 7e 07 6b bd 50 35 bf bd
       -0.03713061 -0.1150697 -0.057380192 -0.093363404
000210 88 d0 ab bc 18 fa 52 bd 2c 8a 3e 3d 62 d5 06 be
       -0.020973459 -0.05150804 0.04651849 -0.13167337
000220 a9 1b b6 bd e5 fd ad bd 9f c9 14 be b0 ad 10 be
       -0.088919945 -0.08495692 -0.14530037 -0.14128757
000230 70 bd 13 be 92 75 e8 3d e1 80 96 bd d1 46 0e 3e
       -0.14427733 0.1135055 -0.073488005 0.13894202
000240 c0 e1 ed 3b f4 08 17 bd f0 1d be bd 6a ae c9 3d
       0.0072595775 -0.036873773 -0.09283054 0.0984772
000250 00 58 96 b8 f6 f9 b1 3d 54 e0 0b bd c6 f6 c3 bd
       -7.168949e-05 0.086902544 -0.034149483 -0.09568553
000260 62 eb af 3d ea f4 8c 3d f8 ed 97 3c ff 0a bb bd
       0.085898176 0.06882651 0.01854609 -0.09132957
000270 e0 db 30 bc 30 0c c5 bc fb 5f 09 3e 11 4c 9e bd
       -0.01079461 -0.024053663 0.1341552 -0.07729352
000280 70 b6 fc bd 1e 05 2a be 6e 40 94 bd 70 8f 4c 3d
       -0.12339485 -0.16603515 -0.072388515 0.04994148
000290 d8 2c 47 3d 18 17 30 be c0 aa 2a 3b 38 40 83 bc
       0.04862675 -0.1719631 0.0026041716 -0.016021833
0002a0 80 3d d1 3b 4d aa 2d be 67 db b5 bd 40 43 02 3b
       0.006385505 -0.16959496 -0.08879738 0.001987651
0002b0 6c 50 24 be 82 2c de 3d 2d 7e 1b 3e bc 47 48 bd
       -0.16046304 0.10848333 0.15184851 -0.048896536
0002c0 c9 a7 11 3e 1a da 0e be 26 d3 66 bd 4e 5d 33 be
       0.14224161 -0.13950387 -0.05635371 -0.17516062
0002d0 d7 11 20 3e a5 25 9d bd 28 8c f9 bd 84 30 32 3d
       0.15631805 -0.07673196 -0.12184936 0.0435033
0002e0 b8 19 2d be 88 b8 cd bc 76 20 24 be df f5 1c be
       -0.16904342 -0.025112405 -0.16028008 -0.15328167
0002f0 b1 1a 98 bd 35 a9 1a be ac 51 ce bd fe b0 d4 3d
       -0.07426966 -0.1510361 -0.100741714 0.10385321
000300 f2 48 fc bd 10 42 3c bd d0 22 f2 bd 00 b7 46 3c
       -0.12318601 -0.04596144 -0.11823046 0.012128592
000310 b8 45 13 be 3a 65 24 be f2 6b ea 3d 46 ec dd 3d
       -0.14382064 -0.1605424 0.1144637 0.10836081
000320 6a 3f aa 3d 08 2d 8a 3c c7 8b 28 be be 02 b1 3d
       0.083128765 0.016867176 -0.16459571 0.08643101
000330 8c 61 45 3d 00 1a 75 3c 38 27 65 3d fc 6d 41 3d
       0.04818873 0.014959812 0.055945605 0.04722403
000340 1f 2c 14 3e 7a 49 b9 3d 9d 06 8a bd d2 df be 3d
       0.14469956 0.09047218 -0.06739543 0.09320034
000350 f9 f1 03 3e d2 2e c1 3d 10 0e 78 bc cc 12 6a 3d
       0.12885274 0.094327584 -0.0151400715 0.057146832
000360 30 0e 2d bd 89 08 31 3e 95 72 2b 3e 0f 00 dc bd
       -0.04224986 0.17288412 0.16742928 -0.10742199
000370 6f a2 20 be 54 8b d1 bd e5 3c 02 3e b0 00 d3 bc
       -0.15686963 -0.10231653 0.12718542 -0.025757164
000380 6c 46 83 3d cb 87 2b 3e 18 b9 11 3d 98 88 7e 3d
       0.06409916 0.1675102 0.03557691 0.062141985
000390 c5 6b 00 be 86 56 32 be 0e 46 a4 3d 40 4c 70 3d
       -0.12541111 -0.17415819 0.08021174 0.058666468
0003a0 88 0e 71 3d a2 65 9a bd 17 51 b6 bd 97 85 04 be
       0.05885175 -0.07538916 -0.089021854 -0.12941585
0003b0 88 3b ca 3c 91 56 02 be 00 83 0b be c0 50 30 3c
       0.02468659 -0.12728335 -0.13624191 0.01076144
0003c0 3c 03 6a bd 93 22 1d be 48 66 8e 3c 0d c8 06 3e
       -0.05713199 -0.1534522 0.017382756 0.13162251
0003d0 4c b9 0d 3d a8 c1 95 bc 1a ce cb 3d 3e 41 15 be
       0.03460054 -0.018280819 0.0995142 -0.14575669
0003e0 f0 e6 66 bc 2c a4 0d bd 65 f0 2d 3e 6b ec f8 bd
       -0.014093146 -0.034580395 0.16986234 -0.12154468
0003f0 e6 cb 59 bd 90 02 2d bd c8 36 e3 3c 36 6d 92 3d
       -0.05317297 -0.042238772 0.027736083 0.071497366

functional_1/conv1d_1/convolution/ExpandDims_1:0 f4 [64, 30, 1, 1]
000000 d9 37 06 be 13 ed 1d 3e c6 fb 7c be ee 49 49 3d
       -0.13107242 0.15422468 -0.24705419 0.04914277
000010 a0 1e 55 be ae f8 82 bd df 8e 63 3d aa 22 2f be
       -0.20812464 -0.06395088 0.055556174 -0.17103067
000020 f3 32 0e 3e 76 13 c3 bd aa 13 df 3d e1 60 97 3c
       0.13886623 -0.09525196 0.108924225 0.018478813
000030 90 31 70 3d 28 e8 61 bb 7e 39 31 3e 0c 0f ef 3d
       0.058641016 -0.0034470651 0.17307088 0.11672792
000040 3c e3 d8 3d dd ee 00 be 5e b6 53 3e 3e ec 1f 3d
       0.105902165 -0.12591119 0.20675036 0.039043657
000050 67 7b 53 be 5c 42 5c 3e ae 18 b1 bd 36 38 7b 3d
       -0.20652543 0.21509689 -0.086472854 0.061332904
000060 ec 1f b4 3d e8 c0 08 be 15 d3 e0 bd 66 6f 3d be
       0.08795151 -0.13354838 -0.10977761 -0.18499526
000070 e5 95 45 3e a6 e7 ae bd 86 3a 03 3e 3a 55 6c be
       0.19295461 -0.08540277 0.12815294 -0.23079386
000080 2c 37 50 bd e5 d4 57 be da ef b9 bd d0 7a b6 bc
       -0.050833866 -0.21077307 -0.09078951 -0.022275358
000090 ac 54 e1 bd 80 54 7e 3c d4 0a 46 3e 0e 04 d2 bd
       -0.11002478 0.015523076 0.19340068 -0.102546796
0000a0 b8 dc f3 bc c1 de 5d be b8 84 6c 3d 3a 25 59 be
       -0.029768333 -0.21667005 0.057743758 -0.21205607
0000b0 f4 d7 23 3e 10 a6 ff 3c 1d 58 05 be 7c ed 55 bd
       0.16000348 0.031207114 -0.13021894 -0.052228436
0000c0 48 ec 8c bc eb 74 75 be be f1 82 bd 64 6d 81 3d
       -0.017202511 -0.23970382 -0.06393765 0.06319693
0000d0 b8 1f 1b 3e 34 8f d1 bd 38 7c 2f 3e 46 d5 6e 3e
       0.15148818 -0.10232392 0.1713723 0.23323545
0000e0 74 80 34 be e0 3d 56 3d 30 cd 05 3d 64 d5 17 bd
       -0.17627126 0.052305102 0.032666385 -0.03706874
0000f0 2e 25 28 3d fd c4 3a be 92 97 81 be 9c 43 12 3e
       0.041051082 -0.18239208 -0.2531095 0.14283603
000100 47 88 11 bd a2 34 32 3e 94 05 e3 bd dc c4 4d 3e
       -0.035530355 0.1740289 -0.11085048 0.20094627
000110 b2 10 11 be 87 9d 50 be d2 55 33 3e 7a 47 09 3e
       -0.14166525 -0.20372592 0.17513207 0.13406172
000120 d6 b5 30 3e bd 16 f2 3d 2d fd 78 be 63 74 8c bd
       0.17256865 0.11820743 -0.24315329 -0.068581365
000130 57 8c 01 3e d5 55 78 3e c5 8c c2 3d 03 f5 8d bd
       0.12651192 0.24251492 0.09499506 -0.06931498
000140 25 ae 45 3e 80 6e 34 be 2c b6 a0 3d 9f c3 dd 3d
       0.19304712 -0.17620277 0.078472465 0.108283274
000150 13 4b 5f 3e a4 21 7b be aa cb 4a 3e b3 d6 33 3e
       0.21805982 -0.24524552 0.19804254 0.1756237
000160 70 9b 6c be cb e0 1e 3e 8e b1 40 be 7c 66 cf 3d
       -0.2310617 0.15515439 -0.18817732 0.10126969
000170 2b a4 80 3e c8 3f 6f 3e 88 8b c5 bd 82 18 6b 3e
       0.2512525 0.23364174 -0.09645754 0.22958568
000180 02 af 3a 3e 62 77 a0 bd 36 60 2a 3e 86 ee 6e 3e
       0.18230823 -0.078352705 0.16638264 0.23333177
000190 50 1e 41 bd 05 55 3c be 00 40 52 b9 ea 98 3d be
       -0.04714805 -0.18391807 -0.00020051003 -0.18515363
0001a0 d4 eb 41 be 48 f2 d9 bd 44 07 93 3d 10 91 0d 3d
       -0.18937618 -0.106419146 0.0717912 0.03456217
0001b0 82 f0 da bd 10 8f 76 3d 00 9e 48 be fa 1e 7f 3e
       -0.106904045 0.06019503 -0.19591522 0.2491416
0001c0 d6 e5 de bd 31 91 6b be f0 1c 11 bd c8 0f 43 bd
       -0.108836815 -0.23004605 -0.035427988 -0.047622472
0001d0 01 60 7d be 22 36 41 3e fc 43 27 3e c6 cb 03 3e
       -0.24743654 0.18868306 0.16334528 0.12870702
0001e0 dd c8 93 3d f9 b5 61 3e f8 7b b2 3c 33 b6 f0 3d
       0.07216046 0.22042073 0.021787629 0.11753502
0001f0 aa ff 4e be b3 0f a4 bd 09 e9 b6 bc 6f 3d af 3d
       -0.20214716 -0.08010807 -0.022327917 0.085566394
000200 f2 35 8c 3d 7f c5 7d be de e7 18 3e b4 56 6d 3e
       0.06846227 -0.2478237 0.149322 0.23177606
000210 ce 86 4f bd 1b a6 20 3e 82 45 ac bc 7d ab 20 be
       -0.05066567 0.15688364 -0.021029238 -0.15690418
000220 ca fc 5f bd 88 38 5f 3e 19 4d b2 3d 3f 6d d4 3d
       -0.054684438 0.21798909 0.087061115 0.103723995
000230 4c e4 aa 3d db 18 99 3d 7b 4f 3d 3e a3 aa 7e be
       0.083443254 0.07475444 0.1848735 -0.2486978
000240 0d e8 c6 3d 2e bd 36 3d 61 68 07 be e0 76 29 be
       0.09712229 0.04461401 -0.13223411 -0.16549253
000250 89 39 e6 3d c4 de af bc 80 b8 41 3e 41 c9 31 3e
       0.11241443 -0.021468528 0.18918037 0.17361929
000260 f1 fc 5d be 1b 55 43 3e ac 05 68 be 6d ca fa 3d
       -0.2167852 0.19075434 -0.22658414 0.12245641
000270 fa cc 08 be 2f fc 03 be a2 d8 56 3d b8 76 40 3e
       -0.13359442 -0.12889169 0.05245269 0.18795288
000280 be 2e 36 bd fd 78 60 3e af 3f 69 be 53 9b 72 be
       -0.04447817 0.21921153 -0.227782 -0.23692064
000290 df 5c 9d bd 4c cf cb bd 5d ed 00 be 33 dc 4a be
       -0.076837294 -0.09951648 -0.12590547 -0.19810562
0002a0 aa f4 50 3e 6c 10 8b bd 3c 3a 02 3e cb fa 01 be
       0.20405832 -0.067902416 0.12717527 -0.12693326
0002b0 09 56 22 3e 4a 6c b0 bd 83 e2 8f bc 63 02 82 3d
       0.15853132 -0.086144045 -0.017564064 0.063481115
0002c0 36 50 e6 3d 9c b3 12 3c da 70 7a be f2 d3 ea 3d
       0.11245768 0.008953955 -0.24457112 0.114662066
0002d0 02 00 24 3e 57 75 a4 bc 02 a5 66 bd c7 88 82 bd
       0.16015628 -0.020075483 -0.056309707 -0.063737445
0002e0 6f 1c 12 3d b4 af f0 bd cb 60 24 bd 33 63 98 bb
       0.035671648 -0.11752263 -0.04013137 -0.0046504973
0002f0 62 dc a1 3d 08 7b 02 3e 64 ce e9 3d b1 18 61 3e
       0.07903363 0.12742245 0.11416319 0.21982075
000300 24 52 d4 bd 23 9b 65 3e 3b c0 af 3d 1d d5 3f 3e
       -0.103672296 0.22422461 0.08581587 0.1873364
000310 00 67 88 be 06 11 ff bc 10 bf a9 3d 50 26 3d bd
       -0.26641083 -0.031136047 0.082883954 -0.046179116
000320 dd ba 46 3e e2 d3 c8 3c 98 f5 1c 3e 30 62 e8 3d
       0.1940722 0.024515096 0.15328062 0.11346853
000330 da a6 15 3d c4 a6 89 bd 21 e3 8b bd 1e 41 19 be
       0.036536075 -0.06721261 -0.06830431 -0.14966246
000340 07 2a 7c be 3c 76 38 3e 30 fb 19 be 0a 69 6f be
       -0.24625407 0.18013853 -0.15037227 -0.23379913
000350 20 3c 0d be 3a b4 0f be 62 89 09 be 40 bc 0d be
       -0.13792467 -0.14033595 -0.13431314 -0.13841343
000360 60 67 5b 3c d8 72 7e 3d 7a df 04 3e a8 fd 00 bd
       0.013391346 0.062121242 0.12975875 -0.031491905
000370 9c 6d b4 bd 56 4c 4e be 9c d3 83 3d 5e 6f 4f be
       -0.08809969 -0.20146307 0.06436846 -0.20257327
000380 90 c5 6b bc 4a c0 29 3e 22 39 71 be c4 15 d3 3d
       -0.014390364 0.16577259 -0.2355695 0.10306886
000390 00 30 6a 39 d2 fa 19 be 56 b5 86 bd cc 36 27 be
       0.0002233386 -0.15037087 -0.06577556 -0.16329497
0003a0 b0 d7 4f bc 80 2b 29 bc a0 cd 8d bc 68 ef 5b 3d
       -0.012685701 -0.010325313 -0.017309964 0.053695112
0003b0 88 ea b6 3d 68 03 2d be d0 8a 21 bc 3c 0c 39 3e
       0.08931452 -0.1689583 -0.009859756 0.18071073
0003c0 90 2d d5 bd ae 12 6d 3e bc d5 6d 3e e6 19 13 be
       -0.10409081 0.23151657 0.23226064 -0.14365348
0003d0 94 92 b2 3d 08 ee 15 3d 74 55 f0 3d 2d 74 00 be
       0.08719364 0.036603957 0.11735049 -0.12544318
0003e0 d4 3b 54 3e 84 7f 8a 3d be 1a 20 be 5e ea 14 3e
       0.20725948 0.06762603 -0.15635201 0.14542529
0003f0 44 98 c0 3d 5b b1 5b be 6a fa 34 be 26 17 dd bd
       0.09404042 -0.21454374 -0.1767365 -0.10795431

const_fold_opt__184 f4 [1, 256, 1]
000000 a2 bc 01 3c 00 00 00 00 00 00 00 00 bf c5 02 3c
       0.007918509 0.0 0.0 0.007981717
000010 3c ef 26 3b 49 ad b3 ba 00 00 00 00 4e 46 1e 3c
       0.0025472185 -0.0013708259 0.0 0.009660317
000020 4f 6d db bb 2b 7e 7a 3b 05 49 91 bb ab 2c c3 bb
       -0.00669638 0.0038222175 -0.0044337534 -0.0059562526
000030 00 00 00 00 72 e0 2b 3c 00 00 00 00 00 00 00 00
       0.0 0.010490524 0.0 0.0
000040 7e 02 17 3b 6b c0 13 3c 40 e1 17 3c 70 67 c3 bb
       0.0023042257 0.009018044 0.009270012 -0.0059632584
000050 ba ec 06 bc 00 00 00 00 ab 8e a2 bb 00 00 00 00
       -0.008235151 0.0 -0.004960855 0.0
000060 55 c5 05 3c 00 00 00 00 00 00 00 00 78 c8 09 3c
       0.008164723 0.0 0.0 0.008409612
000070 00 00 00 00 f8 e9 b4 3b f9 0a 14 3c cc 2d cb bb
       0.0 0.0055210553 0.009035819 -0.006200528
000080 76 69 07 3c 3f 06 36 3b 00 00 00 00 89 1c 47 bb
       0.00826489 0.002777472 0.0 -0.0030381999
000090 00 00 00 00 00 00 00 00 e1 0c e5 bb 0d 6b c0 bb
       0.0 0.0 -0.0069900607 -0.0058721364
0000a0 f3 96 1b 3c 9b 56 a3 bb a5 09 06 bc 00 00 00 00
       0.009496438 -0.0049846894 -0.00818101 0.0
0000b0 4b 4c fb 3b 00 00 00 00 00 00 00 00 00 00 00 00
       0.007669007 0.0 0.0 0.0
0000c0 a7 70 c3 bb 00 00 00 00 ff a0 08 bc 17 fd fe bb
       -0.005964357 0.0 -0.008339166 -0.0077816355
0000d0 d5 3d e3 bb 79 5d 11 bc af 45 0c 3c 00 00 00 00
       -0.006934861 -0.008872383 0.008561536 0.0
0000e0 ad c0 8f bb 62 29 5f 3a 07 ea cb bb 00 00 00 00
       -0.0043869824 0.00085129414 -0.0062229666 0.0
0000f0 00 00 00 00 ec 5c d1 3b 80 8d a8 bb 00 00 00 00
       0.0 0.006389251 -0.0051438212 0.0
000100 d7 1e a6 3b 49 a2 00 3c 4c aa 11 3c 00 00 00 00
       0.0050695944 0.007851192 0.0088907 0.0
000110 7c 2f 95 ba ab 09 b1 bb 75 89 58 3b fc 2c 1c bc
       -0.0011381949 -0.005402764 0.0033040915 -0.0095322095
000120 96 c6 e4 3b 00 00 00 00 00 00 00 00 4b ed e5 3b
       0.006981681 0.0 0.0 0.007016813
000130 15 e0 73 3b 97 2b 0f 3c a1 32 d3 3a 00 00 00 00
       0.003721242 0.00873842 0.0016113111 0.0
000140 98 b7 17 3c 00 00 00 00 00 00 00 00 16 70 c3 bb
       0.009260081 0.0 0.0 -0.0059642894
000150 12 a5 dd 3b c0 7e 05 bc c4 24 0e bb 00 00 00 00
       0.0067640627 -0.008147895 -0.0021689394 0.0
000160 00 00 00 00 00 00 00 00 00 00 00 00 00 00 00 00
       0.0 0.0 0.0 0.0
000170 5e 4b c3 bb 00 00 00 00 71 1c c3 bb 0b 1a a6 bb
       -0.005959912 0.0 -0.005954318 -0.0050690225
000180 53 3f 0e bc c0 b5 7d 3b 00 00 00 00 dc b4 c0 bb
       -0.00868209 0.0038713068 0.0 -0.005880935
000190 34 00 f6 bb 00 00 00 00 1f c3 09 3c 65 e7 f9 bb
       -0.0075073484 0.0 0.008408337 -0.0076264613
0001a0 2f ca d9 3b 00 00 00 00 3b 93 1e bc 53 90 46 3b
       0.0066464166 0.0 -0.009678657 0.0030298426
0001b0 00 00 00 00 b5 0b 0d bc 00 00 00 00 bb ca ca bb
       0.0 -0.008608748 0.0 -0.006188718
0001c0 f2 12 71 3a 7f 3d 18 bc 74 43 02 39 00 00 00 00
       0.00091962435 -0.009292006 0.00012422894 0.0
0001d0 a0 a5 e9 3b db f2 e7 bb 4d eb a8 bb 15 f7 3a bc
       0.0071303397 -0.007078511 -0.005155003 -0.011411448
0001e0 00 00 00 00 00 00 00 00 d7 f6 ad bb 89 ba 8e 3b
       0.0 0.0 -0.0053089666 0.004355733
0001f0 b3 87 19 bb 59 8f 9e bb 00 00 00 00 00 00 00 00
       -0.002342683 -0.0048388657 0.0 0.0
000200 00 00 00 00 eb 88 5f 3b e0 52 79 bb 00 00 00 00
       0.0 0.003410871 -0.0038043782 0.0
000210 eb f0 17 3b 00 00 00 00 52 a3 0f 3b 00 00 00 00
       0.002318437 0.0 0.0021917415 0.0
000220 58 cc 5e bb 27 da 9f 3b e1 d1 df bb 00 00 00 00
       -0.003399631 0.0048783007 -0.0068304394 0.0
000230 bf 1d 97 bb 00 00 00 00 00 00 00 00 37 7f 04 3c
       -0.0046117003 0.0 0.0 0.008086971
000240 b6 8b 83 bb 9a 86 2a bc f3 71 c3 bb 00 00 00 00
       -0.0040144576 -0.010408068 -0.0059645115 0.0
000250 17 1c 9a 3b d0 72 c3 bb 00 00 00 00 86 e2 cd 3b
       0.0047030556 -0.0059646145 0.0 0.006283107
000260 ac b8 cf bb 66 d2 f8 3b 00 00 00 00 00 00 00 00
       -0.0063391533 0.007593441 0.0 0.0
000270 00 00 00 00 00 00 00 00 6f 0e 0f bb fb 78 0f bc
       0.0 0.0 -0.0021828671 -0.008756871
000280 c0 d8 05 bc 37 0f c5 3b 00 00 00 00 00 00 00 00
       -0.008169353 0.0060137766 0.0 0.0
000290 00 00 00 00 00 00 00 00 cb 86 c8 3b 14 1b 04 3c
       0.0 0.0 0.006119584 0.008063097
0002a0 00 00 00 00 00 00 00 00 22 19 c2 3b b2 6d 0a 3c
       0.0 0.0 0.005923406 0.008449005
0002b0 00 00 00 00 95 4d 86 bb 00 00 00 00 00 00 00 00
       0.0 -0.004098604 0.0 0.0
0002c0 00 00 00 00 00 00 00 00 00 00 00 00 00 00 00 00
       0.0 0.0 0.0 0.0
0002d0 00 00 00 00 d3 df a4 bb 00 00 00 00 20 cf 10 bc
       0.0 -0.0050315647 0.0 -0.008838445
0002e0 00 00 00 00 d2 68 9c bb a7 c9 ed 3b 46 a4 be 3b
       0.0 -0.0047732377 0.007256705 0.0058179228
0002f0 ad 02 2f bc aa 17 12 3c 00 00 00 00 76 d5 c8 3b
       -0.01068179 0.008916775 0.0 0.006128962
000300 f3 5b c4 bb 0e e2 49 bb 00 00 00 00 0e 4d 9b bb
       -0.0059924065 -0.0030804905 0.0 -0.0047394102
000310 e0 f1 5e bb 3e 01 fa bb 87 9c 4f 3b 05 71 0c 3c
       -0.003401868 -0.0076295426 0.003167899 0.008571868
000320 e5 72 0f 3c 7e dc a4 3a 00 00 00 00 c9 f7 cb bb
       0.00875542 0.0012577919 0.0 -0.0062246067
000330 ef a5 45 3b 00 00 00 00 f6 aa 95 bb 00 00 00 00
       0.0030158719 0.0 -0.0045674993 0.0
000340 00 00 00 00 29 66 a8 3a b3 77 1f bc 0a 68 c3 bb
       0.0 0.0012847829 -0.009733128 -0.00596333
000350 00 00 00 00 7c 22 c3 bb 24 fe 66 bb 7a 66 08 3c
       0.0 -0.0059550386 -0.0035246694 0.008325214
000360 81 7f b9 bb 15 a1 cc 3b 00 00 00 00 a5 64 ec b9
       -0.0056609516 0.0062447884 0.0 -0.00045088414
000370 06 4b ea 3b de fc 85 ba 00 00 00 00 88 78 0c 3c
       0.007150057 -0.0010222455 0.0 0.008573659
000380 9d 0c bf bb 3b 7a 08 bc b6 43 de 3b 00 00 00 00
       -0.005830361 -0.008329923 0.006782974 0.0
000390 00 00 00 00 00 00 00 00 86 23 17 3c 92 ef af 3b
       0.0 0.0 0.009224778 0.005369135
0003a0 7c e5 df 3b 6d f5 1a 3c f0 5c e0 bb 01 2c b6 bb
       0.0068327766 0.009457928 -0.0068470165 -0.005559445
0003b0 00 00 00 00 a8 3c 11 3c ab 71 b2 bb 00 00 00 00
       0.0 0.008864559 -0.005445679 0.0
0003c0 00 00 00 00 00 00 00 00 97 82 15 3c 71 1d 61 3b
       0.0 0.0 0.009125373 0.0034349824
0003d0 68 89 c8 bb c6 54 34 bb c3 2e 08 3c 1b 5d 8d 3b
       -0.0061198957 -0.002751635 0.00831193 0.0043140776
0003e0 f3 48 eb bb 00 00 00 00 0f ac ce bb 00 00 00 00
       -0.007180327 0.0 -0.006307132 0.0
0003f0 dc 17 ef 3b a9 78 1a 3c 9f d3 29 ba 95 c1 93 bb
       0.0072965454 0.009428182 -0.00064783724 -0.0045091608
