NN_model/models/lightprobe_model.onnx (onnx, 837079 bytes, 11 tensors)

functional_1/conv1d_5_1/convolution/ExpandDims_1:0 f4 [1, 128, 1, 1]
-0.0011006831 0.09857018 -0.056574423 0.042154234 0.037624776 -0.04200467 0.19562984 0.008000439
-0.082047954 -0.081231475 -0.18152541 0.0040626815 0.09348932 0.057520702 0.15055498 0.17820697
-0.15586394 0.089119956 -0.21064112 0.104131475 -0.04626338 0.08432617 -0.18374911 0.027295038
0.025002077 -0.20233795 -0.095370635 -0.06562519 -0.13942626 0.011433332 -0.21724205 -0.17993729
0.19829512 0.13166419 0.037406858 0.063675396 0.06454522 0.0025184639 -0.17005028 0.18449327
-0.182776 -0.1434252 -0.02920843 -0.11502554 0.029498175 0.031000543 0.17530972 0.046141893
-0.07413714 -0.032367382 -0.17880437 -0.21374016 -0.108293034 -0.14851987 -0.0883775 -0.1374927
0.18095504 0.025576264 -0.0032004311 -0.064110674 0.026752613 -0.095489204 0.19632229 0.17415538
-0.045837216 -0.16236012 -0.15407562 0.011396229 -0.11910126 0.018469464 -0.21210895 0.11283346
-0.06294671 0.0431574 -0.20902765 0.13855429 0.0433758 -0.19135427 0.12477467 0.14220697
-0.12061759 0.19854195 -0.20976505 -0.0018772839 -0.0936689 0.13744473 0.15682238 -5.2846728e-05
0.08346765 0.097765245 0.06873515 0.03175305 0.104389936 -0.18586974 0.021424375 -0.12333737
0.08294964 -0.0851581 -0.18545729 -0.022612393 0.13087548 0.17714767 -0.11847287 -0.030133547
0.07430792 0.088041134 0.18672574 0.010791136 0.09070471 0.14063343 0.0043734275 0.14203675
0.048110653 -0.10355872 0.05876855 -0.11451427 0.15702906 0.10144228 0.12553722 0.10137689
0.1265121 -0.204889 -0.025726378 -0.060831003 -0.10405762 -0.1352119 0.19392666 -0.0042909384
00000000: cc44 90ba 2adf c93d 95ba 67bd eba9 2c3d
00000010: 701c 1a3d 170d 2cbd 3053 483e 4614 033c
00000020: c208 a8bd b05c a6bd cce1 39be 3e20 853b
00000030: 5477 bf3d d49a 6b3d 162b 1a3e e37b 363e
00000040: cc9a 1fbe 8684 b63d 4eb2 57be e242 d53d
00000050: ac7e 3dbd 33b3 ac3d ba28 3cbe d899 df3c
00000060: 28d1 cc3c ae31 4fbe ae51 c3bd 8066 86bd
00000070: c2c5 0ebe df52 3b3c b374 5ebe 7b41 38be
00000080: e00d 4b3e fad2 063e ef37 193d 3f68 823d
00000090: 4930 843d d00c 253b a921 2ebe ceeb 3c3e
000000a0: a229 3bbe 0ede 12be 8446 efbc 8392 ebbd
000000b0: 28a6 f13c daf4 fd3c 6484 333e 48ff 3c3d
000000c0: 36d5 97bd a993 04bd 7e18 37be b3de 5abe
000000d0: bdc8 ddbd 9815 18be 43ff b4bd e3ca 0cbe
000000e0: 474c 393e 5085 d13c 53be 51bb 754c 83bd
000000f0: 4c28 db3c d88f c3bd b608 493e ca55 323e
00000100: cebf 3bbd bb41 26be 00c6 1dbe 40b7 3a3c
00000110: 5deb f3bd 464d 973c 1733 59be 3b15 e73d
00000120: 34ea 80bd d0c5 303d 580b 56be 2de1 0d3e
00000130: d3aa 313d 60f2 43be dd89 ff3d b49e 113e
00000140: 5b06 f7bd 954e 4b3e a6cc 56be 320f f6ba
00000150: 7bd5 bfbd 50be 0c3e 0c96 203e bea7 5db8
00000160: 16f1 aa3d 2539 c83d 04c5 8c3d 7c0f 023d
00000170: 64ca d53d a354 3ebe 2c82 af3c 4e98 fcbd
00000180: 80e1 a93d 5f67 aebd 84e8 3dbe a03d b9bc
00000190: 3904 063e 3366 353e e7a1 f2bd a1da f6bc
000001a0: c02e 983d e94e b43d 0835 3f3e 4ecd 303c
000001b0: 64c3 b93d 3602 103e f84e 8f3b 1572 113e
000001c0: ad0f 453d 9816 d4bd 4bb7 703d 7586 eabd
000001d0: 3acc 203e f8c0 cf3d d48c 003e b09e cf3d
000001e0: 638c 013e 6cce 51be 20c0 d2bc ee29 79bd
000001f0: 291c d5bd fd74 0abe b694 463e 009b 8cbb

functional_1/conv1d_4_1/convolution/ExpandDims_1:0 f4 [128, 256, 1, 1]
-0.028224234 -0.068829976 -0.05171696 0.10068753 0.09643989 -0.08687076 -0.112705976 0.08068472
-0.12769145 -0.106719345 -0.061228923 0.093798876 -0.11214809 -0.025492562 0.019762455 0.08705163
0.06870829 0.089518964 0.055190817 0.04222084 0.10181144 -0.076701134 -0.099239424 -0.08058569
0.037218526 -0.06639298 0.09086034 -0.015866637 0.0857631 -0.122379474 -0.06847627 -0.086077124
-0.09214574 -0.13159175 0.102261394 0.116430014 0.03444612 -0.0469867 0.00057029724 0.0602207
-0.048926976 -0.0110034635 0.069081135 0.031629864 -0.016447317 0.11456559 -0.06210804 0.002588898
-0.119695514 0.033134043 -0.02528055 0.01220727 -0.12315593 0.051825445 -0.023337483 0.119384706
-0.05394776 -0.045477748 -0.051111847 -0.02647093 -0.093211144 0.08870429 -0.04000345 0.100541346
-0.016150782 -0.036949977 0.088708244 0.09194548 -0.0004492104 0.067450434 0.042414222 0.059134185
0.1001452 -0.10015842 -0.013769556 0.099016994 0.07415121 -0.03979382 -0.098573536 0.054105937
0.027070893 -0.09897873 -0.12122753 -0.008051164 0.09932264 0.06202889 -0.10869709 0.10777762
-0.07825427 -0.104064986 -0.029154122 0.0013630092 0.094332494 0.023906156 -0.05102235 0.08252284
-0.06925111 0.098829865 0.03400737 -0.051478755 0.056367636 -0.11166483 0.11232731 -0.058578867
0.038772378 0.06559708 0.09547868 -0.069644764 -0.02014485 -0.10322676 0.054594018 0.100072175
0.038027007 -0.054768976 -0.02267008 0.01574703 0.096652865 -0.050332516 0.10260855 -0.08479977
-0.005956739 0.10547164 0.11480376 -0.01975042 0.08627227 -0.044377506 0.076505795 0.087276794
-0.082789764 0.032260682 0.035050727 -0.10135358 -0.02497834 0.0910606 -0.079878986 -0.02007832
0.07358866 -0.1169208 0.087408155 -0.09836814 -0.10504394 -0.025361717 0.026596105 0.069378644
-0.09990483 -0.028048813 -0.07396485 -0.07685885 -0.0111757815 -0.089645326 -0.020044811 0.1037287
-0.06573535 0.078684814 0.068541855 0.059266638 0.0604524 0.0006297351 0.10579946 0.022754133
0.09214696 -0.08325389 -0.08181224 -0.07913687 0.03418913 -0.061631978 -0.03966521 0.038800385
0.09971322 0.074481845 0.03526184 0.031341374 0.083747484 0.085698746 -0.0963121 0.08815336
0.02579509 -0.09199316 -0.068353444 -0.057269983 -0.09370378 0.062136002 0.06387094 -0.024610503
0.061164517 0.061859354 -0.07184443 -0.043717504 -0.09435854 -0.017491648 -0.07185467 0.094263405
-0.005994104 -0.024722755 0.0819716 0.09271988 0.0365718 -0.048946287 -0.048179626 0.031205937
-0.06237365 0.08172366 -0.10577286 -0.070302926 0.09698048 -0.048194915 -0.08449966 0.0682968
0.0027070045 0.10238412 0.08462322 -0.030011982 0.08657473 -0.006984949 0.07592377 0.050545543
0.12399751 0.094439335 0.10965979 0.05777511 0.039937623 0.0065645827 0.060731083 -0.100549325
0.088294744 -0.0030246675 -0.11223382 -0.08888458 0.09809591 -0.022919387 0.020147527 -0.098093495
-0.05788038 0.095387086 -0.015584022 -0.091014594 -0.11711824 0.1179333 0.12266371 0.0021244586
-0.060805727 0.047770645 -0.08719444 0.103456065 0.03687854 0.014376163 0.025898434 0.083184056
0.0033544274 -0.09117707 -0.073696174 -0.084197596 -0.055095095 -0.07595442 -0.122134775 0.0824881
00000000: 8236 e7bc bbf6 8cbd 2ad5 53bd 4435 ce3d
00000010: 4782 c53d 4ce9 b1bd 64d2 e6bd 083e a53d
00000020: 8cc1 02be ac8f dabd 2ecb 7abd a019 c03d
00000030: e6ad e5bd c7d5 d0bc dfe4 a13c 2048 b23d
00000040: efb6 8c3d b855 b73d c40f 623d c2ef 2c3d
00000050: 8482 d03d 7c15 9dbd 0a3e cbbd 1c0a a5bd
00000060: 7472 183d 0bf9 87bd fc14 ba3d c0fa 81bc
00000070: 90a4 af3d 17a2 fabd 493d 8cbd 3449 b0bd
00000080: e8b6 bcbd fdbf 06be 6c6e d13d dc72 ee3d
00000090: 6017 0d3d 2075 40bd 0080 153a fba9 763d
000000a0: a767 48bd df47 34bc 697a 8d3d 518e 013d
000000b0: 86bc 86bc 5da1 ea3d 0065 7ebd 80aa 293b
000000c0: ec22 f5bd 90b7 073d 2819 cfbc 0001 483c
000000d0: 2d39 fcbd eb46 543d 402e bfbc f87f f43d
000000e0: 54f8 5cbd e046 3abd a85a 51bd 90d9 d8bc
000000f0: 7ce5 bebd 98aa b53d a8da 23bd 9fe8 cd3d
00000100: a54e 84bc dc58 17bd abac b53d e94d bc3d
00000110: 0084 ebb9 7423 8a3d 89ba 2d3d b036 723d
00000120: ed18 cd3d dc1f cdbd b499 61bc 6cc9 ca3d
00000130: 97dc 973d d8fe 22bd ece0 c9bd 309e 5d3d
00000140: c7c3 dd3c 5cb5 cabd 2446 f8bd 08e9 03bc
00000150: ab69 cb3d 0112 7e3d 949c debd 83ba dc3d
00000160: c643 a0bd 0620 d5bd a0d4 eebc 00a7 b23a
00000170: 6531 c13d d8d6 c33c d0fc 50bd bc01 a93d
00000180: 87d3 8dbd 5067 ca3d 504b 0b3d 63db 52bd
00000190: c0e1 663d 88b0 e4bd dc0b e63d 65f0 6fbd
000001a0: c9cf 1e3d c357 863d 548a c33d eaa1 8ebd
000001b0: d006 a5bc 8d68 d3bd fa9d 5f3d a4f2 cc3d
000001c0: 35c2 1b3d 6f55 60bd 9bb6 b9bc eaff 803c
000001d0: f0f1 c53d 7829 4ebd 6e24 d23d 80ab adbd
000001e0: c030 c3bb 8401 d83d 3c1e eb3d a2cb a1bc
000001f0: 84af b03d 30c5 35bd 12af 9c3d 2dbe b23d
00000200: ae8d a9bd c723 043d 5a91 0f3d 7792 cfbd
00000210: 609f ccbc fb7d ba3d 9897 a3bd 4a7b a4bc
00000220: a7b5 963d 2c74 efbd 0c03 b33d 3c75 c9bd
00000230: 4721 d7bd 60c3 cfbc 13e0 d93c 6416 8e3d
00000240: e79a ccbd a0c6 e5bc e27a 97bd 2c68 9dbd
00000250: a01a 37bc f897 b7bd 0435 a4bc b66f d43d
00000260: 41a0 86bd 8125 a13d ac5f 8c3d 93c1 723d
00000270: f09c 773d cf14 253a 63ad d83d e066 ba3c
00000280: 8cb7 bc3d 0481 aabd 2d8d a7bd 8312 a2bd
00000290: e709 0c3d d071 7cbd fd77 22bd 27ed 1e3d
000002a0: 7236 cc3d f089 983d b86e 103d d05f 003d
000002b0: cd83 ab3d d382 af3d 473f c5bd c089 b43d
000002c0: 3950 d33c e966 bcbd e4fc 8bbd ee93 6abd
000002d0: c4e7 bfbd 5282 7e3d c4ce 823d f79b c9bc
000002e0: a587 7a3d 3c60 7d3d 2c23 93bd 2011 33bd
000002f0: 0d3f c1bd a54a 8fbc 8b28 93bd 2c0d c13d
00000300: 306a c4bb 6087 cabc bae0 a73d ece3 bd3d
00000310: 50cc 153d e77b 48bd 0058 45bd 98a3 ff3c
00000320: 837b 7fbd bc5e a73d 719f d8bd fbfa 8fbd
00000330: b49d c63d 0868 45bd 280e adbd 31df 8b3d
00000340: 0068 313b c4ae d13d f04e ad3d b0db f5bc
00000350: 184e b13d 00e2 e4bb ec7d 9b3d d808 4f3d
00000360: 68f2 fd3d 6969 c13d 5095 e03d 98a5 6c3d
00000370: a295 233d b61b d73b 28c1 783d ceec cdbd
00000380: e0d3 b43d 8039 46bb d8da e5bd 1e09 b6bd
00000390: 82e6 c83d 70c1 bbbc 6d0c a53c 3ee5 c8bd
000003a0: fa13 6dbd 4e5a c33d 2054 7fbc dc65 babd
000003b0: b0db efbd 0487 f13d 1c37 fb3d 803a 0b3b
000003c0: 6d0f 79bd 27ab 433d 0093 b2bd c6e0 d33d
000003d0: f40d 173d ff89 6b3c f428 d43c 675c aa3d
000003e0: f4d5 5b3b 0bbb babd 05ee 96bd ca6f acbd
000003f0: 65ab 61bd fe8d 9bbd cc21 fabd 85ef a83d

functional_1/conv1d_3_1/convolution/ExpandDims_1:0 f4 [256, 512, 1, 1]
-0.07223411 -0.050954945 -0.02569554 -0.01871965 -0.08698087 0.01632687 -0.08466053 0.054407228
-0.0331142 -0.08888753 -0.07118683 -0.08100363 0.07589281 0.03585249 0.05450092 -0.0422327
-0.06529266 -0.074813455 -0.093588986 0.007668475 0.06330745 0.071786515 -0.056232095 -0.07928566
0.053326003 0.041335 -0.018578477 -0.0260271 -0.08538319 -0.057453845 -0.063747555 -0.010364688
0.07688559 0.0028684612 0.064171545 -0.010778547 -0.06328032 -0.053493913 -0.065804675 -0.011279911
0.012129529 -0.096304506 0.07469076 0.01218088 0.02094359 0.029503427 0.019486185 0.046022367
0.0010724374 0.033533335 -0.01054745 0.082648434 0.031059964 0.023283888 0.06703478 0.017971903
-0.04408082 -0.06368678 0.071056865 0.0670946 0.03224746 -0.022306852 0.026501916 0.02127116
-0.030703537 -0.03976465 -0.0134168565 0.037379496 0.02521015 -0.03684081 0.05462516 -0.091930464
0.0039445832 0.040753454 0.08012318 -0.021159858 0.01141273 -0.029332815 -0.018788835 -0.01612556
0.015024969 0.014220028 -0.0036470518 0.023848899 -0.06992784 -0.052744653 0.03995818 0.019530663
0.07959682 0.0016526486 -0.07459543 0.0013006553 0.05571198 -0.019099297 -0.059202783 -0.07619062
-0.06421086 0.052260708 0.073315896 -0.011842813 -0.014410384 0.07438617 -0.07876336 -0.030333573
-0.004742019 -0.034275603 0.03869801 -0.013278622 -0.0539266 0.06426959 -0.0036257703 0.02512458
0.054786377 -0.025315523 -0.040305935 0.089484 -0.08798047 0.06544008 -0.023249634 0.05689519
-0.07930347 0.04688669 0.02495129 -0.04490395 0.0523882 0.009191468 0.010467552 0.012229088
-0.084671944 -0.065192826 -0.06825291 -0.033371203 -0.008842201 -0.038300954 0.011985213 0.028418735
-0.07776958 -0.07675253 -0.055518 0.035670195 0.05481049 -0.0416292 -0.00066002575 0.00885012
0.07994024 0.056739327 -0.07658044 -0.014535435 -0.029575497 0.043920036 -0.03234711 0.06307753
-0.03366553 0.04946751 -0.045787934 0.047699776 -0.06159155 0.0567391 0.00049969554 -0.084517114
0.0540516 -0.020786531 0.036576085 0.020925319 -0.047781814 0.01624205 -0.053969573 0.007223867
0.00991547 -0.066350944 0.01801946 0.071759336 0.07985716 -0.062693976 -0.010157062 -0.035415363
-0.06414941 -0.027109127 0.05798251 0.06183201 -0.09298571 0.023562089 0.030825786 -0.066462085
0.051493414 -0.046320397 0.030605758 0.043347485 0.034782343 0.0030176714 -0.049897842 0.05002568
-0.012596251 0.07101512 -0.058426384 0.026525136 0.025563955 0.03358945 0.032405727 -0.051340956
0.06457854 -0.083040014 -0.08854759 0.077184066 -0.027835876 -0.07099517 0.064496465 0.0004665032
0.0836715 -0.0066580814 -0.05259284 0.01902441 0.031668633 -0.066086136 0.032700334 0.06942228
0.054127436 0.07491129 0.0009379843 0.07190653 0.052784394 -0.008327879 -0.035948094 0.078342415
-0.06798213 -0.08706965 -0.022777274 0.054965343 -0.078936994 0.079694785 0.067079715 -0.06033393
0.024005953 -0.083851025 0.012021169 0.04345549 -0.05001931 0.07027461 0.00092981016 0.011437431
0.07142783 -0.011850316 -0.07169784 0.047343343 0.041070305 0.024269365 0.05799737 0.062241193
-0.0013932936 -0.04214784 -0.022223294 0.0025306786 -0.034827683 0.030526295 0.008125663 -0.014412429
00000000: 7aef 93bd 22b6 50bd 747f d2bc f459 99bc
00000010: 0723 b2bd eebf 853c 8062 adbd 1dda 5e3d
00000020: c1a2 07bd aa0a b6bd 67ca 91bd 3be5 a5bd
00000030: b16d 9b3d 10da 123d 5b3c 5f3d 32fc 2cbd
00000040: 28b8 85bd cc37 99bd 95ab bfbd d547 fb3b
00000050: 56a7 813d cf04 933d a053 66bd 8560 a2bd
00000060: 5e6c 5a3d e44e 293d e431 98bc c936 d5bc
00000070: 62dd aebd b954 6bbd 148e 82bd a7d0 29bc
00000080: 3176 9d3d cbfc 3b3b 5f6c 833d 8198 30bc
00000090: 1d99 81bd 6f1c 5bbd 9ac4 86bd 60cf 38bc
000000a0: efba 463c 4c3b c5bd 78f7 983d 5092 473c
000000b0: e491 ab3c 2cb1 f13c 7ea1 9f3c f381 3c3d
000000c0: 0791 8c3a 405a 093d 36cf 2cbc 9543 a93d
000000d0: 7771 fe3c dabd be3c 8849 893d d039 933c
000000e0: 178e 34bd 376e 82bd 4386 913d e568 893d
000000f0: ea15 043d dcbc b6bc 8c1a d93c db40 ae3c
00000100: fc85 fbbc 42e0 22bd 60d2 5bbc 3e1b 193d
00000110: 8485 ce3c 64e6 16bd a2be 5f3d 0a46 bcbd
00000120: 9041 813b 18ed 263d 9f17 a43d 7057 adbc
00000130: 76fc 3a3c 5f4b f0bc 0beb 99bc c019 84bc
00000140: 4a2b 763c 1ffb 683c 6003 6fbb c45e c33c
00000150: 5436 8fbd c70a 58bd 30ab 233d c5fe 9f3c
00000160: a803 a33d af9d d83a 7dc5 98bd c07a aa3a
00000170: 3f32 643d 2176 9cbc 9e7e 72bd d409 9cbd
00000180: fc80 83bd 530f 563d a526 963d 5c08 42bc
00000190: 8819 6cbc c757 983d af4e a1bd 1d7e f8bc
000001a0: f062 9bbb 9364 0cbd ce81 1e3d 948e 59bc
000001b0: 23e2 5cbd c69f 833d 559e 6dbb 10d2 cd3c
000001c0: ae67 603d 8062 cfbc d617 25bd 6343 b73d
000001d0: 1b2f b4bd 7305 863d 0476 bebc ee0a 693d
000001e0: dc69 a2bd 420c 403d a666 cc3c 34ed 37bd
000001f0: 0295 563d d097 163c 1880 2b3c 835c 483c
00000200: 7c68 adbd d183 85bd 2fc8 8bbd 3eb0 08bd
00000210: e1de 10bc 76e1 1cbd a05d 443c 68ce e83c
00000220: a845 9fbd 6e30 9dbd d866 63bd e91a 123d
00000230: f780 603d 6183 2abd 9405 2dba 1800 113c
00000240: b5b7 a33d 7f67 683d 35d6 9cbd 0826 6ebc
00000250: 5048 f2bc 7fe5 333d 677e 04bd cb2e 813d
00000260: dee4 09bd 729e 4a3d 218c 3bbd d760 433d
00000270: 6c47 7cbd 4267 683d 00fe 023a 4f17 adbd
00000280: 3665 5d3d 8448 aabc ced0 153d 936b ab3c
00000290: ddb6 43bd 0c0e 853c 330f 5dbd 30b6 ec3b
000002a0: 7f74 223c 01e3 87bd 8c9d 933c 8ff6 923d
000002b0: 278c a33d b365 80bd ce69 26bc b30f 11bd
000002c0: c460 83bd f613 debc 127f 6d3d 9043 7d3d
000002d0: 4b6f bebd 4805 c13c 5c86 fc3c 461d 88bd
000002e0: c2ea 523d 75ba 3dbd edb8 fa3c 228d 313d
000002f0: ee77 0e3d 20c4 453b ae61 4cbd bae7 4c3d
00000300: 8260 4ebc 6070 913d 8150 6fbd 3e4b d93c
00000310: 806b d13c 1795 093d debb 043d e54a 52bd
00000320: c141 843d e210 aabd 7058 b5bd ae12 9e3d
00000330: 1008 e4bc ea65 91bd b916 843d 0095 f439
00000340: f75b ab3d 092c dabb 976b 57bd 14d9 9b3c
00000350: f8b6 013d 2b58 87bd c9f0 053d 452d 8e3d
00000360: bbb4 5d3d 176b 993d 10e3 753a bb43 933d
00000370: 7334 583d a871 08bc 4f3e 13bd fd71 a03d
00000380: 373a 8bbd 9351 b2bd 6897 babc 5723 613d
00000390: b8a9 a1bd 0537 a33d 1761 893d b620 77bd
000003a0: 22a8 c43c 16ba abbd 70f4 443c 62fe 313d
000003b0: 0ce1 4cbd 22ec 8f3d 81be 733a 1064 3b3c
000003c0: c148 923d d427 42bc 51d6 92bd 18eb 413d
000003d0: 5639 283d 8cd0 c63c a68e 6d3d 9ff0 7e3d
000003e0: 2d9f b6ba 37a3 2cbd a00d b6bc bed9 253b
000003f0: 79a7 0ebd 4812 fa3c 8021 053c 1c22 6cbc

functional_1/conv1d_2_1/convolution/ExpandDims_1:0 f4 [256, 128, 1, 1]
-0.03328222 0.0744507 0.013986081 0.061101884 -0.09250769 -0.030776054 0.09974998 -0.08717719
0.09538522 -0.10124135 -0.0071976185 0.06515455 -0.107507855 -0.0829353 -0.08405647 0.10622424
0.092261374 -0.0754022 0.09806085 -0.0953843 -0.0034576654 0.032844752 0.07946414 -0.048460335
0.06672853 -0.028978348 -0.080096215 0.1207656 0.1142931 0.066115975 -0.045648128 0.102445215
0.1229046 0.01633808 -0.013630837 0.05571276 0.057659864 -0.096872956 -0.06664628 -0.07635105
0.049465746 0.07796723 -0.08758792 -0.039262295 0.06547633 -0.10423252 -0.06685293 -0.0635699
0.059759498 0.09521398 0.07427725 0.099904925 0.02965349 -0.04783997 0.0607616 0.010134995
-0.049775302 -0.10944793 -0.08168343 0.032036513 0.0939835 -0.05712959 -0.013325363 0.10330051
0.1199311 -0.1058639 0.035752892 0.031510115 -0.08307803 0.10199931 -0.030461371 -0.040735573
-0.09717572 0.0725669 0.08356145 -0.019755423 0.0076782405 0.004131019 -0.08475274 0.06791666
-0.0845426 -0.066485256 0.0061680675 -0.09999192 -0.06643343 -0.10880545 -0.06613928 -0.047081888
0.018136084 0.10031426 -0.0459134 -0.1106118 -0.11682695 -0.065729976 -0.10672158 0.10384032
0.046723723 0.10206956 0.0026764274 -0.0920828 0.11922389 0.11926451 -0.04073012 -0.016478658
0.08304009 0.025115937 0.02915302 0.09263134 0.018476307 -0.04473412 -0.03944412 -0.11685753
-0.11387056 0.12195298 -0.005889863 0.017696798 -0.00974232 0.047343135 0.05266878 -0.0031362772
0.0462521 -0.06436777 0.06662828 -0.093851954 -0.082906425 -0.09769952 0.00061130524 -0.00291726
-0.05507452 0.016038708 0.014430039 0.097550765 0.034917656 -0.08935455 0.0014881677 0.11349475
0.031484574 -0.033757754 -0.06751405 0.09439397 0.10648526 -0.056421816 -0.09118428 -0.014160443
0.0022187233 0.009745449 -0.0909507 -0.042265408 -0.0910922 -0.061751664 -0.08702844 -0.010814465
0.117884964 -0.093633294 0.11689474 -0.091023 -0.020942444 -0.09097964 -0.07198945 -0.08890838
-0.052615345 -0.017933948 0.09567982 0.050621055 -0.050022338 0.010445211 -0.09755799 0.04082778
0.032437466 0.010604744 0.0015159693 -0.115095064 0.12057902 -0.1224055 0.049288318 -0.064746276
-0.09749838 0.12143653 -0.059185296 -0.050103392 -0.094167985 -0.11197663 -0.016110122 -0.028149337
0.11363676 0.05986044 -0.06270311 -0.085347325 0.0904338 -0.09540394 0.11818385 0.10021131
0.057684943 -0.0010389686 0.054670043 0.090735376 0.018858893 0.07099676 -0.031158924 -0.086360544
0.008067469 0.07412599 -0.0265989 0.06146723 0.022134412 0.023035133 0.09181357 0.12834981
-0.056053758 0.04584893 -0.012308845 0.04337153 -0.015278708 0.07535407 -0.08223906 0.053709537
-0.05075855 0.049861673 -0.10844416 0.052420855 0.095509924 -0.10323229 -0.12365517 0.08290389
0.064992815 -0.08485246 0.1204029 0.0961703 0.08345416 0.017096814 0.117655784 0.0599643
0.11844906 0.074377626 -0.107407056 -0.017089866 0.11314837 0.11445287 -0.11201527 0.012829959
0.059831914 -0.09608651 -0.101882994 0.009302628 -0.09278036 0.010320332 -0.120298624 0.03381434
0.038753264 -0.026076566 -0.0885509 -0.007827447 0.024084851 -0.089198746 -0.10787606 0.123868205
00000000: f052 08bd 9c79 983d e025 653c f845 7a3d
00000010: ac74 bdbd 101e fcbc b849 cc3d f489 b2bd
00000020: 5459 c33d a057 cfbd 00da ebbb c06f 853d
00000030: 142d dcbd fcd9 a9bd cc25 acbd 188c d93d
00000040: 88f3 bc3d 786c 9abd 20d4 c83d d858 c3bd
00000050: 009a 62bb 3888 063d 18be a23d 587e 46bd
00000060: f8a8 883d 0064 edbc 7c09 a4bd f453 f73d
00000070: 8012 ea3d d067 873d 88f9 3abd ccce d13d
00000080: 68b5 fb3d 70d7 853c e053 5fbc 1033 643d
00000090: c02c 6c3d 5465 c6bd d87d 88bd f05d 9cbd
000000a0: 989c 4a3d 48ad 9f3d 4c61 b3bd 80d1 20bd
000000b0: 7418 863d dc77 d5bd 30ea 88bd f030 82bd
000000c0: 60c6 743d 8cff c23d ac1e 983d f49a cc3d
000000d0: e0eb f23c d8f3 43bd 28e1 783d 400d 263c
000000e0: 30e1 4bbd 3c26 e0bd a449 a7bd b838 033d
000000f0: 6c7a c03d b800 6abd a052 5abc 388f d33d
00000100: 709e f53d 2ccf d8bd a071 123d c010 013d
00000110: d024 aabd 04e5 d03d 208a f9bc 58da 26bd
00000120: 1004 c7bd f49d 943d 4422 ab3d 20d6 a1bc
00000130: c099 fb3b 805d 873b d892 adbd e417 8b3d
00000140: ac24 adbd 6c29 88bd 801d ca3b 90c8 ccbd
00000150: 400e 88bd 64d5 debd 0874 87bd f0d8 40bd
00000160: 2092 943c 9071 cd3d b00f 3cbd 7088 e2bd
00000170: f842 efbd 709d 86bd d890 dabd 3caa d43d
00000180: 6061 3f3d d809 d13d 0067 2f3b e895 bcbd
00000190: a82b f43d f440 f43d a0d4 26bd 40fe 86bc
000001a0: ec10 aa3d f0bf cd3c 50d2 ee3c 80b5 bd3d
000001b0: a05b 973c 203b 37bd 2890 21bd 0053 efbd
000001c0: f834 e9bd 7cc2 f93d c0ff c0bb e0f8 903c
000001d0: 409e 1fbc e0ea 413d 38bb 573d 008a 4dbb
000001e0: d872 3d3d 40d3 83bd 6874 883d 7435 c0bd
000001f0: d8ca a9bd b016 c8bd 0040 203a 802f 3fbb
00000200: d295 61bd 9c63 833c f86b 6c3c b2c8 c73d
00000210: d105 0f3d 85ff b6bd 9f0e c33a ef6f e83d
00000220: f8f5 003d 9245 0abd ce44 8abd a051 c13d
00000230: f214 da3d 901a 67bd d3be babd 3401 68bc
00000240: 0068 113b 60ab 1f3c 5c44 babd 7e1e 2dbd
00000250: 8c8e babd 50ef 7cbd f73b b2bd 272f 31bc
00000260: ac6d f13d d0c2 bfbd 8266 ef3d 446a babd
00000270: 7d8f abbc 8953 babd 346f 93bd 9915 b6bd
00000280: 3083 57bd 37ea 92bc c8f3 c33d 0658 4f3d
00000290: 39e4 4cbd 6422 2b3c 7ccc c7bd 083b 273d
000002a0: 26dd 043d 85bf 2d3c 7db3 c63a f6b6 ebbd
000002b0: 22f2 f63d bcaf fabd 8ce2 493d b299 84bd
000002c0: 3bad c7bd b7b3 f83d 486c 72bd 3739 4dbd
000002d0: 25db c0bd 0154 e5bd 60f9 83bc 7099 e6bc
000002e0: 64ba e83d 3930 753d 7d6a 80bd 94ca aebd
000002f0: 5b35 b93d 2463 c3bd 600a f23d 963b cd3d
00000300: 0c47 6c3d 002e 88ba b2ed 5f3d 78d3 b93d
00000310: f77d 9a3c c066 913d 0041 ffbc ccdd b0bd
00000320: 6b2d 043c 5ecf 973d f0e5 d9bc 10c5 7b3d
00000330: 3a53 b53c 2db4 bc3c c108 bc3d 226e 033e
00000340: a098 65bd 16cc 3b3d 0aab 49bc 58a6 313d
00000350: 8c53 7abc 3c53 9a3d f46c a8bd 88fe 5b3d
00000360: 33e8 4fbd c13b 4c3d f917 debd 40b7 563d
00000370: b59a c33d 736b d3bd ec3e fdbd 84c9 a93d
00000380: f41a 853d 20c7 adbd cc95 f63d eff4 c43d
00000390: 04ea aa3d 9e0e 8c3c 84f5 f03d 209d 753d
000003a0: 6c95 f23d 4c53 983d 3bf8 dbbd 0c00 8cbc
000003b0: 55ba e73d 4466 ea3d 4368 e5bd c034 523c
000003c0: 4f12 753d 01c9 c4bd 08a8 d0bd 0d6a 183c
000003d0: a103 bebd 9c16 293c 205f f6bd e880 0a3d
000003e0: bebb 1e3d 869e d5bc 2d5a b5bd b13e 00bc
000003f0: 984d c53c d5ad b6bd 20ee dcbd 9dae fd3d

functional_1/conv1d_1_2/convolution/ExpandDims_1:0 f4 [128, 64, 1, 1]
0.16184819 0.17078304 -0.167691 0.15035583 -0.012977656 -0.059713572 -0.07019174 0.04476611
-0.0330355 0.17663153 0.053462356 -0.023297891 0.11031841 -0.12628841 0.074283555 0.06562336
0.009635298 0.017460158 0.0066786106 0.09860401 0.053315237 -0.08300569 -0.08151557 -0.01826181
0.03207099 -0.13806626 -0.16647843 0.09467445 0.14198121 0.09668039 0.12155635 0.10147171
0.16361544 0.05306546 -0.042522088 -0.0040066144 -0.16740277 -0.09201818 0.011471316 -0.088990375
0.06992419 0.040705286 -0.06006769 -0.12171255 0.15926807 -0.04758675 -0.17412442 0.15390252
0.06156716 -0.027271729 -0.05681981 -0.11227031 -0.17104161 -0.1623003 -0.060111396 0.07509959
0.13104936 0.14717802 -0.17818555 -0.12637562 -0.12114597 -0.1516806 -0.11171544 0.17327018
-0.13451757 -0.0065831803 -0.114531845 -0.075120986 0.041961685 -0.085492685 0.02821855 -0.04251397
-0.12501998 0.089460656 -0.12865406 0.07594167 0.09647919 -0.045264825 0.08500336 0.09093936
-0.109557234 -0.049578737 0.108761996 0.11318649 0.0011315321 0.035285935 0.10142042 0.013598812
-0.06449966 -0.14970095 -0.1630759 -0.045341298 0.09380308 0.08814142 -0.16877316 -0.162743
0.09765692 -0.10724338 -0.04205741 0.030601032 -0.0868314 -0.034210782 -0.028440446 0.03481321
0.16314222 -0.07459313 -0.11110335 -0.09289953 0.14564021 -0.10332977 0.06777533 0.13034372
0.07279216 0.12705481 0.061510578 -0.028871939 -0.14108287 -0.13149108 -0.020062536 0.09914088
0.14739749 0.066583626 -0.058984853 -0.10972589 -0.15278915 -0.15755667 -0.037074983 -0.14214459
-0.0754698 0.091016404 0.06036666 0.045169026 -0.04339617 -0.17485914 -0.14930709 0.08106631
0.006539762 -0.066588774 0.1433021 -0.16846542 -0.09124881 -0.12720615 -0.15482417 0.17418958
0.1191919 0.0141611975 -0.022186145 0.13358173 -0.15791738 -0.010712385 0.17054112 0.1233222
-0.11172033 -0.16170903 0.07192617 -0.045043435 -0.046976373 0.046631873 0.16346039 0.046143454
-0.17474341 -0.093765385 -0.043548867 0.18326688 0.068041444 0.08186801 0.0333841 0.034437135
0.026843995 0.10576991 -0.05243843 0.106791906 -0.1230971 -0.05926574 0.07577616 -0.16042197
0.119379096 -0.022999967 -0.0151968 0.15021992 0.07370897 0.14177619 0.095480934 0.17909372
-0.0895354 0.15116082 0.11306092 -0.03811378 -0.1762287 -0.083885305 0.085816726 -0.08398365
-0.047773685 -0.14615816 -0.12776676 -0.07279928 -0.005646881 -0.097666346 0.0939785 0.020250106
-0.0033281296 -0.16115694 -0.17420202 -0.06503094 0.014209256 0.06779887 0.010565117 -0.08405207
0.14436862 -0.05102826 0.051497567 -0.017289665 -0.03383593 0.04012701 0.029465795 -0.04962618
-0.0049294364 0.10776439 0.13128851 0.12263725 -0.053712137 0.103286505 0.06760038 -0.12923037
0.059496414 0.12864041 -0.12929755 0.088267006 -0.013526186 -0.12382793 0.03222616 -0.14040308
0.026553184 -0.15274587 -0.037470818 -0.12872356 -0.07793534 -0.15592839 -0.1551885 -0.08812961
0.13705282 -0.15909588 -0.047055855 -0.018140852 -0.01591435 0.016700521 0.032548964 0.10231687
0.0724782 -0.013386778 -0.11089546 0.15309642 -0.15541957 -0.07570484 -0.08856743 0.067610174
00000000: 88bb 253e c0e1 2e3e 31b7 2bbe e1f6 193e
00000010: 3ca0 54bc 3896 74bd b0c0 8fbd ab5c 373d
00000020: 3c50 07bd e5de 343e 58fb 5a3d 38db bebc
00000030: 9eee e13d c051 01be fa21 983d 8a65 863d
00000040: 5edd 1d3c 9b08 8f3c 3fd8 da3b e6f0 c93d
00000050: 1461 5a3d e3fe a9bd a3f1 a6bd cb99 95bc
00000060: df5c 033d 3e61 0dbe 5279 2abe aee4 c13d
00000070: 8663 113e 5e00 c63d 89f2 f83d 66d0 cf3d
00000080: ce8a 273e 2b5b 593d a42b 2ebd eb49 83bb
00000090: a26b 2bbe 0774 bcbd 30f2 3b3c 9640 b6bd
000000a0: 6a34 8f3d 96ba 263d 8a09 76bd 6e44 f9bd
000000b0: 2b17 233e 53ea 42bd ac4d 32be 9f98 1d3e
000000c0: d92d 7c3d f668 dfbc e4bb 68bd faed e5bd
000000d0: 8825 2fbe 0d32 26be 5e37 76bd d0cd 993d
000000e0: ce31 063e d6b5 163e 4676 36be 9c68 01be
000000f0: 611b f8bd 2952 1bbe 11cb e4bd bd6d 313e
00000100: f9be 09be b8b7 d7bb ac8f eabd 08d9 99bd
00000110: 04e0 2b3d ca16 afbd 972a e73c 2123 2ebd
00000120: 3d05 00be 2637 b73d e4bd 03be 4e87 9b3d
00000130: e296 c53d 9c67 39bd 3e16 ae3d 6a3e ba3d
00000140: 8b5f e0bd 1313 4bbd 9cbe de3d 52ce e73d
00000150: eb4f 943a fc87 103d 82b5 cf3d 8dcd 5e3c
00000160: 6618 84bd 354b 19be 5efd 26be ccb7 39bd
00000170: d41b c03d 7d83 b43d dfd2 2cbe 1aa6 26be
00000180: 5a00 c83d 6ba2 dbbd 6444 2cbd 04af fa3c
00000190: a9d4 b1bd 9b20 0cbd f0fb e8bc 4c98 0e3d
000001a0: c10e 273e 48c4 98bd 278a e3bd 1c42 bebd
000001b0: b522 153e 8f9e d3bd cbcd 8a3d d378 053e
000001c0: 0e14 953d a81a 023e 84f2 7b3d d884 ecbc
000001d0: 0778 10be 99a5 06be 305a a4bc 600a cb3d
000001e0: 5eef 163e ff5c 883d 1a9a 71bd f8b7 e0bd
000001f0: c274 1cbe 8956 21be f0db 17bd 5a8e 11be
00000200: e98f 9abd cf66 ba3d 0843 773d 2803 393d
00000210: 2fc0 31bd 460e 33be f5e3 18be 1806 a63d
00000220: 804b d63b b25f 88bd c9bd 123e 3382 2cbe
00000230: a8e0 babd 5442 02be 3a8a 1ebe c15e 323e
00000240: e21a f43d 5e04 683c b8bf b5bc a6c9 083e
00000250: 18b5 21be 0083 2fbc 55a2 2e3e 5990 fc3d
00000260: a1cd e4bd 0d97 25be 074e 933d 777f 38bd
00000270: 4c6a 40bd 1001 3f3d 2962 273e eb00 3d3d
00000280: f0ef 32be 1108 c0bd 4c60 32bd 50aa 3b3e
00000290: 5059 8b3d 6aaa a73d c4bd 083d f40d 0d3d
000002a0: f0e7 db3c e59d d83d aec9 56bd b7b5 da3d
000002b0: 551a fcbd a2c0 72bd 8830 9b3d a845 24be
000002c0: 077d f43d 6d6a bcbc 00fc 78bc 40d3 193e
000002d0: baf4 963d c72d 113e 828b c33d 5864 373e
000002e0: 565e b7bd e7c9 1a3e 7c8c e73d 321d 1cbd
000002f0: 4c75 34be 0fcc abbd aec0 af3d 9fff abbd
00000300: 57ae 43bd 7caa 15be 4ad5 02be ca17 95bd
00000310: 7909 b9bb 4b05 c8bd cd77 c03d 8de3 a53c
00000320: c01c 5abb 5306 25be 0462 32be f12e 85bd
00000330: f0cd 683c 22da 8a3d 5019 2d3c 7e23 acbd
00000340: 5ed5 133e 0203 51bd 1def 523d 0ea3 8dbc
00000350: 8b97 0abd 385c 243d 4062 f13c d244 4bbd
00000360: 1c87 a1bb 94b3 dc3d 7f70 063e 3d29 fb3d
00000370: 4201 5cbd e087 d33d 1172 8a3d f754 04be
00000380: 83b2 733d 50ba 033e 9466 04be 55c5 b43d
00000390: f09c 5dbc 7f99 fdbd 94ff 033d d3c5 0fbe
000003a0: 1086 d93c 6a69 1cbe 007b 19bd 1cd0 03be
000003b0: 909c 9fbd b1ab 1fbe bce9 1ebe 4c7d b4bd
000003c0: 9357 0c3e 08ea 22be a4bd 40bd 209c 94bc
000003d0: d05e 82bc 88cf 883c 1052 053d 828b d13d
000003e0: 736f 943d 3754 5bbc 291d e3bd 4fc5 1c3e
000003f0: 4f26 1fbe 240b 9bbd d762 b5bd 3477 8a3d

functional_1/conv1d_1/convolution/ExpandDims_1:0 f4 [64, 24, 1, 1]
0.14005977 0.17779726 -0.16371161 -0.24253644 -0.23859088 0.2298275 -0.067079596 0.0086982045
0.121667854 -0.22204028 -0.10187493 0.19637191 -0.12582225 0.06672941 -0.17243282 0.14485246
-0.1787665 -0.07532579 -0.06986731 -0.019243214 0.17902008 -0.13194376 0.00079215085 -0.08763097
0.0030998872 0.20410794 -0.1266774 0.08969698 0.05164435 -0.050298523 0.251781 0.069818206
0.05347021 0.13289791 -0.20312832 0.14737435 -0.07376677 0.23223753 -0.19508407 -0.1375299
-0.06854731 0.019908346 -0.21040034 0.05742468 0.25062376 0.019837596 -0.22984062 0.0871603
0.15693355 -0.14417312 -0.10027938 0.21550371 0.12422707 -0.17133924 0.17278026 -0.1579542
0.15558636 -0.06418628 0.03088017 -0.104620665 0.002265083 -0.21304819 0.24603945 0.16273822
-0.13377848 -0.06115941 0.22825846 -0.27251554 -0.08116635 -0.082514465 0.07091482 0.16447638
0.0119993985 0.1426417 -0.12590131 -0.23003012 -0.24228258 0.037102938 0.08231968 -0.14019993
-0.21054965 -0.06717634 -0.046726495 -0.02604352 0.2222262 0.027708143 0.14543882 -0.22789526
0.15223724 -0.046155244 -0.23684692 0.22858554 -0.050278276 0.07607812 0.18958217 -0.016077861
0.09037915 0.19404009 0.07180251 0.20494059 -0.14051074 -0.1351765 0.19190516 -0.07501853
0.035527658 -0.030391844 -0.11058737 0.10304495 -0.2507915 -0.0896596 0.003715182 -0.1767394
-0.17528564 -0.0066571087 -0.24911074 0.24457052 -0.23447825 0.16435222 -0.23232844 0.16030845
0.055829436 -0.08338854 -0.04243371 -0.03210081 -0.09499444 0.10073882 -0.14127569 0.0048233867
-0.15169531 0.024946332 0.04227799 -0.12239891 0.032974064 -0.25346154 -0.03977461 -0.22713986
0.16295886 -0.010039359 0.098823935 0.03555906 -0.18854195 -0.1856924 0.17207083 -0.17814666
0.010691323 0.008728925 -0.24958724 -0.21705244 0.22322743 0.23049882 -0.009569009 -0.111864544
0.26167318 -0.033341657 0.017086476 -0.04770512 -0.14382955 0.15068798 -0.19797702 -0.024288015
0.2359131 -0.069631256 0.1493716 -0.21767953 0.15248206 0.14521046 0.23495187 0.23516385
-0.011434351 -0.021772737 0.027781114 0.10730153 -0.10867966 0.1984528 -0.07987 0.122736126
0.18005231 0.17438456 -0.21017024 0.21265672 0.07560635 0.087034896 0.21465366 0.043596096
0.059607316 -0.117496155 0.1929606 -0.2301311 -0.13456815 0.10883852 0.033524126 -0.103089795
0.21288645 0.20123518 0.07136437 -0.2256869 0.014042228 -0.2177325 -0.25335315 -0.18715066
0.0138940215 0.17163193 -0.18219398 -0.0024158657 -0.18766788 0.23108041 0.12245053 -0.06419277
-0.1540036 -0.22894557 -0.18803468 0.18233225 0.111614525 -0.09910588 -0.09885767 -0.21212102
-0.16665837 -0.069819495 0.088920146 -0.22467189 0.000105947256 -0.24109446 0.120149076 -0.026719362
-0.12615283 0.117696166 0.16117108 -0.028941989 -0.15990165 -0.10842776 0.16316828 -0.19208468
0.25547388 0.037905842 0.013190091 -0.23078932 -0.16365986 0.047388405 -0.2188539 0.008473903
-0.16083995 -0.1972605 -0.018850073 0.17530036 -0.25581172 0.23296145 -0.01046887 -0.22527221
0.058133483 -0.19435519 0.06770095 -0.103210226 -0.17597806 -0.12511759 0.06387341 -0.013616174
00000000: d46b 0f3e 7c10 363e 04a4 27be 795b 78be
00000010: 2b51 74be e657 6b3e 0761 89bd ea82 0e3c
00000020: ff2c f93d 875e 63be cea3 d0bd b815 493e
00000030: 8cd7 00be 6ea9 883d 3b92 30be 3454 143e
00000040: 910e 37be 6844 9abd 9816 8fbd f2a3 9dbc
00000050: 0a51 373e 441c 07be 58a8 4f3a de77 b3bd
00000060: 7a27 4b3b ac01 513e b8b7 01be 0db3 b73d
00000070: 0789 533d d305 4ebd 70e9 803e d9fc 8e3d
00000080: 9403 5b3d 6416 083e df00 50be 4de9 163e
00000090: 0813 97bd adcf 6d3e 1ec4 47be a3d4 0cbe
000000a0: 8862 8cbd d416 a33c 3073 57be 2436 6b3d
000000b0: c251 803e 7482 a23c 575b 6bbe 1981 b23d
000000c0: 30b3 203e 1ea2 13be 475f cdbd 01ad 5c3e
000000d0: c36a fe3d 8e73 2fbe 4fed 303e bfbe 21be
000000e0: 0852 1f3e 1974 83bd 69f8 fc3c 5c43 d6bd
000000f0: c971 143b 4e29 5abe c4f1 7b3e d9a4 263e
00000100: 3afd 08be 4a82 7abd 96bc 693e 2887 8bbe
00000110: 8b3a a6bd 58fd a8bd ca3b 913d 7f6c 283e
00000120: 2099 443c aa10 123e 46ec 00be 048d 6bbe
00000130: ed18 78be 40f9 173d 3897 a83d 9290 0fbe
00000140: 549a 57be c093 89bd 4864 3fbd 3859 d5bc
00000150: 448f 633e 30fc e23c eaed 143e 605d 69be
00000160: 14e4 1b3e 480d 3dbd 0088 72be 5412 6a3e
00000170: 98f0 4dbd d8ce 9b3d d421 423e b8b5 83bc
00000180: b418 b93d 72b2 463e 320d 933d f2db 513e
00000190: 0ce2 0fbe b56b 0abe c982 443e 51a3 99bd
000001a0: 7385 113d 51f8 f8bc a27b e2bd 3b09 d33d
000001b0: be67 80be 749f b7bd 697a 733b 2cfb 34be
000001c0: 147e 33be e023 dabb e316 7fbe b270 7a3e
000001d0: 111b 70be f34b 283e 82e7 6dbe e627 243e
000001e0: 68ad 643d 9cc7 aabd f8ce 2dbd 247c 03bd
000001f0: 728c c2bd 2850 ce3d 93aa 10be 800d 9e3b
00000200: 0456 1bbe 405c cc3c b02b 2d3d 48ac fabd
00000210: d00f 073d b6c5 81be b4ea 22bd 5a97 68be
00000220: b0de 263e 207c 24bc 3464 ca3d 60a6 113d
00000230: 2411 41be 2626 3ebe 5633 303e 146c 36be
00000240: a92a 2f3c c403 0f3c cc93 7fbe ff42 5ebe
00000250: bb95 643e e207 6c3e 55c7 1cbc 3d19 e5bd
00000260: 07fa 853e 4391 08bd f0f8 8b3c 7266 43bd
00000270: 0e48 13be f34d 1a3e 7dba 4abe a9f7 c6bc
00000280: 3493 713e d59a 8ebd def4 183e 62e7 5ebe
00000290: 4224 1c3e 0db2 143e 3997 703e cbce 703e
000002a0: 2557 3bbc bd5c b2bc 3895 e33c e8c0 db3d
000002b0: 7193 debd 3637 4b3e e292 a3bd 145d fb3d
000002c0: a25f 383e de91 323e de36 57be afc2 593e
000002d0: 81d7 9a3d 5a3f b23d 2bce 5b3e d291 323d
000002e0: cd26 743d d3a1 f0bd 7797 453e 7da7 6bbe
000002f0: 3ccc 09be bbe6 de3d 9850 093d be20 d3bd
00000300: e8fe 593e 9810 4e3e 7c27 923d 771a 67be
00000310: 6011 663c 45f5 5ebe 81b7 81be 6ca4 3fbe
00000320: c0a3 633c 48c0 2f3e 0f91 3abe 8053 1ebb
00000330: 022c 40be 58a0 6c3e 58c7 fa3d 8077 83bd
00000340: 1fb3 1dbe b570 6abe 2a8c 40be 4eb5 3a3e
00000350: 2896 e43d 06f8 cabd e475 cabd 4136 59be
00000360: 7ea8 2abe 86fd 8ebd c41b b63d 6310 66be
00000370: 0030 de38 77e1 76be b810 f63d 90e2 dabc
00000380: 352e 01be b00a f13d 080a 253e c017 edbc
00000390: 42bd 23be 600f debd 9615 273e d9b1 44be
000003a0: 79cd 823e 2843 1b3d 401b 583c 0954 6cbe
000003b0: 7396 27be 581a 423d 3d1b 60be 20d6 0a3c
000003c0: 3ab3 24be a8fe 49be 786b 9abc f081 333e
000003d0: c1f9 82be 728d 6e3e a085 2bbc c2ad 66be
000003e0: 601d 6e3d 0c05 47be cca6 8a3d e25f d3bd
000003f0: 9833 34be d31e 00be 10d0 823d 6016 5fbc

const_fold_opt__184 f4 [1, 128, 1]
-0.01128704 -0.007366798 0.011100951 -0.0036917366 -0.005967084 0.011186813 -0.008310431 -0.0070811515
0.011172327 0.007456539 0.0 -0.011738783 0.0 -0.010535324 -0.007946358 -0.0074221487
0.0 -0.0059644743 0.011209944 -0.0041050264 0.0 -0.011188401 0.011201171 0.0
0.0 0.01021844 0.0 0.0 0.0 -0.008277126 0.011213194 0.011218773
-0.005964655 -0.005964627 -0.012755794 -0.005970434 -0.008304223 -0.011583673 -0.005033452 0.0
-0.00013905988 0.011192791 0.010963922 0.011187917 0.0 -0.009381856 -0.008312238 0.0
0.0 0.011001134 -0.005760328 0.011214649 0.01117336 0.007988862 -0.006927099 0.004495476
0.0028496182 0.0 0.007945432 0.011127255 -0.012242474 0.0044425353 0.0 -0.0059644617
0.011109424 -0.00586415 -0.0023382388 0.0 0.011173906 -0.008614086 0.011214297 -0.0065782955
0.011140913 0.0 0.0 -0.009480678 -0.009577253 0.011206164 -0.009976727 0.0
0.011176069 -0.009975611 0.0 -0.0031018583 0.011160686 -0.005964639 0.0 -0.010715355
-0.008296741 -0.0059645157 0.0 -0.011566526 0.0 0.011212648 -0.011408308 0.01118523
0.0 0.010093932 0.011213759 0.0 -0.0056886612 -0.005964693 0.011177074 0.011002036
-0.00829899 -0.011230382 0.0 -0.0059985626 0.0 -0.0075763464 0.00056993274 -0.011547594
-0.011438877 0.011178548 -0.004631665 0.0 -0.006825331 -0.00499097 -0.008308669 0.0
-0.010511708 0.011209588 0.01093149 0.011120923 0.0 0.011188933 -0.009981651 0.0
00000000: 47ed 38bc 2e65 f1bb c3e0 353c 10f1 71bb
00000010: 8787 c3bb e548 373c 7928 08bc 0109 e8bb
00000020: 230c 373c fc55 f43b 0000 0000 0654 40bc
00000030: 0000 0000 5a9c 2cbc 7131 02bc 7f35 f3bb
00000040: 0000 0000 a371 c3bb eaa9 373c 7583 86bb
00000050: 0000 0000 8e4f 37bc 1e85 373c 0000 0000
00000060: 0000 0000 3e6b 273c 0000 0000 0000 0000
00000070: 0000 0000 c89c 07bc 8bb7 373c f2ce 373c
00000080: 2773 c3bb eb72 c3bb aefd 50bc a1a3 c3bb
00000090: 700e 08bc 72c9 3dbc a8ef a4bb 0000 0000
000000a0: 9ad0 11b9 f861 373c 06a2 333c 864d 373c
000000b0: 0000 0000 5bb6 19bc 0e30 08bc 0000 0000
000000c0: 0000 0000 1a3e 343c 22c1 bcbb a6bd 373c
000000d0: 7810 373c b7e3 023c b8fc e2bb c94e 933b
000000e0: a9c0 3a3b 0000 0000 8f2d 023c 174f 363c
000000f0: a894 48bc b092 913b 0000 0000 8871 c3bb
00000100: 4d04 363c 0e28 c0bb 233d 19bb 0000 0000
00000110: c212 373c 1822 0dbc 2cbc 373c be8e d7bb
00000120: 6088 363c 0000 0000 0000 0000 d854 1bbc
00000130: e9e9 1cbc 0f9a 373c 6d75 23bc 0000 0000
00000140: d51b 373c bf70 23bc 0000 0000 8c48 4bbb
00000150: 4fdb 363c 0573 c3bb 0000 0000 758f 2fbc
00000160: 0eef 07bc fc71 c3bb 0000 0000 8781 3dbc
00000170: 0000 0000 41b5 373c e9e9 3abc 4142 373c
00000180: 0000 0000 0561 253c eab9 373c 0000 0000
00000190: f367 babb 7973 c3bb 0c20 373c e241 343c
000001a0: 7df8 07bc a3ff 37bc 0000 0000 978f c4bb
000001b0: 0000 0000 0043 f8bb 8a67 153a 1f32 3dbc
000001c0: 216a 3bbc 3b26 373c 39c5 97bb 0000 0000
000001d0: 07a7 dfbb 4a8b a3bb 1521 08bc 0000 0000
000001e0: 4d39 2cbc 6ba8 373c fe19 333c 8834 363c
000001f0: 0000 0000 c951 373c 148a 23bc 0000 0000

const_fold_opt__181 f4 [1, 256, 1]
-0.008297153 0.008395173 -0.0062595964 0.0 0.0043009566 0.00742168 -9.398833e-05 0.010545806
0.00908282 0.0 -0.004969133 0.0 -0.0059637176 -0.00596261 -0.0020389606 -0.008542282
-0.008318016 0.0 -0.005694793 -0.005966583 0.010707574 0.009143773 0.009889066 0.0
-0.006034529 -0.0076803146 0.0 0.0 -0.0059707435 -0.0072271493 -0.008150793 0.0
0.0 0.010246492 0.0 0.0 0.0 0.0 0.0 -0.009076584
0.009816843 -0.006091444 -0.005963311 -0.0059647067 -0.003419477 -0.0057288883 -0.005962817 0.0
0.0 0.0 0.008038926 0.0 -0.006293252 0.008608622 0.0 0.0
-0.011761951 0.0 0.0 0.0 0.0 0.0 0.0 0.011471879
-0.00854625 -0.008366237 -0.001163491 -0.0061941654 0.0 0.0 -0.0034290894 0.0
0.003552528 0.0 -0.004742494 -0.009026678 0.010174316 0.0 0.0 0.0
0.004164182 0.0 0.0 0.0046423324 0.0014186369 -0.008411532 0.0 0.010830676
-0.0051627224 0.006269704 0.0 0.0 0.0085472185 0.010756106 0.0 0.0
-0.0059609665 0.0 0.0 -0.0017586116 0.0 0.0 0.0 0.008363863
-0.004521748 0.010237404 0.0 0.006752139 0.0 0.0059064156 0.00938858 0.0
0.0077451183 0.0038750418 -0.006878734 0.010489882 0.0023921707 0.0 0.008914567 0.0
0.0 0.0 0.0 0.006267775 0.0 0.0 0.010576038 -0.0071212915
-0.008069187 -0.0065913326 -0.0010931933 0.010520028 0.0 0.010372393 0.0 0.011008501
-0.001463522 0.0 0.0 0.0 -0.010056126 -0.0059589455 -0.005677794 0.008879959
-0.004258345 0.0 -0.005958548 0.0 0.0 0.011352752 0.009692703 0.009415703
0.010009096 0.008931932 0.0 0.010823594 0.0 -0.006042549 -0.005229498 0.0
-0.0049477927 0.0 0.0012178092 -0.0024599256 0.008842638 0.0 0.010041415 -0.0033516395
-0.008337156 0.0 0.0 0.0 -0.0057549775 -0.006781011 0.004881413 -0.005272244
0.007899669 -0.0062576374 0.0 0.0032512657 -0.008955016 0.00052310614 0.0 -0.0059606954
-0.005023549 0.008398594 -0.0076545565 0.0 0.010644073 -0.0053337296 -0.008121861 -0.009158864
-0.006516688 -0.008982615 -0.01084271 0.0 0.0 -0.0059681963 0.0 -0.008411379
-0.0059598545 -0.005307635 -0.005518084 0.009559011 0.0 0.0 0.0 0.010982791
0.0 0.009073817 0.0 0.0 0.0 0.0 0.0 0.0
0.0 0.008834752 0.0 0.0 -0.007162485 0.0040884744 0.0 0.005726965
0.0 0.0 0.0 0.012065945 -0.007675784 0.0 -0.007167115 -0.010490595
0.010459396 0.00906857 0.0 0.0 -0.0059021963 0.0 0.0 0.0
-0.0034196079 0.009495712 0.0 -0.0075196302 0.010439804 -0.00036657575 -0.008351488 0.009460787
-0.00012443139 0.0033549222 -0.0004914518 0.010842811 -0.011559454 -0.0048573846 -0.0059397654 -0.009893943
00000000: c8f0 07bc e88b 093c 4d1d cdbb 0000 0000
00000010: 0aef 8c3b 9031 f33b 9a1b c5b8 51c8 2c3c
00000020: 1cd0 143c 0000 0000 1cd4 a2bb 0000 0000
00000030: 4a6b c3bb ff61 c3bb 15a0 05bb edf4 0bbc
00000040: 4a48 08bc 0000 0000 639b babb 5383 c3bb
00000050: d26e 2f3c c3cf 153c c005 223c 0000 0000
00000060: 4cbd c5bb 26ab fbbb 0000 0000 0000 0000
00000070: 3aa6 c3bb b9d1 ecbb e78a 05bc 0000 0000
00000080: 0000 0000 e7e0 273c 0000 0000 0000 0000
00000090: 0000 0000 0000 0000 0000 0000 f4b5 14bc
000000a0: d3d6 203c bc9a c7bb e167 c3bb 9673 c3bb
000000b0: 4e19 60bb 66b9 bbbb bc63 c3bb 0000 0000
000000c0: 0000 0000 0000 0000 b3b5 033c 0000 0000
000000d0: a037 cebb 2d0b 0d3c 0000 0000 0000 0000
000000e0: 33b5 40bc 0000 0000 0000 0000 0000 0000
000000f0: 0000 0000 0000 0000 0000 0000 8cf4 3b3c
00000100: 9205 0cbc 8b12 09bc 4880 98ba 6df8 cabb
00000110: 0000 0000 0000 0000 93ba 60bb 0000 0000
00000120: 88d1 683b 0000 0000 ec66 9bbb a2e4 13bc
00000130: 2db2 263c 0000 0000 0000 0000 0000 0000
00000140: b173 883b 0000 0000 0000 0000 b51e 983b
00000150: 8ef1 b93a 86d0 09bc 0000 0000 2673 313c
00000160: 0e2c a9bb 1772 cd3b 0000 0000 0000 0000
00000170: a209 0c3c 613a 303c 0000 0000 0000 0000
00000180: 3654 c3bb 0000 0000 0000 0000 3781 e6ba
00000190: 0000 0000 0000 0000 0000 0000 9608 093c
000001a0: 2c2b 94bb c9ba 273c 0000 0000 0c41 dd3b
000001b0: 0000 0000 9b8a c13b 8fd2 193c 0000 0000
000001c0: c3ca fd3b 6af4 7d3b 0167 e1bb c1dd 2b3c
000001d0: f7c5 1c3b 0000 0000 670e 123c 0000 0000
000001e0: 0000 0000 0000 0000 0000 0000 e861 cd3b
000001f0: 0000 0000 0000 0000 1e47 2d3c b959 e9bb
00000200: a034 04bc 1bfc d7bb 7b49 8fba 325c 2c3c
00000210: 0000 0000 f8f0 293c 0000 0000 005d 343c
00000220: a6d3 bfba 0000 0000 0000 0000 0000 0000
00000230: 73c2 24bc 4243 c3bb ca0c babb 3f7d 113c
00000240: 9689 8bbb 0000 0000 ec3f c3bb 0000 0000
00000250: 0000 0000 e500 3a3c 25ce 1e3c 5244 1a3c
00000260: 31fd 233c 3d57 123c 0000 0000 7255 313c
00000270: 0000 0000 9300 c6bb 355c abbb 0000 0000
00000280: 1821 a2bb 0000 0000 e59e 9f3a b436 21bb
00000290: b6e0 103c 0000 0000 bf84 243c 2ea7 5bbb
000002a0: 9198 08bc 0000 0000 0000 0000 0000 0000
000002b0: 4094 bcbb 3e33 debb 43f4 9f3b cac2 acbb
000002c0: 9d6d 013c de0c cdbb 0000 0000 3013 553b
000002d0: 0fb8 12bc 0f21 093a 0000 0000 f051 c3bb
000002e0: 959c a4bb 429a 093c 13d3 fabb 0000 0000
000002f0: 7a64 2e3c 91c6 aebb 8e11 05bc 0f0f 16bc
00000300: f189 d5bb d12b 13bc 9fa5 31bc 0000 0000
00000310: 0000 0000 dc90 c3bb 0000 0000 e1cf 09bc
00000320: e24a c3bb abeb adbb 0bd1 b4bb 669d 1c3c
00000330: 0000 0000 0000 0000 0000 0000 2af1 333c
00000340: 0000 0000 59aa 143c 0000 0000 0000 0000
00000350: 0000 0000 0000 0000 0000 0000 0000 0000
00000360: 0000 0000 a3bf 103c 0000 0000 0000 0000
00000370: 47b3 eabb 9cf8 853b 0000 0000 44a9 bb3b
00000380: 0000 0000 0000 0000 0000 0000 3eb0 453c
00000390: 2585 fbbb 0000 0000 1eda eabb bfe0 2bbc
000003a0: e35d 2b3c 5794 143c 0000 0000 0000 0000
000003b0: 3667 c1bb 0000 0000 0000 0000 0000 0000
000003c0: 801b 60bb e793 1b3c 0000 0000 3b67 f6bb
000003d0: b60b 2b3c f730 c0b9 aed4 08bc 6b01 1b3c
000003e0: cc79 02b9 41de 5b3b c6d4 00ba 0ca6 313c
000003f0: dd63 3dbc b22a 9fbb 5da2 c2bb 341a 22bc

const_fold_opt__180 f4 [1, 128, 1]
3.716154e-05 0.0035887614 0.0005531585 0.005571915 0.00725062 -0.0007911991 0.007019093 0.0052335737
-0.012268484 -0.004939783 0.0060906652 0.0 0.005893959 0.0 -0.003988572 0.0019934974
0.0 0.0 0.0 -0.0024282355 0.0 0.0 -0.0093439445 0.0012457852
-0.0050027664 0.0 -0.006774065 0.0 0.003561358 0.0056896065 0.0 0.004245585
0.0 0.007954159 0.0 -0.012194723 -0.009718285 0.0074532153 0.0 0.0
-0.0014622483 -0.003615093 0.006717618 0.004255716 -0.006524089 0.0 0.007027997 -0.011396777
-0.0004835621 -0.0059626307 0.005745738 0.007052525 0.004506386 0.008416941 0.0 -0.005952614
0.0 -0.004278868 -0.004079882 0.0 0.0076939394 0.0 0.0 0.0037444213
-0.008319273 0.0 0.0075488505 0.0 -0.010561764 0.0 0.0 0.0
-0.006523218 -0.0095569035 0.0 0.0 0.001917901 0.005864615 0.0024929224 0.006659035
0.0 0.005198385 0.0003571643 0.0 -0.002782623 0.0 0.001262483 -0.00592472
0.0050596 0.0056981384 -0.011195292 0.0 -0.0061471304 0.0037892542 0.0095932335 0.0
0.0 0.0 0.0042129275 -0.005062167 -0.005447632 -0.010200063 -0.0049575507 0.0
0.0 -0.0033012014 -0.012080563 -0.0106888935 0.008687644 -0.005637485 0.005701594 0.0
-0.007551774 0.002034986 0.0 -0.0042071696 0.0036953741 -0.0011153121 0.0 0.0
0.00089145574 -0.012315697 -0.006733117 0.0070439978 -0.004909233 5.6250545e-05 0.0 0.001299938
00000000: e6dd 1b38 6d31 6b3b d701 113a 9c94 b63b
00000010: 9c96 ed3b 7968 4fba 6b00 e63b 667e ab3b
00000020: c001 49bc e7dd a1bb 3494 c73b 0000 0000
00000030: 1d22 c13b 0000 0000 91b2 82bb 56a5 023b
00000040: 0000 0000 0000 0000 0000 0000 0823 1fbb
00000050: 0000 0000 0000 0000 5817 19bc 9d49 a33a
00000060: 3fee a3bb 0000 0000 faf8 ddbb 0000 0000
00000070: ac65 693b e16f ba3b 0000 0000 8c1e 8b3b
00000080: 0000 0000 2952 023c 0000 0000 60cc 47bc
00000090: 7139 1fbc 1a3a f43b 0000 0000 0000 0000
000000a0: e9a8 bfba 32eb 6cbb 771f dc3b 8973 8b3b
000000b0: 06c8 d5bb 0000 0000 1d4b e63b 8cb9 3abc
000000c0: 9b86 fdb9 2c62 c3bb be46 bc3b de18 e73b
000000d0: 4eaa 933b 36e7 093c 0000 0000 250e c3bb
000000e0: 0000 0000 bf35 8cbb 88b0 85bb 0000 0000
000000f0: 711d fc3b 0000 0000 0000 0000 f764 753b
00000100: 8f4d 08bc 0000 0000 595c f73b 0000 0000
00000110: 400b 2dbc 0000 0000 0000 0000 0000 0000
00000120: b8c0 d5bb 8f94 1cbc 0000 0000 0000 0000
00000130: 1462 fb3a f52b c03b 4c60 233b 0934 da3b
00000140: 0000 0000 3757 aa3b c841 bb39 0000 0000
00000150: ab5c 36bb 0000 0000 e679 a53a 2724 c2bb
00000160: 00cb a53b 73b7 ba3b 756c 37bc 0000 0000
00000170: de6d c9bb 2355 783b f02c 1d3c 0000 0000
00000180: 0000 0000 0000 0000 990c 8a3b 89e0 a5bb
00000190: 0d82 b2bb 2a1e 27bc f372 a2bb 0000 0000
000001a0: 0000 0000 f858 58bb 8eed 45bc 7820 2fbc
000001b0: 9f56 0e3c a7ba b8bb 70d4 ba3b 0000 0000
000001c0: df74 f7bb 665d 053b 0000 0000 4cdc 89bb
000001d0: 172e 723b aa2f 92ba 0000 0000 0000 0000
000001e0: 95b0 693a c7c7 49bc 7ba1 dcbb 56d1 e63b
000001f0: a2dd a0bb 90ee 6b38 0000 0000 ae62 aa3a

const_fold_opt__176 f4 [1, 64, 1]
-0.0019507642 -0.00964054 -0.011648366 0.0 -0.0016462012 0.0 0.0059555955 0.0034061791
0.0 0.0 0.0 0.0 0.0 -0.006108142 0.0 0.0
-0.016186386 0.0021425323 -0.005662634 -0.0027640432 -0.006438049 0.0 -0.0087517025 0.006808304
0.0023336352 0.006581559 0.0032082445 0.006473942 -0.0062992866 0.0046478896 -0.003645598 0.0045143226
9.6124626e-05 0.0062440583 0.0 0.006194165 0.0 0.0026921523 0.0 0.0
0.0 0.0045280205 0.0 -0.008473571 -0.0059537943 -0.0015941197 0.00022995748 0.002762359
0.0064646876 0.0043537854 0.0 -0.007670313 0.0 0.0 0.0 -0.0022978703
0.008347285 -0.00044757355 -0.006241494 -0.0038046886 0.0 0.0016079166 0.0 -0.014498273
00000000: c9b0 ffba 5bf3 1dbc cad8 3ebc 0000 0000
00000010: 59c5 d7ba 0000 0000 2827 c33b 343a 5f3b
00000020: 0000 0000 0000 0000 0000 0000 0000 0000
00000030: 0000 0000 cf26 c8bb 0000 0000 0000 0000
00000040: 5099 84bc ba69 0c3b 9e8d b9bb f324 35bb
00000050: 45f6 d2bb 0000 0000 4d63 0fbc 3218 df3b
00000060: e7ef 183b 1eaa d73b 6941 523b 5d23 d43b
00000070: 3f6a cebb 534d 983b fcea 6ebb e2ec 933b
00000080: 8496 c938 f59a cc3b 0000 0000 6cf8 ca3b
00000090: 0000 0000 d26e 303b 0000 0000 0000 0000
000000a0: 0000 0000 ca5f 943b 0000 0000 bcd4 0abc
000000b0: 0c18 c3bb c8f1 d0ba be20 7139 b208 353b
000000c0: bbd5 d33b 33aa 8e3b 0000 0000 4057 fbbb
000000d0: 0000 0000 0000 0000 0000 0000 de97 16bb
000000e0: 0dc3 083c 4ea8 eab9 7285 ccbb 1558 79bb
000000f0: 0000 0000 bac0 d23a 0000 0000 2a8a 6dbc
