NN_model/models/lightprobe_model.onnx (onnx, 838605 bytes, 11 tensors)

functional_1/conv1d_5_1/convolution/ExpandDims_1:0 f4 [1, 128, 1, 1]
0	0xbe52c19c	-0.20581669
1	0x3e01ce87	0.1267644
2	0x3e116274	0.14197713
3	0x3c8f3e08	0.017485633
4	0x3da0c91b	0.07850858
5	0x3dc0dea7	0.094174676
6	0xbe534d05	-0.2063485
7	0xbcdd99f9	-0.027050959
8	0x3dbfdc54	0.09368196
9	0xbd9f21ea	-0.077701405
10	0xbc4f3be1	-0.012648554
11	0x3dcba47e	0.09943484
12	0x3e24d1f1	0.16095711
13	0x3e42e8bc	0.19034094
14	0xbe117f62	-0.14208749
15	0xbd00fee0	-0.031493068
16	0x3e33574c	0.1751377
17	0x3d0c36ab	0.034231823
18	0x3d18fe98	0.037352175
19	0x3d4c0849	0.04981259
20	0xbcbcbac4	-0.023038276
21	0xbc2e1664	-0.0106254555
22	0xbe00cc4e	-0.12577936
23	0xbc8537bd	-0.01626193
24	0x3d075219	0.03303728
25	0xbd345b6c	-0.0440325
26	0x3dec2468	0.115303814
27	0x3d6d0ab8	0.05787155
28	0xbe4bf51d	-0.19917722
29	0x39004400	0.00012232363
30	0xbda99a8c	-0.082814306
31	0x3d3c2218	0.04593095
32	0x3df57f62	0.11987187
33	0x3b63cc19	0.0034759103
34	0xbe37f9d6	-0.17966399
35	0x3bc73b2f	0.0060800533
36	0x3e1cef05	0.15325554
37	0xbdae0390	-0.08496773
38	0xbe167a12	-0.14695004
39	0xbe307657	-0.17232643
40	0xbe1a305e	-0.15057513
41	0x3c95b016	0.01827244
42	0xbe5c283d	-0.21499725
43	0x3e05d722	0.13070348
44	0x3dce53dc	0.10074589
45	0x3ca758c2	0.020428065
46	0x3ddb2188	0.10699755
47	0xbe072450	-0.13197446
48	0x3da4312f	0.080171935
49	0xbcc0d1e0	-0.023537576
50	0xbe5701a0	-0.20996714
51	0x3e427830	0.1899116
52	0x3ba15974	0.0049239937
53	0x3e2c6500	0.16835403
54	0xbc4ce0f0	-0.012504801
55	0x3d5998b4	0.053124145
56	0x3de3561f	0.11100411
57	0xbe4fb1c4	-0.20282656
58	0x3e1a25db	0.15053503
59	0x3d49aa90	0.049234927
60	0xbdd85854	-0.10563722
61	0xbe3473d5	-0.17622311
62	0xbe565d68	-0.20934069
63	0x3d76f250	0.06028968
64	0xbe56e8fe	-0.20987317
65	0x3e1a254c	0.1505329
66	0xbd1f5fa8	-0.038909584
67	0x3d9118e0	0.07084823
68	0xbe5be981	-0.21475793
69	0x3e1c35fc	0.15254968
70	0xbe11154a	-0.14168277
71	0x3d5bd7e5	0.05367269
72	0xbccbb3c4	-0.024865992
73	0xbd388ccd	-0.045056153
74	0xbe48b76c	-0.1960122
75	0xbe3afe8a	-0.18261161
76	0xbe1a4cb6	-0.15068325
77	0xbd98423b	-0.074345075
78	0x3e2f6863	0.17129664
79	0x3d3832ff	0.04497051
80	0xbe06e89f	-0.13174675
81	0xbe1ab872	-0.15109423
82	0xbdf8b686	-0.121441886
83	0xbdf94cd8	-0.1217286
84	0x3e4e8a9f	0.20170067
85	0xbdbc4064	-0.09191969
86	0x3e24a24c	0.16077536
87	0xbd93775a	-0.07200499
88	0x3d474246	0.048647188
89	0x3e00060a	0.12502304
90	0xbc44a8d8	-0.012003146
91	0x3dc54a28	0.09633285
92	0x3cb47bf2	0.022031758
93	0xbdc6b75b	-0.09702941
94	0xbcd72037	-0.026260478
95	0xbe4cd4fb	-0.2000312
96	0x3e2d9556	0.16951498
97	0xbe5a9546	-0.21346006
98	0x3dcb7067	0.099335484
99	0x3e29c298	0.16578138
100	0xbe0d7460	-0.13813925
101	0xbd4e391e	-0.05034744
102	0xbe54d87e	-0.2078571
103	0x3e475bd5	0.19468625
104	0xbc231370	-0.009953365
105	0x3e1313ae	0.14362976
106	0x3e55165a	0.20809308
107	0x3d8e819c	0.06958315
108	0xbbf979e0	-0.0076134056
109	0x3d9b1d07	0.07573896
110	0xbe146df4	-0.14495069
111	0xbe4d6683	-0.20058636
112	0x3daaa9e0	0.08333182
113	0xbe0a267a	-0.1349124
114	0xbc909bd8	-0.017652437
115	0xbd218fab	-0.039443653
116	0x3e052622	0.13002828
117	0x3df0a939	0.11751027
118	0x3e11ac87	0.1422597
119	0x3e26704b	0.16253774
120	0x3e429808	0.19003308
121	0xbdbf1281	-0.09329701
122	0xbdb4d962	-0.08830525
123	0x3ac72331	0.0015192983
124	0xbda2d74b	-0.0795122
125	0xbe4953c1	-0.19660856
126	0x3e19f0d2	0.15033272
127	0x3dc329eb	0.095294796

functional_1/conv1d_4_1/convolution/ExpandDims_1:0 f4 [128, 256, 1, 1]
0	0x3de86d84	0.113490134
1	0x3de70d8a	0.11281879
2	0x3dd313d7	0.103065185
3	0xbdc9ec1c	-0.098594874
4	0xbd6dddd7	-0.05807289
5	0xbdbc0450	-0.0918051
6	0x3d171d18	0.03689298
7	0x3d79f27e	0.061022274
8	0xbdf8ada8	-0.12142497
9	0x3d93862d	0.072033264
10	0xbb648880	-0.00348714
11	0x3ccffb4d	0.025388384
12	0xbcd94db0	-0.026526302
13	0x3c965aa0	0.01835376
14	0x3dee40a6	0.116334245
15	0xbdb963f5	-0.090522684
16	0xbdc901e4	-0.09814814
17	0x3dba1cc3	0.09087517
18	0xbd8c664e	-0.068554506
19	0x3c3e2f07	0.011607892
20	0x3d807e8d	0.06274138
21	0xbc2304e0	-0.009949893
22	0xbda96603	-0.0827141
23	0xbc6d3ddc	-0.01448008
24	0xbc3237f5	-0.010877599
25	0x3de621b8	0.112369
26	0xbdb7dd24	-0.08977726
27	0xb9b6a3b4	-0.00034835713
28	0xbdcc7612	-0.099834576
29	0x3cc13e15	0.023589173
30	0x3daa7ba6	0.08324365
31	0xbd8d05e0	-0.06885886
32	0xba042ce3	-0.0005042089
33	0xbd9a6748	-0.075392306
34	0xbc167da0	-0.009185225
35	0xbddb086c	-0.10694966
36	0xbdb06f50	-0.08614981
37	0x3d77e754	0.060523346
38	0x3dfbb64c	0.1229063
39	0xbc4b3a40	-0.012404025
40	0x3bc1ccea	0.0059143202
41	0x3de49f02	0.11163141
42	0x3d3a7480	0.04552126
43	0x3de4f8e1	0.111802824
44	0x3994037a	0.0002823135
45	0x3d028680	0.03186655
46	0xbdf626fa	-0.12019153
47	0x3d4fafb6	0.05070468
48	0xbdd8b580	-0.105814934
49	0x3d0e1af8	0.03469369
50	0x3d9fb8c4	0.07798913
51	0xbc920d23	-0.01782853
52	0xbd13c15c	-0.036073074
53	0xbceb0400	-0.02868843
54	0x3da60107	0.08105665
55	0xbd9ceb88	-0.076621115
56	0xbdd832b9	-0.105565496
57	0xbd33a174	-0.043855146
58	0xbcb42b90	-0.021993428
59	0x3bba92ed	0.0056937844
60	0xbd946bf4	-0.07247153
61	0x3d9829e6	0.074298665
62	0x3ca1d822	0.01975638
63	0x3a5cdda7	0.0008425363
64	0x3d9a32b3	0.07529201
65	0x3dd1a2ed	0.10236154
66	0xbb4eae34	-0.0031536939
67	0x3d2d5c4f	0.04232436
68	0x3d1e50ee	0.0386514
69	0xbd91e343	-0.07123425
70	0xbc135b68	-0.008993961
71	0xbd9d5d68	-0.076838315
72	0xbd9c4901	-0.07631112
73	0xbcdc4fd9	-0.026893543
74	0xbcb8d425	-0.022562096
75	0xbd4f0fb0	-0.05055207
76	0x3db98614	0.090587765
77	0xbcabfeb4	-0.020995475
78	0xbccefe50	-0.02526775
79	0x3dcda3dd	0.1004102
80	0x3d3e06a0	0.046393037
81	0x3d47537d	0.048663605
82	0xbc879d9a	-0.016554642
83	0x3d0e9135	0.03480645
84	0xbda9b80b	-0.082870565
85	0xbde83f8c	-0.113402456
86	0xbdab8254	-0.083744675
87	0xbd99d0d3	-0.07510533
88	0xbce33ea8	-0.027739838
89	0xbd67c5b8	-0.056585044
90	0xbce41c5a	-0.02784555
91	0x3d7c14ad	0.061543155
92	0x3d5c2430	0.05374545
93	0x3dd3c80e	0.10340892
94	0xbdc79b62	-0.09746434
95	0x3dab05de	0.083507285
96	0x3cf2ad30	0.029623598
97	0xbccb1c16	-0.024793666
98	0xbdb9e7e0	-0.0907743
99	0xbc83964d	-0.01606288
100	0xbd4e40ed	-0.050354887
101	0x3d620f43	0.055190336
102	0x3de0ba09	0.109729834
103	0xbdd2ca48	-0.10292488
104	0x3d9f421d	0.07776282
105	0x3cbed6f0	0.02329585
106	0x3d85324c	0.06503734
107	0x3da4f3c2	0.080543056
108	0xbde2c0b7	-0.11071914
109	0xbbf4bc54	-0.0074687395
110	0x3ce8e204	0.028428085
111	0x3de2d468	0.110756695
112	0xbc6b7607	-0.014371402
113	0x3bc70ecb	0.0060747615
114	0xbddfe134	-0.10931626
115	0x3d829cd3	0.06377568
116	0x3d7d753e	0.06187939
117	0xbd39a8a1	-0.045326833
118	0x3ba3540d	0.004984385
119	0x3d7591d8	0.05995354
120	0xbde15fdd	-0.110046126
121	0xbc0d398a	-0.008619675
122	0x3d00ce9a	0.03144703
123	0x3d89f3ec	0.067359775
124	0x3d3d1b4e	0.046168618
125	0xbdb9d7fa	-0.090743974
126	0xbd1cfda6	-0.038327836
127	0xbd99cbac	-0.075095505
128	0x3de1a2a4	0.11017349
129	0x3ce8204f	0.028335718
130	0xbdc600bd	-0.096681096
131	0x3cb7329b	0.022362998
132	0x3de2df54	0.11077753
133	0x3d188cd2	0.03724367
134	0xbda1505d	-0.07876656
135	0xbde2d950	-0.11076605
136	0x3c7bf4a0	0.015378147
137	0xbc39e163	-0.01134524
138	0x3d39a194	0.04532011
139	0xbdb27ee8	-0.08715612
140	0xbdf670a0	-0.120332
141	0xbceb99a0	-0.028759778
142	0xbda56e26	-0.0807765
143	0x3d6d0217	0.05786332
144	0x3d19f81f	0.037590142
145	0xbd0acb61	-0.033885363
146	0x3dedd6d8	0.11613244
147	0xbdc0d804	-0.09416202
148	0xbd830114	-0.0639669
149	0x3cd51760	0.026012123
150	0xbddb1f38	-0.10699314
151	0x3cb29a6f	0.021802155
152	0x3c52037b	0.012818213
153	0x3c8092f8	0.01569508
154	0xbdd8c8b9	-0.1058516
155	0x3dcfd2f7	0.1014766
156	0x3df12b90	0.11775887
157	0x3d955f77	0.07293599
158	0xbdfbea24	-0.12300518
159	0xbd887cea	-0.066644505
160	0xbd1d8438	-0.03845617
161	0xba96974d	-0.0011489183
162	0x3d20abe8	0.039226443
163	0xbdddc720	-0.10828996
164	0xbcc6c8d7	-0.02426569
165	0xbcc2455c	-0.023714714
166	0x3dc91b14	0.09819618
167	0x3dc8d0c8	0.09805447
168	0xbca9abe0	-0.02071184
169	0x3d90b3a3	0.07065513
170	0xbd58ebca	-0.05295924
171	0xbbf07ec0	-0.0073393285
172	0xbda6f86b	-0.08152851
173	0x3dcabc4f	0.09899198
174	0xbd782ab8	-0.060587615
175	0xbdd2452c	-0.102671
176	0x3bb19aad	0.00542005
177	0xbd3ddf7f	-0.04635572
178	0xbda3a829	-0.079910584
179	0xbd777442	-0.060413606
180	0x3d8e4edf	0.06948637
181	0xbc9dcfcc	-0.019264124
182	0x3db73f62	0.08947636
183	0x3dd6ec8a	0.10494335
184	0x3ab8b86e	0.001409305
185	0xbdd96405	-0.1061478
186	0xbd991734	-0.07475129
187	0x3de94886	0.11390786
188	0xbdaa015a	-0.08301039
189	0x3d68ac71	0.056805078
190	0xbc948eaa	-0.018134434
191	0xbdbf3d18	-0.093378246
192	0x3ddf69a4	0.10908821
193	0xbd96f7e2	-0.07371499
194	0xbd4e4988	-0.050363094
195	0x3db1b9c9	0.08678014
196	0x3d50f872	0.051018186
197	0x3dc0aa30	0.09407461
198	0xbdcc4f59	-0.09976072
199	0xbdfcf3c8	-0.12351185
200	0x3df68449	0.1203695
201	0xbde456a2	-0.111493364
202	0xbd8947ec	-0.06703171
203	0xbd4f4838	-0.050605983
204	0x3d6b8894	0.057503298
205	0x3dcd0379	0.10010428
206	0x3de28865	0.110611714
207	0xbdac9b88	-0.08428103
208	0x3daeb174	0.0852994
209	0x3d33d808	0.043907195
210	0x3d4cc4dd	0.04999243
211	0xbd86f2bc	-0.06589267
212	0xbdad7f1e	-0.08471511
213	0x3d0ce930	0.034402072
214	0xbc941188	-0.018074766
215	0xbdf7ae7c	-0.12093827
216	0xbdb191b8	-0.08670372
217	0xbd8143b2	-0.0631174
218	0xbc0acb57	-0.008471332
219	0xbd477ba5	-0.0487019
220	0xbd6abb3e	-0.057307474
221	0x3d9c431e	0.07629989
222	0x3d1e67a8	0.038673073
223	0xbd80374e	-0.062605485
224	0xbd9be04c	-0.076111406
225	0x3d26c878	0.040718526
226	0xbc68c1a0	-0.01420632
227	0x3d5e357a	0.054250218
228	0xbd4465d0	-0.04794866
229	0x3dca850c	0.09888658
230	0xbda811e4	-0.08206537
231	0xbc899f5d	-0.016799623
232	0x3de4ac43	0.11165669
233	0xbdfb4360	-0.1226871
234	0x3ded1394	0.11576
235	0xbdf72b0c	-0.120687574
236	0x3d555f80	0.05209303
237	0xbb5ebe91	-0.0033988098
238	0xbc442300	-0.011971235
239	0x3d84ceb0	0.06484735
240	0xbd49f964	-0.049310103
241	0xbd6fdc98	-0.058559984
242	0x3dff30c4	0.12460473
243	0xbda7b87f	-0.08189487
244	0xbd679c70	-0.056545675
245	0xbc3f00e0	-0.011657923
246	0x3ad664ce	0.0016356946
247	0x3cc97732	0.02459297
248	0x3dd69ab4	0.10478726
249	0x3d8b48c0	0.06800985
250	0xbcd6cda0	-0.026221097
251	0xbd08acbf	-0.03336787
252	0xbdd2a420	-0.102852106
253	0x3daecf7d	0.08535669
254	0x3a4ed26b	0.0007889631
255	0x3de72cd0	0.11287844

functional_1/conv1d_3_1/convolution/ExpandDims_1:0 f4 [256, 512, 1, 1]
0	0x3d32596a	0.043542303
1	0xbb096000	-0.0020961761
2	0xbc8e3db3	-0.017363405
3	0x3d1a013d	0.037598837
4	0xbdafe71c	-0.085890025
5	0xbd6a661d	-0.05722629
6	0x3d888547	0.06666046
7	0xbda30dd5	-0.079616226
8	0x3d368a64	0.044565573
9	0xbd8e20f8	-0.06939882
10	0x3d335c16	0.043788992
11	0xbd8c8ccf	-0.068627946
12	0xbd58c530	-0.052922428
13	0xbcac83a0	-0.021058857
14	0x3cb2a1e1	0.021805706
15	0xbca7605a	-0.020431686
16	0x3d239c0e	0.039943747
17	0x3d7fec25	0.062481064
18	0x3ca24ce3	0.019812053
19	0x3da84063	0.08215406
20	0x3ceaa67f	0.028643845
21	0x3c9c8981	0.019108536
22	0xbdb94557	-0.09046429
23	0x3da747f4	0.08168021
24	0xbd9cf521	-0.07663942
25	0x3d0601ec	0.032716677
26	0x3c3c76dd	0.011502949
27	0x3d046d14	0.032330588
28	0x3d1fcd73	0.03901429
29	0x3d4f6d91	0.0506416
30	0xbb560580	-0.0032657087
31	0xbc9e2f64	-0.019309707
32	0x3d84d1d6	0.064853355
33	0x3da2bd4d	0.079462625
34	0x3d81d585	0.06339554
35	0xbdbaf666	-0.09129028
36	0xbc5b6a09	-0.01339198
37	0xbd7ad688	-0.06123975
38	0x3d386af6	0.04502388
39	0x3d38f35e	0.045153968
40	0xbbd515f0	-0.0065028593
41	0xbca9c0ec	-0.020721875
42	0x3c669fa6	0.014076149
43	0xbd27a080	-0.04092455
44	0x3cecaccf	0.028890995
45	0xbd5c736f	-0.053821024
46	0xbd001baf	-0.0312764
47	0xbcb3c28c	-0.021943353
48	0xbc701b20	-0.014654905
49	0xbd733580	-0.059377193
50	0x3d7d45d5	0.061834175
51	0x3c1b2360	0.009468883
52	0xbc8fb9d0	-0.017544657
53	0xbd57ba0f	-0.052667674
54	0x3d5f155e	0.054463737
55	0xbd29b1a5	-0.04142918
56	0x3d56315a	0.05229316
57	0x3d9fbd19	0.077997394
58	0x3d875535	0.06608049
59	0xbd27e83f	-0.04099297
60	0xbc333570	-0.010938033
61	0x3cd2117b	0.025643101
62	0xbd97cefa	-0.074125245
63	0x3b8f2ca5	0.0043693357
64	0xbc94408b	-0.018097183
65	0x3b8831e0	0.004156336
66	0x3c273ebb	0.010207827
67	0xbd47a6a6	-0.048742913
68	0x3d9bcd1b	0.0760748
69	0xbcb40b3e	-0.021978017
70	0xbd3822c9	-0.04495505
71	0xbbb269d8	-0.0054447465
72	0x3d69f274	0.057115987
73	0xbbea34a9	-0.007147391
74	0xbb545560	-0.003239952
75	0x3d05c9eb	0.032663267
76	0xbb21afd6	-0.0024671457
77	0x3d86697c	0.06563088
78	0x3c5fe193	0.013664621
79	0x3c2ba3f8	0.010476105
80	0xbd632c5f	-0.055462237
81	0xbda204a4	-0.079110414
82	0xbd8a3c7f	-0.0674982
83	0xbd7e8e24	-0.062147275
84	0x3d709be2	0.05874241
85	0xbabd60c0	-0.0014448389
86	0x3d86bab3	0.06578579
87	0x3d87fa2e	0.06639515
88	0x3d84cc7e	0.06484316
89	0x3d41e244	0.047334924
90	0xbd12a908	-0.035805732
91	0xbdba7109	-0.09103591
92	0xbdbafe93	-0.091305874
93	0x3ca403e8	0.020021394
94	0x3ced77b3	0.028987741
95	0xbc92a330	-0.01790008
96	0xbaf4ef8b	-0.0018687112
97	0xbc921592	-0.017832551
98	0x3ce26098	0.02763395
99	0xbc4d3870	-0.012525663
100	0xbb13bf80	-0.0022544563
101	0xbd0bebbb	-0.034160357
102	0xbd9878b7	-0.074448995
103	0x3d1b386b	0.0378956
104	0xbc5bbcb8	-0.013411693
105	0xbbbd2fe2	-0.0057735303
106	0x3d1f13e0	0.038837314
107	0xbd86d83b	-0.065842114
108	0x3cb5d7d8	0.022197649
109	0xbcdc0454	-0.026857533
110	0x3d01b452	0.031666107
111	0xbd9865d8	-0.074413
112	0x3d4948c4	0.04914166
113	0x3d9466db	0.072461806
114	0xbba72636	-0.0051009906
115	0xbca4c1dd	-0.020111972
116	0xbdbf4039	-0.093384214
117	0x3cfdb20b	0.030968687
118	0xbc3fd93d	-0.0117095085
119	0x3c458e80	0.0120579
120	0x3c9323ec	0.017961465
121	0xbd3b7d6e	-0.045773916
122	0x3d171f31	0.03689498
123	0x3be75e5d	0.0070608095
124	0xbd94a28e	-0.07257567
125	0x3d1e7707	0.038687732
126	0x3cb029f0	0.021504372
127	0x3d417d20	0.04723847
128	0x3da253f5	0.0792617
129	0xbd9828df	-0.074296705
130	0xbc85da0e	-0.016339328
131	0xbd66668a	-0.056250133
132	0xbd1bdedf	-0.038054343
133	0x3d104eba	0.03523133
134	0xbdb2893e	-0.08717583
135	0x3d91fd25	0.071283616
136	0x3d744dc3	0.05964447
137	0x3d744c4d	0.05964308
138	0xbc901bd3	-0.017591393
139	0x3cbc503c	0.022987477
140	0x3c1e99b8	0.009680204
141	0x3c075a70	0.008261308
142	0x3d925b1d	0.07146285
143	0x3d84ce5b	0.06484672
144	0xbd7d515c	-0.06184517
145	0x3d03b3c9	0.03215388
146	0x3da68775	0.08131305
147	0x3cc45f0c	0.023971103
148	0x3cd4c7b4	0.025974132
149	0xbd285279	-0.041094277
150	0xbce12294	-0.027482308
151	0xba3d3900	-0.00072182715
152	0xbd9388a0	-0.072037935
153	0xbd260b5f	-0.040538188
154	0x3c87d234	0.016579725
155	0xbd993a61	-0.07481838
156	0x3cbb35cd	0.022852803
157	0xbd2f2486	-0.04275944
158	0x3d23a3ff	0.03995132
159	0x3cef5525	0.029215405
160	0xbd77c309	-0.060488734
161	0x3cb53514	0.022120036
162	0x3cde5f10	0.027144939
163	0x3d9bd972	0.07609834
164	0x3c956126	0.0182348
165	0xbd64cd3c	-0.05585979
166	0xbdac386c	-0.08409199
167	0x3ceef0c0	0.029167533
168	0xbd82a374	-0.063788325
169	0x3d9cb3db	0.07651492
170	0xbd2dbae8	-0.042414576
171	0xbc019662	-0.007909389
172	0x3dadf417	0.08493822
173	0x3c30a1bd	0.010780749
174	0x3c9bae6f	0.019004075
175	0x3da680e5	0.081300534
176	0x3ca2b128	0.019859865
177	0xbbe3bad0	-0.00694976
178	0xbcea7e27	-0.028624607
179	0xbd317b65	-0.04333057
180	0xbc367d38	-0.011138253
181	0xbd9d6a23	-0.076862596
182	0x3cf57895	0.029964725
183	0xbccc7450	-0.024957806
184	0x3d83f519	0.06443233
185	0xbdaa20d4	-0.08307043
186	0x3cef7cbe	0.029234286
187	0xbd1e19b8	-0.038598746
188	0x3d17fc4b	0.03710584
189	0x3d9c66c3	0.07636788
190	0xbd66f9a4	-0.05639042
191	0xbd9b0e83	-0.07571127
192	0x3be8a4d2	0.0070997262
193	0x3cba6600	0.022753716
194	0xbd9713d0	-0.07376826
195	0xbda7f228	-0.082004845
196	0x3cfd9f90	0.030959874
197	0xbdaab1af	-0.08334672
198	0xbbe77c5f	-0.0070643867
199	0xbda30682	-0.07960226
200	0xbd9ccf1d	-0.07656691
201	0x3cc7a95b	0.024372747
202	0xbc0faefa	-0.008769745
203	0x3d4b69e6	0.04966154
204	0xbd4bcc7b	-0.049755555
205	0x3c8697b8	0.016429767
206	0x3d21c7c5	0.039497156
207	0xbc945a15	-0.01810936
208	0x3cb0129e	0.021493252
209	0xbcaf16a1	-0.021373095
210	0xbdaa512c	-0.083162636
211	0xbd46b664	-0.048513785
212	0x3c9b3e9e	0.018950757
213	0xbbc5dd1e	-0.006038322
214	0x3d9e7443	0.07737019
215	0xbda147e8	-0.07875043
216	0xbd8c1d4f	-0.06841528
217	0xbd368c4a	-0.044567384
218	0xbd8a507b	-0.06753632
219	0xbaa009c0	-0.0012209937
220	0xbd7892e3	-0.060686957
221	0x3d26b01a	0.040695287
222	0x3ceb7bc5	0.028745541
223	0x3d4c5bf1	0.04989237
224	0xb9d6f900	-0.0004100278
225	0xbdacd7a5	-0.084395684
226	0xbdb05c45	-0.08611349
227	0xbb901ff0	-0.0043983385
228	0xbdaccfac	-0.08438048
229	0xbc7fc009	-0.01560975
230	0x3d940ea6	0.072293565
231	0x3d7f5c3a	0.062343813
232	0xbd36b75c	-0.04460846
233	0xbccdd1b3	-0.025124406
234	0x3d6f0736	0.058356486
235	0xbdbfb959	-0.09361524
236	0x3d8b0e33	0.06789818
237	0x3ce83fcc	0.028350733
238	0x3c5106b9	0.01275795
239	0xbd46dcc0	-0.048550367
240	0x3d28cb6a	0.041209616
241	0x3c0acaa5	0.008471166
242	0x3c2c6f5b	0.010524596
243	0x3cda6501	0.02665949
244	0xbd884b06	-0.066549346
245	0x3d5f9062	0.054581054
246	0x3c124501	0.008927585
247	0x3ae9314f	0.0017791184
248	0x3d2b9966	0.04189434
249	0x3da3cb72	0.079977885
250	0xbc0dbb66	-0.008650636
251	0xbd8a5a24	-0.06755474
252	0x3d4aabdb	0.0494803
253	0x3d9babf4	0.07601157
254	0xbcb98a1d	-0.022648865
255	0xbd101a34	-0.03518124

functional_1/conv1d_2_1/convolution/ExpandDims_1:0 f4 [256, 128, 1, 1]
0	0xbdebe81c	-0.11518881
1	0xbba16a4a	-0.0049260007
2	0x3d8c319c	0.068454
3	0x3df0d25a	0.117588714
4	0x3cbfb36a	0.023400981
5	0x3d818861	0.0632484
6	0xbbdbdce2	-0.006709681
7	0x3dd70164	0.10498312
8	0xbb826dbe	-0.0039803674
9	0x3d674ed8	0.056471676
10	0xbddfab2d	-0.10921321
11	0x3d8f369f	0.0699284
12	0x3c8ce8f0	0.017200917
13	0xbd3b963b	-0.045797568
14	0xbd233625	-0.039846558
15	0x3db6fcc5	0.08934931
16	0x3df15310	0.11783421
17	0x3ceb5d6d	0.028731072
18	0xbd0f26a8	-0.034948975
19	0x3cbfbae0	0.023404539
20	0xbd16e482	-0.036839016
21	0x3da5be75	0.080929674
22	0x3ddb7f54	0.10717645
23	0x3cdce760	0.026965797
24	0xbd8178f0	-0.06321895
25	0x3dcb234b	0.09918841
26	0xbd614688	-0.054998904
27	0xbd91eb91	-0.07125009
28	0xbdce1957	-0.10063427
29	0x3ddc118b	0.107455336
30	0xbd8861ba	-0.06659265
31	0xbdbebc19	-0.093132205
32	0xbd75f3ef	-0.060047086
33	0xbdd52a98	-0.10408515
34	0x3de6d1a4	0.112704545
35	0x3dcbbb80	0.09947872
36	0x3c09f13b	0.00841933
37	0xbdc0ab6c	-0.09407696
38	0xbdae1968	-0.085009396
39	0x3d97df38	0.074156225
40	0xbd868c7d	-0.06569765
41	0xbd8f1b44	-0.069876224
42	0xbd90b80c	-0.07066354
43	0xbc71d240	-0.0147596
44	0x3d20b108	0.03923133
45	0xbddd469c	-0.10804483
46	0x3d30c922	0.043160565
47	0x3c03dd40	0.008048356
48	0x3c1a0680	0.009400964
49	0x3dc2a12c	0.09503397
50	0x3d4c6bf0	0.049907625
51	0x3d4b04ed	0.049565244
52	0xbdafb800	-0.08580017
53	0x3de50070	0.11181724
54	0xbdd27938	-0.10277027
55	0xbd7f4398	-0.06232032
56	0x3dccb3b0	0.0999521
57	0xbdf2ec95	-0.11861531
58	0x3db57949	0.08861024
59	0xbd30b570	-0.043141782
60	0xbd70a00d	-0.058746386
61	0xbc9238b0	-0.017849296
62	0xbe032bf7	-0.1280974
63	0xbde77248	-0.11301094
64	0x3da62704	0.081129104
65	0xbca97b94	-0.02068881
66	0x3dd43b9a	0.103629306
67	0x3dad42ab	0.084599815
68	0xbdea9f53	-0.1145617
69	0xbd9bba5c	-0.076039046
70	0xbdcc211c	-0.099672526
71	0xbddeb2cd	-0.10873947
72	0xbd6ca52d	-0.05777471
73	0xbdd27d7b	-0.1027784
74	0x3df5f331	0.12009276
75	0xbdc13bac	-0.0943521
76	0xbd8149b6	-0.06312887
77	0x3dd1ad17	0.102380924
78	0xbc5e3380	-0.013562083
79	0x3d04829b	0.032351118
80	0xbdbeffd4	-0.09326139
81	0xbd8ca740	-0.06867838
82	0x3dd74340	0.10510874
83	0x3d0e0d47	0.03468063
84	0x3d4bd0f0	0.049759805
85	0x3dadc120	0.08484101
86	0x3dba9e6a	0.09112246
87	0xbdfa9247	-0.122349314
88	0xbd358ac8	-0.044321805
89	0xbc995cf4	-0.018721081
90	0x3d8f9c38	0.07012218
91	0xbd8525f4	-0.065013796
92	0x3db9d882	0.09074499
93	0xbd3b6564	-0.04575099
94	0x3d8f989c	0.0701153
95	0xbd490aa8	-0.04908243
96	0x3c854178	0.01626657
97	0xbc3efba7	-0.011656678
98	0xbdcab964	-0.09898642
99	0xbd458b11	-0.048228327
100	0xbc9d4140	-0.019196153
101	0x3ded1eec	0.115781635
102	0x3de98333	0.114019774
103	0x3d8d225d	0.0689132
104	0x3d951f2b	0.072813354
105	0x3d8c7d18	0.06859797
106	0xbd36bd18	-0.044613928
107	0x3db18ddf	0.08669638
108	0x3d924e42	0.07143833
109	0xbc9a0fc1	-0.01880634
110	0x3df888a0	0.12135434
111	0x3dbbf220	0.09177041
112	0x3c9f44d9	0.019442009
113	0xbdcbf8c8	-0.09959561
114	0xbd8c49c0	-0.06850004
115	0xbddfcecd	-0.10928116
116	0x3df7be5c	0.12096855
117	0x3dd8d17c	0.10586831
118	0x3b2c39c4	0.0026279548
119	0xbc92b3e5	-0.017908046
120	0xbd5075a5	-0.050893445
121	0x3ce1416e	0.02749702
122	0x3d97d6f0	0.07414043
123	0x3dca7aa7	0.09886675
124	0xbdb2e2e9	-0.08734686
125	0x3d51c458	0.05121264
126	0xbdf5c9d7	-0.120013885
127	0x3dc71aec	0.09721932
128	0x3dd42c6c	0.10360035
129	0xbdb0a284	-0.086247474
130	0xbc916ea0	-0.017752945
131	0xbd8716c0	-0.06596136
132	0x3d271118	0.040787786
133	0x3d41fca0	0.047360063
134	0x3cb16c20	0.021658003
135	0xbd8e9a3c	-0.069630116
136	0xbafdf500	-0.0019375384
137	0x3d3049c0	0.043039083
138	0x3d6b2e90	0.057417452
139	0x3c3b3940	0.011427224
140	0x3d9d9bf4	0.07695761
141	0xbdec4e08	-0.11538321
142	0xbd315d10	-0.043301642
143	0x3dbc568c	0.09196195
144	0xbd889638	-0.06669277
145	0xbda712dc	-0.08157894
146	0x3dc99824	0.09843472
147	0x3dfaa4b4	0.12238446
148	0xbdf02ba8	-0.11727077
149	0xbda39310	-0.07987034
150	0xbdc42b70	-0.095785975
151	0xbd135a28	-0.03597465
152	0xbc90a5c0	-0.01765716
153	0x3c468e20	0.012118846
154	0xbd4b1fa0	-0.049590707
155	0x3d6609a8	0.056161553
156	0x3d5ec498	0.054386705
157	0x3ddae150	0.10687506
158	0x3d7c1570	0.061543882
159	0xbdcb4968	-0.099261105
160	0x3dc8b2d0	0.09799731
161	0xbb36c280	-0.0027886927
162	0xbd9b4a00	-0.07582474
163	0xbcad22e0	-0.021134794
164	0x3dd30afc	0.103048295
165	0xbd6cac18	-0.05778131
166	0xbdca056c	-0.098643154
167	0xbdfc1a8c	-0.12309751
168	0x3df94b64	0.12172583
169	0x3ddcf878	0.10789579
170	0x3d1b4cc0	0.03791499
171	0x3dbc8ecc	0.09206924
172	0xbd47b1e0	-0.04875362
173	0x3da2af68	0.07943612
174	0xbde61690	-0.11234772
175	0x3dc08da8	0.09402019
176	0x3decbf80	0.11559963
177	0xbb190c80	-0.0023353398
178	0x3c5a4fc0	0.013324678
179	0x3c8e62e0	0.017381132
180	0x3da13ac0	0.07872534
181	0x3d587bd0	0.05285245
182	0x3d978a64	0.07399443
183	0x3dcff8b4	0.10154858
184	0x3d8bb2b4	0.06821194
185	0xbd9c1120	-0.07620454
186	0x3c961330	0.018319696
187	0xbdb3e440	-0.087837696
188	0xbdb980d8	-0.09057778
189	0xbd9e1558	-0.07718915
190	0xbdcb5e70	-0.09930122
191	0x3ded677c	0.11592004
192	0x3cd998a0	0.026562035
193	0x3de00ecc	0.10940322
194	0xbd79a450	-0.060947716
195	0x3d4b4430	0.049625576
196	0xbd5f3b70	-0.054500043
197	0xbd3d9130	-0.04628104
198	0x3df3dac8	0.119069636
199	0x3c0cb920	0.008589059
200	0xbd6d2870	-0.057899892
201	0x3db8811c	0.09009001
202	0xbdb320a4	-0.0874646
203	0x3da209cc	0.07912025
204	0xbddf96c4	-0.10917428
205	0xbcb0e820	-0.02159506
206	0x3d8d49ac	0.068988174
207	0xbd92bd18	-0.07164973
208	0xbdd911ac	-0.10599074
209	0x3c70a120	0.014686853
210	0x3ddaebfc	0.10689542
211	0xbdc7c078	-0.097535074
212	0x3d1ed5a0	0.038777947
213	0x3d135f38	0.03597948
214	0x3d8fdea0	0.07024884
215	0x3c2e5820	0.010641128
216	0xbd9b15b0	-0.07572496
217	0x3d271fd0	0.040801823
218	0x3dc65a44	0.096851856
219	0xbdf12f94	-0.11776653
220	0xbda51350	-0.08060324
221	0x3d44d148	0.04805115
222	0x3dbd0dbc	0.09231135
223	0x3df3fb9c	0.11913225
224	0x3dfd2b9c	0.123618335
225	0xbce65780	-0.028117895
226	0x3c9e8480	0.01935029
227	0x3dd397fc	0.10331723
228	0x3da36788	0.079787314
229	0xbd443e00	-0.04791069
230	0xbd77a0f8	-0.060456246
231	0x3c080260	0.0083013475
232	0xbd9138ec	-0.07090935
233	0xbc672d20	-0.01410988
234	0x3c974c10	0.018468887
235	0xbafc3a00	-0.001924336
236	0x3b5b8b00	0.0033499599
237	0x3c91cf60	0.01779908
238	0x3d28f148	0.04124573
239	0xbdf0b998	-0.11754149
240	0x3d231020	0.0398103
241	0xbd906764	-0.0705097
242	0x3d626268	0.05526963
243	0xbd47b038	-0.04875204
244	0xbcaf8fd0	-0.02143088
245	0x3d94501c	0.07241842
246	0xbc46a240	-0.012123644
247	0xbd9a7020	-0.075409174
248	0x3da91004	0.08255008
249	0xbda406b0	-0.08009088
250	0x3ba0a100	0.004902005
251	0xbd859c78	-0.06523985
252	0xbd997768	-0.07493478
253	0x3cf44580	0.029818296
254	0xbdaa3378	-0.08310598
255	0x3d16fe58	0.036863655

functional_1/conv1d_1_2/convolution/ExpandDims_1:0 f4 [128, 64, 1, 1]
0	0x3c6b95bd	0.014378962
1	0xbd8e9aac	-0.06963095
2	0x3d44a484	0.048008457
3	0xbd423b37	-0.047419753
4	0xbd03471c	-0.032050237
5	0xbd59092e	-0.05298727
6	0x3d5991c8	0.053117543
7	0xbe0dea53	-0.13858919
8	0xbe14b2af	-0.14521287
9	0x3e19ec7e	0.15031621
10	0x3d298232	0.04138393
11	0xbe1492b1	-0.14509083
12	0x3de54656	0.11195056
13	0x3cefc6fe	0.029269692
14	0x3dc38ed8	0.0954873
15	0x3d0412bd	0.032244433
16	0x3e24d80d	0.16098042
17	0x3e0c5d58	0.13707483
18	0xbd75f496	-0.06004771
19	0x3e2f45d6	0.17116484
20	0xbd07f5f5	-0.033193547
21	0x3d790b5c	0.06080185
22	0xbd78b5b8	-0.060720176
23	0xbdeb7c3f	-0.114983074
24	0xbdc93fd2	-0.09826626
25	0x3dd91822	0.10600306
26	0x3e06f4bb	0.13179295
27	0x3d83a59e	0.06428073
28	0xbdda23bc	-0.10651347
29	0x3e10eef4	0.14153653
30	0x3dad45ff	0.08460616
31	0xbcdd27e8	-0.026996568
32	0xbde99be3	-0.11406686
33	0xbdbde504	-0.09272197
34	0xbd537ef0	-0.05163473
35	0x3c96753d	0.01836645
36	0x3c25e64d	0.010125709
37	0xbc7508e0	-0.014955729
38	0x3c6fd00c	0.014637005
39	0x3d6e450d	0.05817132
40	0xbc8e434a	-0.01736607
41	0xbd358490	-0.044315875
42	0x3e0c31c7	0.13690864
43	0x3d88944b	0.0666891
44	0x3d24ab78	0.040202588
45	0xbd9cc630	-0.07654989
46	0xbd240698	-0.04004535
47	0x3a87c4c3	0.0010358322
48	0xbe2185a3	-0.15773635
49	0xbda5b641	-0.08091403
50	0x3d9697e6	0.07353191
51	0xbd915db4	-0.070979506
52	0xbd89ecde	-0.06734632
53	0x3c9f5e77	0.019454224
54	0x3e027847	0.12741195
55	0xbe195826	-0.14975032
56	0xbe0a3927	-0.13498364
57	0x3cc6b18c	0.024254583
58	0x3e2fcbe1	0.17167617
59	0xbe0b16a3	-0.13582854
60	0xbe24ac03	-0.16081242
61	0xbd34058c	-0.043950602
62	0xbcb198fe	-0.021679398
63	0x3e318175	0.1733454
64	0xbd6e4aef	-0.05817693
65	0xbba9dbc9	-0.005183671
66	0x3c0596f9	0.0081536705
67	0x3d0f8e01	0.035047535
68	0x3d981356	0.07425563
69	0xbe1e7e42	-0.15477851
70	0xbdbf4e86	-0.09341149
71	0x3dc9b197	0.09848326
72	0x3d521f84	0.051299587
73	0x3e26850b	0.1626169
74	0xbdaff89f	-0.085923426
75	0xbcf944d0	-0.03042832
76	0x3d0fe5fa	0.035131432
77	0xbdb7dc2b	-0.089775406
78	0x3dd5689c	0.10420343
79	0xbe134a8c	-0.14383906
80	0xbddc152a	-0.10746224
81	0x3cad75a1	0.021174254
82	0x3de2ece9	0.11080343
83	0xbda58a1b	-0.08082982
84	0xbc4657fd	-0.012105939
85	0x3c5171d0	0.012783483
86	0x3e1fc049	0.15600695
87	0x3c8dc78b	0.017307064
88	0x3ddb756a	0.10715754
89	0x3e0c854d	0.13722725
90	0xbbe64aa0	-0.007027939
91	0xbe017d45	-0.12645443
92	0x3db21d42	0.08696987
93	0x3da53304	0.08066371
94	0xbd70fe01	-0.058835987
95	0xbd008d1c	-0.031384572
96	0xbba47b05	-0.005019548
97	0x3c9b3607	0.01894666
98	0xbd93a47e	-0.07209109
99	0x3e1f7607	0.15572368
100	0x3dae2966	0.0850399
101	0x3c0a42f0	0.008438811
102	0xbda93e3a	-0.08263822
103	0x3d9abbcf	0.07555353
104	0xbdd7aa00	-0.10530472
105	0xbe30aced	-0.17253466
106	0xbcede170	-0.029038161
107	0x3c6b7c11	0.014372841
108	0xbd0cc2fe	-0.034365647
109	0x3dab1806	0.083541915
110	0x3df8131f	0.12113022
111	0x3cc3eb44	0.023915894
112	0x3d482f18	0.048873037
113	0x3ac0333b	0.0014663705
114	0x3ca13fcd	0.019683743
115	0xbda65cbb	-0.08123156
116	0xbde8ac82	-0.11361028
117	0xbe226295	-0.15857919
118	0xbd91b091	-0.071137555
119	0xbdb18b66	-0.08669166
120	0x3e0f3a58	0.139871
121	0xbe1383c1	-0.14405729
122	0x3c034d60	0.008014053
123	0x3dc9b605	0.098491706
124	0x3e097540	0.13423634
125	0xbdf8a582	-0.12140943
126	0xbdd92b3b	-0.10603949
127	0x3cbfa733	0.023395156
128	0xbd238779	-0.03992412
129	0x3d58fa5b	0.052973133
130	0xbdba1c07	-0.09087377
131	0xbdc8f095	-0.098115124
132	0x3d1dd1e0	0.03853023
133	0xbdb69639	-0.089153714
134	0xbdff6800	-0.12471008
135	0x3e2a9983	0.16660123
136	0xbddd1e1b	-0.10796758
137	0xbd982910	-0.07429707
138	0x3dcbbf19	0.09948558
139	0x3d43aac2	0.04777027
140	0xbc07a6a2	-0.008279474
141	0xbe1fde55	-0.15612157
142	0x3d9b93d4	0.07596555
143	0x3db0095b	0.085955344
144	0x3d2b7910	0.0418635
145	0x3cd3da48	0.02586092
146	0xbdb9a6ce	-0.090650186
147	0x3da31d76	0.079646036
148	0xbd78f4ba	-0.060780264
149	0xbd8555bf	-0.065104954
150	0x3beef532	0.007292413
151	0x3df3b532	0.11899795
152	0xbc75fe58	-0.015014254
153	0xbda07a5c	-0.07835838
154	0xbdede15c	-0.116152495
155	0x3da85f54	0.082213074
156	0x3c38661c	0.0112548135
157	0x3e084c0d	0.13310261
158	0x3d789c4e	0.06069594
159	0x3cc5db92	0.02415255
160	0xbe044ddf	-0.1292033
161	0xbe35e45b	-0.17762892
162	0x3dc3a007	0.09552007
163	0x3c6a9de8	0.014319874
164	0x3e22fbb8	0.15916336
165	0xbdbc57bb	-0.09196421
166	0xbd187602	-0.037221916
167	0xbcd801e0	-0.026368082
168	0x391253d0	0.00013954868
169	0xbdcd3345	-0.100195445
170	0x3d529e9c	0.051420793
171	0xbdf77ef1	-0.12084759
172	0x3e298735	0.16555484
173	0x3d2ffeb8	0.042967528
174	0xbd806b7b	-0.062705
175	0x3da9404f	0.08264219
176	0x3dc727ba	0.09724374
177	0x3d8dac4e	0.0691763
178	0xbdb47b3e	-0.08812569
179	0x3dcb032e	0.09912716
180	0xbdf45fe1	-0.1193235
181	0xbc5e7b8f	-0.013579263
182	0x3e105a87	0.14097033
183	0x3ae52963	0.0017483648
184	0x3e28a89a	0.16470566
185	0x3dbcbb6e	0.09215437
186	0x3d38aa10	0.04508406
187	0xbdebcbd3	-0.11513486
188	0x3cade928	0.021229342
189	0x3e294ca1	0.16533138
190	0xbc12c94f	-0.0089591285
191	0xbd34ec26	-0.04417052
192	0xbcb132ea	-0.021630723
193	0x3c39243d	0.011300144
194	0x3e307d13	0.17235212
195	0xbe280622	-0.1640859
196	0x3e0e667d	0.13906284
197	0x3d1c4c6c	0.03815882
198	0x3cffeb20	0.031240046
199	0x3dc9d374	0.098547846
200	0x3c8f1b7b	0.017469158
201	0xbe11d80b	-0.1424257
202	0xbddb27b5	-0.10700933
203	0x3e17194c	0.14755744
204	0x3defed6d	0.11715207
205	0xbdab43d1	-0.08362544
206	0xbd996696	-0.0749027
207	0xbdcc919f	-0.099887125
208	0xbcdcea08	-0.026967064
209	0xbe03bb2b	-0.12864368
210	0x3e118f9d	0.1421494
211	0x3e023585	0.12715729
212	0x3e044b26	0.12919292
213	0xbcea89d8	-0.028630182
214	0xbd2272e7	-0.03966036
215	0x3e1ff3e8	0.15620387
216	0x3d99e95d	0.07515214
217	0xbc7de39f	-0.015496164
218	0xba7f9000	-0.00097489357
219	0x3cd9138a	0.026498575
220	0x3d077eb8	0.033079833
221	0xbd1df479	-0.038563225
222	0x3d5d6034	0.054046825
223	0x3e10603d	0.14099212
224	0xbd2aba32	-0.041681476
225	0xbc17548e	-0.009236468
226	0x3df9e496	0.122018024
227	0x3d9d27ea	0.07673629
228	0xbde7f566	-0.11326103
229	0x3e20c0df	0.15698574
230	0xbd946f3e	-0.0724778
231	0x3e2064f8	0.15663517
232	0x3cec9e4f	0.028884081
233	0x3da91f8b	0.082579695
234	0x3df9647e	0.121773705
235	0xbd966e2f	-0.073452346
236	0xbe37681a	-0.17910805
237	0x3e092f2f	0.13396905
238	0x3db296dd	0.08720181
239	0xbd9058b9	-0.070481725
240	0x3e2461ad	0.16052885
241	0x3d89eb05	0.067342795
242	0x3d63f526	0.055653714
243	0xbe06cb57	-0.13163505
244	0xbdb084eb	-0.08619102
245	0xbd5afe1c	-0.053464994
246	0x3c85ad10	0.016317874
247	0x3d4978b1	0.049187366
248	0xbd172c71	-0.036907617
249	0x3c926b72	0.0178735
250	0xbd9759fb	-0.07390209
251	0xbdc2cf6d	-0.095122196
252	0xbdb7f0a1	-0.08981443
253	0xbd96f40f	-0.07370769
254	0x3dae8530	0.08521497
255	0xbb35efc0	-0.002776131

functional_1/conv1d_1/convolution/ExpandDims_1:0 f4 [64, 30, 1, 1]
0	0x3d513dc2	0.051084287
1	0xbdb78059	-0.08960027
2	0xbe3c0196	-0.1835998
3	0x3e082d0c	0.13298434
4	0xbe32b79d	-0.17452855
5	0xbe7d8b95	-0.24760278
6	0xbe68a554	-0.22719318
7	0x3e1100d2	0.14160469
8	0x3e57fee9	0.21093334
9	0x3d7a807e	0.061157696
10	0xbe5b05e1	-0.21388961
11	0x3c7bf5bd	0.015378413
12	0xbdad7bef	-0.08470904
13	0xbe7dacd9	-0.24772967
14	0x3c1e017d	0.0096439095
15	0x3db5f4d7	0.0888459
16	0x3c2b5394	0.010456938
17	0x3e6fff16	0.23437151
18	0x398345c0	0.00025038235
19	0xbb9633fb	-0.0045838333
20	0xbe39f7c2	-0.18160918
21	0xbdaf1c41	-0.08550311
22	0x3e0a7222	0.135201
23	0xbd89d19b	-0.06729432
24	0x3e3b0005	0.18261726
25	0xbe732566	-0.23744735
26	0xbcc0df75	-0.023544053
27	0xbe724ece	-0.23662874
28	0xbe365fe8	-0.17810023
29	0x3e57553b	0.21028607
30	0xbc471104	-0.012150053
31	0xbe793c14	-0.24339324
32	0x3e09f692	0.13472965
33	0x3d9b1c5a	0.07573767
34	0x3e7f8893	0.24954443
35	0xbc855d59	-0.016279863
36	0x3e6508a6	0.2236658
37	0xbe664936	-0.22488865
38	0xbe6d3e43	-0.23168282
39	0xbde452a7	-0.11148577
40	0xbe7a301e	-0.24432418
41	0x3e3e20a2	0.18567136
42	0x3e135d7d	0.14391132
43	0xbdef21f1	-0.11676396
44	0x3e68a725	0.2272001
45	0xbe3c490f	-0.18387245
46	0x3e3ceee5	0.18450506
47	0xbe6429e5	-0.22281606
48	0xbde91bbc	-0.11382243
49	0x3e6ee9ec	0.23331422
50	0xbde10e1b	-0.109890185
51	0x3e0074f6	0.12544617
52	0x3e17234d	0.1475956
53	0xbd400683	-0.04688121
54	0xbc532beb	-0.012888889
55	0x3e428c95	0.1899894
56	0x3e7c9657	0.24666725
57	0xbe563767	-0.20919572
58	0xbd3a6ec9	-0.04551581
59	0x3d332e54	0.043745354
60	0x3dcf73fd	0.10129545
61	0xbd4b0279	-0.049562905
62	0xbe1402e6	-0.1445423
63	0xbdff7544	-0.124735385
64	0x3d312971	0.043252412
65	0x3e0568bf	0.13028239
66	0xbdcd656d	-0.10029111
67	0x3e4da563	0.20082621
68	0xbe4077d9	-0.18795718
69	0xbcef1b84	-0.029187925
70	0x3e0ba311	0.13636424
71	0xbd1dbf3b	-0.03851245
72	0x3dcdb3ee	0.100440845
73	0xbca2b1fd	-0.019860262
74	0xbb9ec835	-0.004845644
75	0x3e61a46f	0.22035383
76	0xbe15e053	-0.14636354
77	0x3cacf36f	0.021112172
78	0xbe640b42	-0.2226992
79	0xbe4e3f8b	-0.20141427
80	0x3c74ff4d	0.014953447
81	0x3ce2825c	0.02765005
82	0xbc823426	-0.015894007
83	0x3e6745f3	0.22585277
84	0xbd57d192	-0.052690096
85	0xbdd9e448	-0.10639244
86	0x3e62d569	0.22151722
87	0x3dbd53e1	0.09244514
88	0x3e79f22b	0.24408786
89	0x3e12b54c	0.14326972
90	0x3dac558b	0.084147535
91	0x3e8128ee	0.2522654
92	0x3d778bf7	0.060436215
93	0xbda1e864	-0.07905653
94	0x3e6d102f	0.23150705
95	0x3e7255c2	0.23665527
96	0x3d18c5c8	0.037297994
97	0x3e2e82db	0.17042105
98	0x3d9863fe	0.07440947
99	0xbd92e6b3	-0.07172909
100	0xbe0992a7	-0.1343485
101	0xbde0abdc	-0.109702796
102	0xbe292be7	-0.16520654
103	0xbe5398e5	-0.20663793
104	0x3e49b524	0.19698006
105	0x3e25cca5	0.16191347
106	0x3e389e19	0.1802906
107	0xbdb935ad	-0.09043441
108	0x3e4200b8	0.18945587
109	0xbe1a279b	-0.15054171
110	0x3e7ba289	0.24573721
111	0xbe731d4f	-0.23741649
112	0xbe39bf60	-0.1813941
113	0x3e58bd3b	0.21165936
114	0xbe217723	-0.15768103
115	0xbc845864	-0.01615543
116	0x3e8116d4	0.2521273
117	0xbe79eb6d	-0.24406214
118	0x3cd9f7b1	0.026607366
119	0xbe1cbd71	-0.15306641
120	0xbd246ae0	-0.040140986
121	0x3cb51a40	0.022107244
122	0xbe47c06e	-0.19507
123	0xbe726434	-0.23671037
124	0xbe53d726	-0.20687541
125	0x3ca0eaa0	0.019643128
126	0xbc3fe530	-0.011712357
127	0xbdd6c340	-0.1048646
128	0xbd8af3b6	-0.067847654
129	0xbc8e8938	-0.017399415
130	0xbe5a85e8	-0.21340144
131	0xbd54b678	-0.05193183
132	0x3d095280	0.033525944
133	0x3e4a9482	0.19783214
134	0xbd86ecb2	-0.06588115
135	0xbe663321	-0.22480442
136	0xbd990398	-0.074713886
137	0x3e45bc26	0.19310054
138	0x3d88414c	0.066530794
139	0x3cfcae60	0.030844867
140	0xbde11096	-0.10989492
141	0x3e3c42bc	0.18384832
142	0xbe253cfc	-0.16136545
143	0xbdaa154a	-0.08304842
144	0xbe7985c2	-0.24367431
145	0xbdeb4e62	-0.1148956
146	0xbd38c8dc	-0.04511343
147	0xbe80bbe9	-0.25143364
148	0x3e58dccc	0.21177977
149	0xbe1a1674	-0.15047628
150	0xbe71e7e8	-0.23623621
151	0x3e6dff8e	0.23242018
152	0x3e5647aa	0.20925775
153	0x3e5db445	0.21650799
154	0xbdb2409d	-0.0870373
155	0xbdaf21b0	-0.08551347
156	0x3d901fbe	0.07037304
157	0xbd7d980f	-0.061912593
158	0x3e0cfa66	0.13767394
159	0x3e1a9a2d	0.15097876
160	0xbe842ca0	-0.25815296
161	0xbe82d12a	-0.25550205
162	0xbced9853	-0.029003298
163	0x3e4a09b0	0.19730258
164	0xbd9fdad8	-0.07805413
165	0xbe7c7b62	-0.24656442
166	0x3d530232	0.051515765
167	0xbdc4888b	-0.09596356
168	0x3e28ba9a	0.16477433
169	0xbcb3a168	-0.02192755
170	0x3e3eddcb	0.18639295
171	0x3e3eb711	0.18624522
172	0x3e40935f	0.18806218
173	0x3d9d9f3f	0.076963894
174	0xbe5fbd3d	-0.21849532
175	0xbe08aeed	-0.13347979
176	0xbe238eca	-0.15972438
177	0xbe11a2bb	-0.14222233
178	0xbe6a8d1a	-0.22905388
179	0xbd2992ee	-0.04139989
180	0x3e0c11d4	0.13678676
181	0x3e43bbb8	0.19114578
182	0x3e29c636	0.16579518
183	0xbe796972	-0.2435663
184	0x3bf9ba00	0.00762105
185	0xbda48602	-0.080333725
186	0xbe370ff0	-0.17877173
187	0xbe4d9daa	-0.20079675
188	0xbe7c90ce	-0.24664614
189	0x3d5afd08	0.053463966
190	0xbdf063ba	-0.11737771
191	0xbde01cf0	-0.109430194
192	0x3d8bc46c	0.06824574
193	0x3d8760d8	0.06610268
194	0x3e544c44	0.20732218
195	0xbe63ff35	-0.22265323
196	0xba157c00	-0.00057023764
197	0x3d8d4148	0.06897217
198	0x3df38b48	0.118918
199	0xbdb61f58	-0.08892697
200	0x3e7cd7e8	0.24691737
201	0x3e42ce28	0.19023955
202	0x3ddda7d0	0.10823023
203	0xbd99c96a	-0.0750912
204	0x3e09e92a	0.13467851
205	0xbe4d4bb2	-0.20048407
206	0xbd52f84c	-0.051506326
207	0xbe56b355	-0.20966847
208	0xbd9f67b2	-0.0778345
209	0x3c431fe0	0.011909455
210	0x3e5c8f2c	0.2153899
211	0x3e379fd5	0.17932065
212	0x3d2af62a	0.041738667
213	0xbe4cedd1	-0.20012595
214	0x3e1d4af1	0.15360619
215	0x3e1323cc	0.14369124
216	0xbda68205	-0.08130268
217	0x3e6ac57d	0.22926898
218	0xbe4e00dc	-0.20117515
219	0x3e6a14d3	0.22859506
220	0x3e35026a	0.17676702
221	0x3e1def47	0.15423308
222	0x3d3b405c	0.045715675
223	0x3cc33128	0.02382715
224	0x3d6597f1	0.056053106
225	0x3e52e175	0.20593818
226	0x3e21da00	0.15805817
227	0xbe2ee14b	-0.1707813
228	0xbe33b88b	-0.17550866
229	0xbe7b1c1b	-0.2452244
230	0xbc99c0b1	-0.01876864
231	0xbe7030a4	-0.23456055
232	0x3e7c5805	0.24642952
233	0xbe01838b	-0.12647836
234	0xbd8051be	-0.06265591
235	0x3e2ff740	0.17184162
236	0xbe81de42	-0.25364882
237	0x3e6ec098	0.23315656
238	0xbddc7a9f	-0.107655756
239	0xbdad6bdd	-0.08467839
240	0x3d0ae243	0.033907186
241	0x3e51b6e8	0.2047993
242	0xbe4268a8	-0.18985236
243	0xbe684184	-0.22681242
244	0xbd3e14c2	-0.046406515
245	0xbda47716	-0.08030526
246	0x3e5b5701	0.21419908
247	0x3e39bb4d	0.18137856
248	0x3e657876	0.22409233
249	0xbd2232dc	-0.039599285
250	0xbd42017e	-0.047364704
251	0x3df1a0c0	0.11798239
252	0x3df6cbda	0.120506
253	0xbe3266a3	-0.17421965
254	0x3c90b0b1	0.017662378
255	0x3e3b701f	0.1830449

const_fold_opt__183 f4 [1, 64, 1]
0	0xbb96f3fa	-0.004606721
1	0x3b686b3e	0.0035464312
2	0xbb60bc1d	-0.0034291812
3	0x3b446bed	0.0029971555
4	0x00000000	0.0
5	0xbbe84a24	-0.0070889164
6	0x00000000	0.0
7	0x3bd04e80	0.006357014
8	0xbbb14080	-0.0054093003
9	0x3b19cc10	0.0023467578
10	0xbba894aa	-0.0051446753
11	0x3b39ed5e	0.0028370242
12	0xbc045734	-0.0080774315
13	0xbb3a378c	-0.0028414456
14	0xbb25b665	-0.0025285718
15	0x3b63ae03	0.003474117
16	0x00000000	0.0
17	0xbbe15a62	-0.0068772295
18	0xbc27bdbb	-0.010238106
19	0xbb4219a2	-0.002961733
20	0xbaaa77d4	-0.0013005682
21	0x00000000	0.0
22	0x3a2154a7	0.0006154277
23	0x3c4e8d49	0.012606927
24	0xbb8a77f3	-0.004225725
25	0x3bd0f39b	0.0063766963
26	0x00000000	0.0
27	0xbb1b852c	-0.00237305
28	0xbc492b35	-0.012278368
29	0xbbedaf2b	-0.0072535477
30	0x3b4b9004	0.0031061182
31	0xbaee7336	-0.0018192295
32	0xbbf06514	-0.007336268
33	0x3c2bafe6	0.010478949
34	0xbad17987	-0.0015981653
35	0x3b38546d	0.0028126494
36	0x3b664348	0.0035135318
37	0x00000000	0.0
38	0x3c7f206e	0.015571697
39	0x3a7582a6	0.00093654764
40	0xbc1225b1	-0.008920119
41	0x3bd9d944	0.0066482145
42	0x00000000	0.0
43	0xbc7a8f7a	-0.015292997
44	0x3b98e0c2	0.004665465
45	0x00000000	0.0
46	0xba844c52	-0.0010093546
47	0xbaed6179	-0.0018110714
48	0xbb054ca0	-0.0020339862
49	0x3c111391	0.008854763
50	0x3b6c0d9c	0.0036018854
51	0x00000000	0.0
52	0x00000000	0.0
53	0xbb305426	-0.0026905625
54	0x00000000	0.0
55	0x3b88f29a	0.004179311
56	0x39d99b23	0.0004150505
57	0x3ab1d02c	0.0013566068
58	0x00000000	0.0
59	0x3bfa05ee	0.0076301014
60	0xbc2f87fd	-0.0107135745
61	0xbc3d3a24	-0.011549506
62	0xbbd2564a	-0.006418978
63	0x3bac5616	0.0052592857

const_fold_opt__181 f4 [1, 128, 1]
0	0x3bb66523	0.0055662557
1	0xbbc372ca	-0.0059646117
2	0x00000000	0.0
3	0x00000000	0.0
4	0xbb7120f5	-0.0036793326
5	0xbc2d83e7	-0.01059053
6	0x3c157993	0.009123224
7	0x3c082582	0.008309724
8	0xbbba30cc	-0.0056820866
9	0xbbc1a231	-0.0059092273
10	0x3c096c83	0.008387688
11	0x3b680983	0.003540606
12	0x3b0bac5c	0.002131245
13	0xbbc3c44f	-0.0059743295
14	0x3bc026a9	0.0058639836
15	0x00000000	0.0
16	0x00000000	0.0
17	0xbc071594	-0.008244891
18	0xbc1f1418	-0.009709381
19	0xbc2482b8	-0.010040931
20	0x3c109160	0.008823723
21	0x3c008fbd	0.00784677
22	0x3c14ffbd	0.009094176
23	0x3bbdb0d9	0.005788904
24	0xbbc33e09	-0.005958323
25	0x3a2b1644	0.000652645
26	0x00000000	0.0
27	0xbc0871fb	-0.008327956
28	0x3c15787f	0.009122967
29	0x00000000	0.0
30	0x00000000	0.0
31	0x00000000	0.0
32	0xbc1ccf23	-0.00957087
33	0xbc193b7f	-0.009352564
34	0x00000000	0.0
35	0xbc1c7952	-0.009550409
36	0xbc1727a6	-0.0092257615
37	0x3c146620	0.009057552
38	0x00000000	0.0
39	0x3c154f41	0.009113134
40	0x3c154492	0.009110587
41	0xbbc3654d	-0.0059630037
42	0x3c170f56	0.009219965
43	0x00000000	0.0
44	0x00000000	0.0
45	0xbbcf71e8	-0.0063307174
46	0xbc16eb82	-0.009211423
47	0x3c1539ce	0.00910802
48	0xbbc62cff	-0.0060478444
49	0x3bf4d133	0.0074712276
50	0x3c1577dc	0.009122815
51	0xbc1c6141	-0.0095446715
52	0xbc20c764	-0.009813163
53	0x00000000	0.0
54	0x3b979aa9	0.004626591
55	0xbc175575	-0.009236683
56	0xbbc4a9d0	-0.0060016885
57	0x00000000	0.0
58	0xbc221aeb	-0.009894113
59	0x00000000	0.0
60	0x3b576ba4	0.0032870555
61	0x3c156577	0.009118429
62	0x00000000	0.0
63	0x00000000	0.0
64	0x3bf471b9	0.007459846
65	0x00000000	0.0
66	0x00000000	0.0
67	0x3be0bad2	0.006858208
68	0x3c1572ee	0.00912164
69	0xbc1e8a1e	-0.009676484
70	0x3c15f4ed	0.009152633
71	0xbb98c3aa	-0.004661997
72	0x3bd8613e	0.006603389
73	0x3c13cd2a	0.009021083
74	0x00000000	0.0
75	0x3bf8d6a2	0.0075939456
76	0x3c156f0c	0.009120714
77	0x3c1456e6	0.009053921
78	0xbc07a6e1	-0.008279533
79	0xbc2c0e12	-0.0105014015
80	0x3c153065	0.009105776
81	0x00000000	0.0
82	0x3c151b04	0.009100679
83	0x3c150b0b	0.009096871
84	0xbafee639	-0.0019447274
85	0xbc0c07c3	-0.008546772
86	0xbc1ec7a4	-0.009691153
87	0x3c141950	0.009039238
88	0xbc083a35	-0.008314659
89	0xbbc372bf	-0.0059646065
90	0x3c032960	0.00800547
91	0xbbb4a433	-0.005512738
92	0xbc185413	-0.009297389
93	0x3c14ba21	0.00907758
94	0xba91f650	-0.0011136029
95	0x3c156a9e	0.009119658
96	0x00000000	0.0
97	0x3bc1e817	0.00591756
98	0xbbd43042	-0.0064754793
99	0xbbe2dbd5	-0.0069231787
100	0x00000000	0.0
101	0x3c140532	0.009034442
102	0x3bc42a17	0.005986463
103	0xbbc373ca	-0.005964731
104	0x00000000	0.0
105	0xbbc1bc2c	-0.0059123244
106	0xbbffe66c	-0.007809451
107	0x00000000	0.0
108	0x00000000	0.0
109	0xbc06cec8	-0.008228011
110	0x00000000	0.0
111	0x3c144a3d	0.009050903
112	0x00000000	0.0
113	0x3c152a2e	0.009104295
114	0x00000000	0.0
115	0x3c13c7db	0.009019817
116	0xbc22d871	-0.009939299
117	0xbc1d7ef2	-0.009612786
118	0xbbb65bde	-0.0055651506
119	0xbc1ec78e	-0.009691132
120	0xbbc3c18a	-0.0059739994
121	0x3c14bcba	0.009078199
122	0x3c146782	0.009057881
123	0xbc214f5a	-0.009845579
124	0xbc019270	-0.007908449
125	0x00000000	0.0
126	0x00000000	0.0
127	0xbbfeb56d	-0.0077730925

const_fold_opt__177 f4 [1, 128, 1]
0	0x3bdbb5df	0.0067050303
1	0xbc256202	-0.010094168
2	0x3bb84201	0.0056231027
3	0xbb86b3bf	-0.004110783
4	0x3bc36ecd	0.005964136
5	0xbb26a55d	-0.0025428154
6	0xbb2df260	-0.0026542172
7	0xbb9c4c60	-0.004769847
8	0xbb152b63	-0.0022761456
9	0x00000000	0.0
10	0x37f7248e	2.9461717e-05
11	0xbaa3b6f0	-0.0012490433
12	0x00000000	0.0
13	0x3b3712fc	0.00279349
14	0x3b158b72	0.0022818712
15	0xbb8fdcdc	-0.004390342
16	0xbc1f9549	-0.009740182
17	0x3ba3b514	0.0049959514
18	0x390b1009	0.00013262047
19	0x3b0a5755	0.0021109183
20	0x3bad8855	0.005295793
21	0xbc2f3604	-0.010694031
22	0x3c195855	0.009359439
23	0xbba3d10e	-0.0049992865
24	0x3b846733	0.0040406226
25	0xbc04088b	-0.008058677
26	0x3c494cce	0.012286378
27	0xbc196ddf	-0.009364574
28	0xbb649632	-0.0034879562
29	0x3c3439be	0.011000095
30	0x3b87c1d0	0.0041429773
31	0x3b855eff	0.0040701623
32	0x3b95f454	0.0045762453
33	0x00000000	0.0
34	0xbbb420c9	-0.0054970724
35	0x00000000	0.0
36	0xbaf431ae	-0.0018630528
37	0xbbd82382	-0.0065960297
38	0xbc293b8c	-0.0103291385
39	0x00000000	0.0
40	0x3b19a7ed	0.0023446039
41	0x00000000	0.0
42	0x00000000	0.0
43	0xbc158929	-0.00912694
44	0x3a16ba5d	0.0005749816
45	0xbc1d2c3b	-0.009593065
46	0x3b9b0df0	0.004731886
47	0x3bb76a74	0.005597407
48	0xbbf9b1ed	-0.0076200874
49	0x3b531337	0.0032207498
50	0xbc228034	-0.009918261
51	0xbc192a7d	-0.009348509
52	0x3a7075e4	0.00091728405
53	0x00000000	0.0
54	0x00000000	0.0
55	0x00000000	0.0
56	0x00000000	0.0
57	0x3b94c5ed	0.004540196
58	0x3bb77508	0.005598668
59	0xbacc4524	-0.001558457
60	0xbb41d6a8	-0.0029577408
61	0x00000000	0.0
62	0x39ce4230	0.00039340695
63	0x3aee6ef2	0.0018191023
64	0x00000000	0.0
65	0x3b961f7c	0.00458139
66	0xbb9481ac	-0.0045320597
67	0x3be13973	0.0068733036
68	0xbc12cc9d	-0.008959916
69	0xbb8c347b	-0.004278717
70	0xbbc1ee97	-0.0059183347
71	0x3c05fe08	0.008178242
72	0xbc4888e3	-0.012239668
73	0x3bb184f7	0.005417462
74	0x3b529c97	0.0032136792
75	0x00000000	0.0
76	0xbb8b360e	-0.004248387
77	0x3a65c5da	0.0008765139
78	0x00000000	0.0
79	0x3b9a6f2d	0.00471296
80	0xbbe24519	-0.0069052097
81	0x3b997c68	0.00468402
82	0x3bae4542	0.005318315
83	0x3b90208b	0.0043984107
84	0x00000000	0.0
85	0x3a7ee2c6	0.0009723123
86	0xbab00c33	-0.001343137
87	0xbc2a4d78	-0.010394447
88	0xbb81ea94	-0.0039647315
89	0xbc525337	-0.012837223
90	0xbc0dfe0e	-0.008666528
91	0xbc1089ae	-0.008821888
92	0x3b8cb21b	0.0042936928
93	0xbc10e52f	-0.008843704
94	0xbbc1b4f5	-0.0059114643
95	0xbbdbbc3d	-0.0067057894
96	0xbc041b04	-0.008063082
97	0x3ab22441	0.0013591127
98	0x3c96de82	0.018416647
99	0xbbaa03b1	-0.0051884283
100	0x397b8318	0.00023986062
101	0x3b815ce3	0.0039478405
102	0xbc5ed953	-0.013601619
103	0x3b7e6736	0.0038818843
104	0x3c17b2f9	0.009258979
105	0x00000000	0.0
106	0xbbd7385b	-0.0065679974
107	0xbb7dd383	-0.0038730807
108	0x3bae509b	0.0053196675
109	0x3afd81d9	0.0019341066
110	0xbc4d079b	-0.01251402
111	0x00000000	0.0
112	0x3bbf6d42	0.005841882
113	0x39df4844	0.00042587717
114	0x3b211332	0.0024578092
115	0xbaaa29fd	-0.0012982484
116	0x3b981788	0.004641477
117	0x00000000	0.0
118	0x3b304eaf	0.0026902368
119	0xbbd52820	-0.0065050274
120	0xbc3b532a	-0.011433402
121	0xb9b6fd8c	-0.00034902652
122	0x3a9b5727	0.0011851535
123	0xbaa30609	-0.0012437712
124	0x3b57dcfa	0.0032938109
125	0x00000000	0.0
126	0xbbac9a9a	-0.0052674534
127	0x00000000	0.0
