NN_model/models/lightprobe_model.onnx (onnx, 838605 bytes, 11 tensors)

functional_1/conv1d_5_1/convolution/ExpandDims_1:0 f4 [1, 128, 1, 1]
00000000: 9bba 78bd cebb 043e fa9d c4bd 2070 5f3e
00000010: 68e1 fe3c 1811 39bd 6e48 16be 8c79 8cbd
00000020: d487 84bd 8a79 aebc 0948 193e b608 db3d
00000030: 431e 243e 3cb9 0cbe 7446 8e3d 93ec 15be
00000040: 88b7 1e3d 10ec e03d e0ee a8bd 6d98 20be
00000050: fcbc 753d a8d1 8f3d 9868 c1bd 067b ebbd
00000060: b08c 93bd 7e15 6cbd e232 47bd 926d dcbd
00000070: 6f23 02be 45a7 403e 2e8d 9ebd e2c8 14be
00000080: f869 4cbe fd8f a13d e5c1 47be 9599 debd
00000090: 6436 1a3e 87e5 b4bd 18cd 343e 95a5 39be
000000a0: ccfe d83d 9bbf bfbd 3c2b 483e 05ee 45be
000000b0: 95b7 83bd 0336 a7bd 8e22 773e 15a5 613e
000000c0: 5d13 1abe 44ed c13d fe2c 05bc 7e74 5c3e
000000d0: d179 26be cdaf de3c a0f6 ec3c 3f43 a5bc
000000e0: 1d5f c5bd 6cf4 b3bd ab6c 6e3d 36fa 8abd
000000f0: 57aa b2bd 551f 9b3d 6517 223d 10f8 b6bc
00000100: 9a66 c23d 9b79 a83d aa89 023e a06c 0abd
00000110: 7218 0d3e 1d02 1bbe 0b93 92bc 80e9 963a
00000120: 66cc b83c d610 473e c482 b13d a23d 453e
00000130: cd87 733c 44ef b2bd 1064 c03d f7fb d1bd
00000140: ccf6 aab9 135b f2bd 0e2c 213e 1251 a6bd
00000150: e8d5 ca3d 8807 42be bde5 2fbe 9a51 45be
00000160: 700a 3cbe 9d62 68be dfe5 ea3d 9bb1 3cbd
00000170: 0dfe 5f3b 3aea 5bbe 1ee7 45be 7576 d63c
00000180: 0855 25bd 2421 7cbd 17fc 5abe e832 4d3d
00000190: 401a fabd 9eaa 5abd 52bc 31be 18b3 2b3d
000001a0: 2371 de3d 692f 3cbe a310 11be ecd4 3c3e
000001b0: 6693 303e 0415 9a3d d81f 363e 9382 123e
000001c0: ceae 733e cac0 c33c cd4b 183e 1101 4f3e
000001d0: 2636 e5bd f802 05bd be00 42be 44d5 023e
000001e0: 933c 313e 8389 64bd 68ce 4bbe 70a7 2c3e
000001f0: 46c8 073e d8b1 a53c 436c 243e 5d96 3cbe
-0.060724836 0.12962267 -0.09600444 0.21820116 0.031113341 -0.045182317 -0.14676067 -0.06859121
-0.0647122 -0.021298189 0.14968885 0.10695021 0.16027169 -0.13742536 0.069470316 -0.14641027
0.038749248 0.10982525 -0.08248687 -0.15683146 0.059994683 0.07022411 -0.09443778 -0.11498074
-0.072045684 -0.057637684 -0.04863251 -0.107630864 -0.1270883 0.18813808 -0.07741772 -0.14529756
-0.19962299 0.07888792 -0.19507559 -0.10869137 0.15059811 -0.08832841 0.17656362 -0.18129571
0.10595474 -0.09362718 0.19547743 -0.19329078 -0.064315 -0.08164599 0.24134275 0.2203563
-0.15046449 0.09469083 -0.008128403 0.21528813 -0.16257407 0.027183438 0.028926194 -0.020173667
-0.09637282 -0.08786854 0.058209103 -0.06786005 -0.08723896 0.075743355 0.039573092 -0.022335082
0.09492226 0.082263194 0.12747827 -0.033795 0.13778856 -0.15137525 -0.017892381 0.001151368
0.022558402 0.19440016 0.0866752 0.19261792 0.01486392 -0.087370425 0.093940854 -0.102531366
-0.00032608805 -0.11833777 0.15739462 -0.08120932 0.09904081 -0.18948185 -0.17177482 -0.1926941
-0.18363357 -0.22693868 0.11469626 -0.046067815 0.0034178526 -0.21476069 -0.19326445 0.026179532
-0.040364295 -0.061555043 -0.21385227 0.050097376 -0.12212038 -0.05338537 -0.17356995 0.041918844
0.10861423 -0.1837746 -0.14166503 0.18440598 0.17243728 0.0752354 0.17785585 0.14307623
0.23797151 0.02389564 0.14872666 0.2021525 -0.111919686 -0.032473534 -0.18945596 0.12776667
0.17308263 -0.055795204 -0.19902956 0.16860747 0.13259992 0.020226404 0.16056924 -0.18416734

functional_1/conv1d_4_1/convolution/ExpandDims_1:0 f4 [128, 256, 1, 1]
00000000: 4aac a3bd ffb8 93bd 23fe c13d 22ff abbc
00000010: 9810 e73d b12f 9dbb c029 963b 51d6 2d3d
00000020: 64be cabd 60b7 893c 88c0 303d a02b e73d
00000030: 007e 65bd 1cd0 2e3d c15f 31bd ff88 35bd
00000040: 9ae3 e2bd 40d7 13bc 4113 f2bd e4e6 c4bd
00000050: f027 45bd 6b31 7e3d e809 dabd aba8 ebbd
00000060: 80d5 b9bb 50be 6dbd 2827 a4bd acf5 a93d
00000070: d0b1 df3d d0ed ecbc 85b4 9f3b 8630 34bd
00000080: 78a4 f4bd ec88 f63d 8545 e0bd 689a 3f3d
00000090: 7c0d dfbd cb5d 4fbd a8c5 d4bd 2ce1 d83d
000000a0: 7750 dd3b a823 c1bd e05d e4bd 405e 703d
000000b0: 2629 c4bd 20d3 4e3d c043 4fbd a093 bfbc
000000c0: 4b60 563d ddce 923a a068 e33d e92c 83bc
000000d0: 30b1 9d3d 300b 75bd 4601 c13d 03ab 6e3d
000000e0: c008 073d 0f81 04bd 5e97 c1bd f0d1 5a3d
000000f0: 1fca f7bd db3c cb3d 3cba 313d a62b 143c
00000100: 006c c5bc 99d0 9d3d a73e 85bb 0f23 493c
00000110: f0ba 973d 6f44 7bbd 4e25 87bd c41e dc3d
00000120: b844 05bd 270c 043d 0040 d13a aa7d e73d
00000130: d017 2ebd 100e 0a3b 003b 9e3c b0fa 08bd
00000140: 7086 82bd bd35 dabb f16c 29bd f834 f4bd
00000150: c81b 15bd f007 8bbd ecf7 903d a88a 223d
00000160: 408c 383c 30c4 85bc 3473 be3d f718 e2bd
00000170: ec6b 923d 3c25 8dbc 42ab 98bd ebc5 15bd
00000180: 9cc2 a8bd 4835 38bd 1023 333d 5479 f1bd
00000190: 64cd 8fbd e077 0ebd 8d8b 2c3d a05c adbc
000001a0: 218c aabd a804 063d 306a 7e3d cea8 c8bc
000001b0: 03ca 9c3d 1858 4d3d 5922 e2bd 502c 4abd
000001c0: 8b2e 933d 8a54 f53d ac2b b13d c7cd 4abc
000001d0: 2872 f1bd 41eb baba b17c 743d 84bf ca3d
000001e0: b07b 6f3d d654 2fbb 1763 a03d f0ef 6e3d
000001f0: a462 8ebd 8036 86bb 2509 93bd 7bb6 b5bd
00000200: ff72 1a3d 659d 87bd 2865 b73d 9896 3cbd
00000210: 0b81 eebd 7f6b 9bbc 1786 9dbd 8e13 ba3d
00000220: 6457 c3bd 075c 84bb ad43 e83c c0d8 673c
00000230: e0c5 e73c 20f3 853c 5e29 98bc 0844 573d
00000240: c4b1 833d b0a4 493d dc18 8dbd 7034 293d
00000250: 06c4 223d 9cad b8bd ba84 cabc 6868 923d
00000260: a290 53bb be83 1fbd 5a70 7a39 d766 22bc
00000270: 68f0 653d 9989 98bd b0a5 ddbc cad9 e23d
00000280: 9e0b c7bc 6001 59bc 6689 243c 80c6 d6bc
00000290: 727e da3d f951 d5bd b020 f43d 3022 dbbd
000002a0: 7cb5 b43d c9c8 48bd 94da ff3d faa7 d33c
000002b0: 879e 98bd 913b d23d 8415 ddbd f090 d9bc
000002c0: 20c4 1bbc 11e5 9cbb 11df 8fbd e015 31bd
000002d0: 0074 d33d 4427 9f3d 9c4d abbd 5829 a93d
000002e0: 1968 24bd 975e d9bd b52f cf3d c3fb 543d
000002f0: 36e1 bcbd 100a 9b3d 409b bc3c 98e7 41bd
00000300: 2718 e1bd 0442 e7bd d3b3 96bd 4055 98bd
00000310: 88ad e3bd a51e 903d 9c25 c3bd 6af8 98bc
00000320: 804e 0f3c 64c5 b3bd cc57 293d e4a4 f53d
00000330: 3a73 a23d 4dec fd3c 9874 e8bd 087a 223d
00000340: 6b51 f9bd 39d3 963d 1424 cf3d 3677 2cbd
00000350: 4a38 fc3d bd27 81bd e812 533d fc96 f9bd
00000360: 78f4 17bd 68db b73d 8053 87bc fcc0 9a3d
00000370: ff0d 473d 3881 6e3d 1075 2e3d 6dec 75bc
00000380: 609a 5abc 3c8b a0bd 405b 45bd 386d a03d
00000390: a8d1 f1bd 29d3 8fbd 5cf2 d83d 7454 2abc
000003a0: 006e ed3d 95dd 4dbc 52aa 09bd 721c cabb
000003b0: 81f5 9ebd b722 193d 78f7 903d 305a 3b3d
000003c0: 2121 e83d 40ab c63d 6008 223d 5919 0cbd
000003d0: a032 f0bd dc63 cb3d b5f3 613c ad9f 8c3d
000003e0: 54d4 e63d 2809 cabd ea39 2d3d ab29 ac3d
000003f0: 434c d53d 3f21 71bc 9fdc 1b3d c01b 103c
-0.07991846 -0.072130196 0.09472301 -0.02099568 0.11282462 -0.004796945 0.0045826137 0.042440716
-0.098995954 0.016811073 0.043152362 0.11287618 -0.056028366 0.042678937 -0.04330421 -0.044320103
-0.11078568 -0.009023488 -0.11820079 -0.096143514 -0.04813379 0.062058847 -0.10646421 -0.1150678
-0.005671203 -0.058042824 -0.08015281 0.08298811 0.10922587 -0.028921992 0.0048738145 -0.043991588
-0.119454324 0.120378345 -0.1095076 0.046778113 -0.10891244 -0.050626557 -0.103892624 0.10589823
0.006753977 -0.09430629 -0.11150718 0.058683634 -0.09578161 0.050494313 -0.05060172 -0.023385823
0.052337926 0.0011200566 0.1110394 -0.016012626 0.076998115 -0.059825122 0.09424071 0.05826856
0.03296733 -0.032349642 -0.09452699 0.05342287 -0.120990984 0.09923717 0.043390498 0.00904361
-0.02409935 0.077058025 -0.0040663066 0.012276425 0.074087024 -0.06134456 -0.06598912 0.107480556
-0.03253624 0.032238152 0.0015964508 0.113032654 -0.042503178 0.002106551 0.019315243 -0.0334422
-0.06373298 -0.006659238 -0.04136366 -0.119241655 -0.036403447 -0.06788623 0.07078537 0.039683014
0.011263907 -0.016328901 0.09299317 -0.11039918 0.07149491 -0.017229669 -0.0745454 -0.036565702
-0.08240244 -0.044972688 0.04373461 -0.1179072 -0.07021597 -0.03478229 0.042125273 -0.021162331
-0.08327509 0.032719284 0.062112987 -0.024494555 0.07655718 0.05013284 -0.110417075 -0.049358666
0.07186612 0.11979015 0.08650908 -0.012378163 -0.11789352 -0.0014260785 0.059689227 0.0989981
0.058467567 -0.0026753447 0.078314 0.05833429 -0.06952408 -0.0040958524 -0.071794786 -0.08872696
0.037707325 -0.066218175 0.08954841 -0.046042055 -0.11645707 -0.018972157 -0.07691591 0.09085761
-0.09538153 -0.004039291 0.028352583 0.014150798 0.028292596 0.016351283 -0.018574413 0.052555114
0.064303905 0.049229324 -0.06889507 0.041309774 0.039737724 -0.09017488 -0.024721492 0.0714882
-0.0032282253 -0.038944 0.00023883712 -0.009912214 0.056137472 -0.0744812 -0.027056545 0.11076696
-0.024297532 -0.013244957 0.010042524 -0.026217699 0.10668649 -0.10416026 0.11920297 -0.1069988
0.08823678 -0.04901961 0.12492862 0.025836933 -0.07452112 0.10265268 -0.107951194 -0.02655837
-0.009507209 -0.004788049 -0.070249684 -0.043233752 0.103248596 0.07771161 -0.08364412 0.08259839
-0.040138338 -0.10613745 0.10116521 0.05199791 -0.09222643 0.07570279 0.023023248 -0.047340006
-0.10990935 -0.11291888 -0.073585175 -0.07438135 -0.11117083 0.07037095 -0.09528658 -0.01867314
0.008746743 -0.08777884 0.041343495 0.11994341 0.07932134 0.030996466 -0.113503635 0.03966716
-0.12173732 0.07364506 0.10114303 -0.042105876 0.12315424 -0.063064076 0.051531702 -0.12187001
-0.037098378 0.08977395 -0.016519308 0.0755634 0.048597332 0.0582287 0.04259211 -0.015009982
-0.01334247 -0.07839057 -0.048182726 0.07833332 -0.11807567 -0.070226975 0.105931014 -0.010396112
0.115932465 -0.012565036 -0.033609696 -0.0061679417 -0.0776167 0.037386622 0.07078451 0.045740306
0.11334444 0.09700632 0.03955877 -0.03420386 -0.11728406 0.09931156 0.013791014 0.06866393
0.11270967 -0.09865028 0.04229156 0.08406385 0.104149364 -0.014717399 0.038052198 0.008795679

functional_1/conv1d_3_1/convolution/ExpandDims_1:0 f4 [256, 512, 1, 1]
00000000: 566b d73c aed1 103d 5cea 133d f8e2 923d
00000010: 1716 a33c 7319 a63d 8796 803c a396 653d
00000020: 72b5 b0bb 64b6 a23d cd07 0abd f366 713c
00000030: 890f 67bd 1213 2abd ff95 a5bd d580 843d
00000040: a2fd a1bd e8fb ad3c 56b5 943d 200b be3c
00000050: fd7e 2dbd d098 113d 9618 fabc a71a abbd
00000060: 2443 92bd f1d0 843c 4c43 9d3d c2af 57bb
00000070: ce0b 653a 8e7e a9bb 0445 003c 335d 57bd
00000080: 305b b7bb cc25 a3bc 85c7 833d 6cbc b23c
00000090: fa79 653c 94c4 13bd f335 e6bc b16c 513c
000000a0: c640 97bd 3b20 b4bc d3b7 83bd 4c49 8bbd
000000b0: 9901 5e3c aed3 5dbc 2734 3dbd 6018 053d
000000c0: 2aec 443d 653b 5c3d 6d90 ebbc d731 963d
000000d0: 020d 393d 89ca a6bd 9f11 383d bc98 103d
000000e0: 9c44 87bd e345 32bd 04e2 a3bd 6a32 6d3d
000000f0: 00a7 23bc c677 6d3d f772 85bd 40ae 153d
00000100: d4af 82bd 37bb 963d 8e40 1ebd 96eb fbbc
00000110: 9b81 953d e8b9 eebc 63cf 07bb efe5 82bd
00000120: 718d f53c 9804 fe3c 40fc a6bd 0b68 383c
00000130: b165 943d 5ea4 1cbd 1388 843d c751 a03c
00000140: b5f5 a93d 60be ee3b 0d75 1b3d 9b1f a83d
00000150: 923b 263d e094 82bd 2896 073d e743 8e3d
00000160: 8045 643c d8ae f73c 62c0 063d 21da 80bd
00000170: 27be 843b 5db2 5bbd 84d7 e83c 67fe 0bbd
00000180: 04ab 8ebd 8fb6 75bd 08f1 1ebc b525 843d
00000190: ed68 ccbb 4e88 11bc 4d11 4fbc 38c6 bbbc
000001a0: 1a71 633d 7aa0 17bc 1f43 aa3d d883 233c
000001b0: 82aa 6b3d de11 3e3c 36bd 833d 78e0 7a3c
000001c0: c72c 12bd 7ea5 073d 0ea5 863d 0d65 28bd
000001d0: 182d 473d 1ae7 d3bc 3cc1 d33c cd45 bcbd
000001e0: 43d7 40bd e109 103d ee12 7e39 2f86 d6bb
000001f0: 0370 20bc baf5 2c3d 8f10 923c e207 a7bd
00000200: 4a96 a5bc 255a 833d 0219 993d cdad 8bbd
00000210: 13d8 ddbb dc44 a33c cf48 723d 0354 983d
00000220: 96bb 733d 3e2c 733d 0edf 903c 7061 d4bb
00000230: 4569 843d 90d6 97bb c668 c03c e5dd 9a3d
00000240: 1c63 9f3d a739 683d 22b4 1c3d 24d1 27bd
00000250: d4af a93c b189 8c3d ec81 6d3d 90ec 923c
00000260: 201c 4a3b 5556 ab3d 1d74 b6bd f225 b2bd
00000270: ad18 7bbc 7318 bd3c dc02 46bd 08c0 8e3c
00000280: b478 e33b fc9c 1dbd fc78 6dbd 18e0 89bd
00000290: a058 18bd 8be4 903d d62e a3bc 99b8 9ebd
000002a0: 6336 d33b 6872 47bc 9585 20bd 231d 20bd
000002b0: d393 993d a53d aabc c8b6 05bc 602a 42bb
000002c0: 1773 8d3d 7557 333b 387a 2cbd 8b97 c3bd
000002d0: 8818 e73c 60e3 ad3c 5f23 c23c fbd0 90bd
000002e0: f995 33bd 4037 213d e35e 6f3c 03f1 a23d
000002f0: bfc3 6e3d 6f85 7cbc 8759 dabc 7eb2 b1bd
00000300: efaf f73c f156 42bd 5025 083d dfd6 9cbd
00000310: 9233 243d 1d53 fdbc 0aa1 c03c ec19 283c
00000320: 14da 923c d2dd 1ebd da38 b8bd 065e 05bd
00000330: acd5 f6bc 4901 b2bd bf64 bbbd 754c 853d
00000340: e81b fcbc ec04 453d da7d 85bd 208b 6fbd
00000350: b2e0 a43d 3d5c 9b3d 1ae1 19bc ccc8 273d
00000360: db3e d4bc e4f1 913c ac55 6abd 498d 5cbd
00000370: 2214 acbd 5aa8 613d 456a 09bd 1f1b 673d
00000380: e543 803d 587c c6bc 5800 c83c c98f 46bd
00000390: 2e8b ddbc 3eee 1f3d b0dd 9c3d a3b6 de3a
000003a0: 8093 b1bc 642f 9e3d 54cf 93bd e5e4 20bd
000003b0: 3fb5 9d3d 5d20 17bd 40a9 073b b581 1cbd
000003c0: 7d53 433c dfd7 98bd 5cbc a83d cb35 033d
000003d0: 6957 d13c 8045 37bd d73f 823d d762 1ebd
000003e0: aa66 583c e523 b3bd 5f20 adbd 58fd 20bd
000003f0: 1c4b 78bd 6316 28bd 3e95 e6bc 274d f63c
0.026296299 0.035356216 0.036112174 0.07172197 0.019907994 0.08110323 0.015696777 0.05605186
-0.0053927237 0.079449445 -0.033698846 0.014734018 -0.0564113 -0.041522093 -0.0808525 0.06469885
-0.07909705 0.021238282 0.072611496 0.023198664 -0.042357434 0.035546124 -0.030529302 -0.08354693
-0.07141712 0.016212912 0.076788515 -0.0032911156 0.0008737416 -0.005172557 0.007828955 -0.052579116
-0.005595587 -0.019915484 0.0643454 0.021818362 0.014006132 -0.036076143 -0.028101897 0.012782262
-0.073854014 -0.021988025 -0.06431546 -0.0680109 0.013550186 -0.013539238 -0.046192314 0.03249395
0.048076786 0.05376758 -0.028755391 0.07333725 0.04517842 -0.08144099 0.04493868 0.03530191
-0.06604883 -0.04352368 -0.080020934 0.057909407 -0.009988546 0.057975553 -0.065160684 0.03654313
-0.06381193 0.07359927 -0.038635783 -0.030751985 0.07300111 -0.029141381 -0.0020722977 -0.063915126
0.029974671 0.03100805 -0.081535816 0.0112552745 0.072459586 -0.03824269 0.064712666 0.019570244
0.08298818 0.007285878 0.037953425 0.08209153 0.040584154 -0.06376052 0.033102185 0.06946545
0.013932586 0.03023474 0.032898314 -0.06291605 0.0040509882 -0.053636897 0.028423078 -0.034178164
-0.069662124 -0.059988555 -0.009701021 0.064525045 -0.006238094 -0.008882595 -0.012638402 -0.022921667
0.055527784 -0.009254569 0.083135836 0.0099801645 0.057535656 0.01160094 0.064325735 0.015312307
-0.035687234 0.03311681 0.065744504 -0.041111995 0.04862699 -0.025867034 0.025848977 -0.09193001
-0.04708029 0.03516567 0.0002423038 -0.0065467576 -0.009792331 0.04222653 0.017830161 -0.081558004
-0.020213265 0.06413678 0.07475473 -0.06820259 -0.006770143 0.019930296 0.059151467 0.07437899
0.059505068 0.059368365 0.017684486 -0.006481342 0.06465391 -0.004633732 0.02348746 0.07561854
0.077825755 0.056695607 0.038257726 -0.040970936 0.020713724 0.068622 0.05798523 0.017935067
0.0030839518 0.08366076 -0.089088656 -0.08698644 -0.015325707 0.023082947 -0.04834257 0.017425552
0.006941879 -0.03847979 -0.057976708 -0.067321956 -0.037193894 0.07074841 -0.019919794 -0.07750053
0.0064456924 -0.012173273 -0.039189894 -0.039090287 0.07498898 -0.020781348 -0.008161254 -0.0029627308
0.06906717 0.002736536 -0.042108744 -0.09550389 0.02820994 0.021226585 0.023698507 -0.0707111
-0.043844197 0.03935933 0.014610025 0.079561256 0.058292147 -0.015412672 -0.026654018 -0.08676623
0.030235259 -0.047446195 0.03323871 -0.07658171 0.040088244 -0.03092342 0.02351429 0.0102600865
0.017926253 -0.038785763 -0.089952186 -0.03256037 -0.030131184 -0.086916514 -0.09150075 0.06508724
-0.030775025 0.048100397 -0.06518145 -0.05848229 0.0805067 0.075859524 -0.009392047 0.04096298
-0.025908878 0.017815538 -0.05721061 -0.053845678 -0.084022775 0.055092193 -0.033548612 0.05642235
0.0626295 -0.024229214 0.024414226 -0.048476968 -0.027043905 0.039045565 0.07659471 0.0016991686
-0.021676779 0.07723883 -0.07217279 -0.03928079 0.077005856 -0.0368961 0.0020700246 -0.038209636
0.011921761 -0.07463049 0.08239052 0.032033723 0.025554376 -0.044744015 0.06359833 -0.03866848
0.013208071 -0.08747081 -0.0845344 -0.039304107 -0.060618505 -0.041036975 -0.028147336 0.030066086

functional_1/conv1d_2_1/convolution/ExpandDims_1:0 f4 [256, 128, 1, 1]
00000000: 602f 443c 7373 b7bc 96b3 413c 4cc1 893d
00000010: d023 d1bd d06e 3dbd 1c2a c1bd ada2 f2bd
00000020: a676 a9bb a41b 513d 7e0a 0ebd e080 543c
00000030: d245 50bd ee83 e3bd 6cbe 813d 4830 713d
00000040: c57b 62bd d6d0 323c 00b1 a03b 44c9 1c3d
00000050: 709c d43d 58e3 083c 1bf8 75bd a0c9 05bc
00000060: 2b4d 82bd ac51 d8bd 945a d3bd 6069 20bd
00000070: 29a8 8d3d 4db1 fdbc 407a b03c a187 4f3d
00000080: c72b 06bd 9055 febd 08a8 343d 502f a2bc
00000090: 689a b53d 7de3 df3c 1b73 143d 980a 573d
000000a0: 237b c23d 4f7e 393d a0d5 b8bc d051 973c
000000b0: 0b69 b93d 4a0f c2bd 1021 a9bc 80e7 1b3d
000000c0: f876 9cbc 7018 753d 4095 0fbc 4459 e2bd
000000d0: a0a5 f1bc 8611 3a3d 1024 b63c 94c6 fd3c
000000e0: 6890 85bd b05c 2dbd 40dc 213d b85d e7bc
000000f0: 0b97 7c3c 0455 ef3d a89a ad3d 68cb 2f3d
00000100: f01b c53d 9880 1bbd b40c 8ebd f959 8d3d
00000110: b485 eabd fc2a 023c 4cd7 c2bd d86d 7d3d
00000120: fcfd fcbd 1ef3 e63d 2040 2b3d d4cf 83bc
00000130: f0f1 e0bd 6b42 90bd 48d2 063d df92 ed3c
00000140: 941e 7b3d 2cd9 93bd 8257 dfbd 28e2 edbd
00000150: bc76 d63d e03d e63c 0731 a03c 00d8 baba
00000160: d4f0 bbbd 5cac 263d eccf 81bd 001a 9cbb
00000170: 90f8 53bd f739 a93d f6f3 ca3d e25e e43d
00000180: f4bd f9bc 802c a63b 10da e83c a34b 82bd
00000190: dede 3ebc 30d3 ca3d 2089 d33d 2844 69bd
000001a0: 0098 8cbd c0b0 00bd 4d1d 69bd 1db4 b3bc
000001b0: e729 ffbc 80ec 883b 4d98 e13d 802e 343b
000001c0: 8c6a 5cbc 3476 ffbd e951 5bbd 74e5 d03d
000001d0: 62de edbd 846b cbbd 00f9 153b 809d f73b
000001e0: e40b a3bd fcbb f63d e049 833c 34f6 8cbd
000001f0: f459 ef3d 7b88 f0bd e124 aebd bd45 683d
00000200: 9826 983d 9909 8abd 3c04 d33d a71e 113d
00000210: f8de 81bd df80 a83b 8003 d8bd 1d81 7e3d
00000220: 92b5 88bc deea cb3d 62f5 b23d 807d aebb
00000230: ab2a dabd 1349 533d d25b a93d 8050 d83d
00000240: ad6b 7dbd 6f55 873d e0d8 7abc 3a76 ab3d
00000250: 2021 65bc c790 b1bc 74d7 63bc 80d8 a7bd
00000260: 6b3e c43d 58fd 5f3d 6c93 a03d 2c99 efbd
00000270: e8e7 d6bd 03aa 63bd 1e66 a9bd bb31 47bd
00000280: c47e b13b 6b91 673d 027d 92bd 437f c5bd
00000290: 8298 e5bd f49a 10bd 971b 07bd b8f6 20bd
000002a0: 9bd1 ba3d 1a0d 6abc 44b7 c03d e05a b23c
000002b0: 9ed1 86bd 161e b8bd c036 a13d d0d6 90bd
000002c0: 4f88 523d 3316 3a3d 0ce4 c9bd 8a5a b6bd
000002d0: 2a97 a33d 6644 bb3c 3c28 eabd ce37 cf3d
000002e0: e0a8 663c a96b eb3d 3c82 f4bd ce73 c23d
000002f0: 31f5 953d 2114 01bd 8358 e63d 8d37 303d
00000300: 0837 5f3d eced dcbd acb7 0ebe 9fb8 b8bd
00000310: 28f2 a53d 450b 4d3c d04e ed3d 9a56 f13d
00000320: 5ce0 e6bd 4fd4 dd3d d181 5cbd ebc5 803d
00000330: dc5e 83bc bb71 d43d 8835 5cbd c3d5 3bbd
00000340: 0f25 423d ef97 793d 50a9 e3bd 4086 af3b
00000350: a814 c9bd 20c1 93bc 1ce7 9d3d c804 bebd
00000360: 48f5 2a3d f75a a9bd 6089 353c 7a74 21bd
00000370: c22b 9c3c 1580 81bd fb71 9abd 9aee acbd
00000380: 8901 8f3d 5b7e 83bc 3891 7a3d 7d3b d73d
00000390: be39 ad3d 84ea d4bd cc28 943d 696d a73c
000003a0: a001 46bc ac4a 843d 6deb 103d aec6 27bd
000003b0: fe30 d23d 3875 9f3d 745b 59bd 6426 e4bc
000003c0: 79b6 bb3d 800c eb3c 986e 8ebd ac21 983d
000003d0: 7a27 b03d 98de 463d e051 933c 26a9 9cbd
000003e0: 572b 943d d04a a9bc 3411 aabd 4ba9 1a3d
000003f0: 6eca 3c3b 6c4c 6d3d cf83 953b 71cf 123d
0.011974186 -0.022393918 0.011822602 0.067263216 -0.10211909 -0.046248257 -0.0943186 -0.11847434
-0.0051716147 0.05105175 -0.034677975 0.012970179 -0.050847836 -0.11109148 0.06335148 0.058883935
-0.055293817 0.010914048 0.0049039125 0.03827788 0.103814006 0.008354984 -0.060051065 -0.008165747
-0.06362375 -0.10562453 -0.10320011 -0.039162993 0.0691684 -0.030968333 0.021542668 0.050666455
-0.032756593 -0.124186635 0.04410556 -0.019797951 0.08867341 0.027330155 0.036242586 0.052500337
0.09496143 0.045286473 -0.022562802 0.018471628 0.090532385 -0.094755724 -0.020645648 0.038062572
-0.019099697 0.05983776 -0.008763611 -0.11052182 -0.029497921 0.045426868 0.022233993 0.030978478
-0.06521684 -0.04232472 0.039516687 -0.02824293 0.015416871 0.11686137 0.08476764 0.042918593
0.09624469 -0.037964433 -0.06936017 0.069019265 -0.11451283 0.007944819 -0.09513721 0.061872333
-0.12353131 0.1127684 0.0418092 -0.016090311 -0.10983646 -0.07043918 0.032915384 0.029000698
0.06130846 -0.072191566 -0.10905363 -0.116154015 0.104718655 0.028105676 0.019554628 -0.0014255047
-0.09176794 0.04069172 -0.06338486 -0.0047638416 -0.05175072 0.08263009 0.09909813 0.1115091
-0.030486085 0.005071223 0.028424293 -0.06362083 -0.011649815 0.09903562 0.10328889 -0.056949764
-0.06864929 -0.031418562 -0.05691271 -0.02193647 -0.03114791 0.0041785836 0.11015377 0.0027493536
-0.013453137 -0.12473717 -0.053544912 0.10200015 -0.11614682 -0.09932616 0.0022884011 0.0075566173
-0.07961252 0.12047574 0.016026437 -0.06882897 0.11687079 -0.117447816 -0.08503128 0.056707133
0.07429236 -0.06740112 0.10303542 0.035429623 -0.06341356 0.0051423158 -0.105475426 0.06213485
-0.016688142 0.09956907 0.08738209 -0.0053250194 -0.106526695 0.05158336 0.082694665 0.10562229
-0.061870266 0.06608092 -0.015310496 0.08372159 -0.013984948 -0.02167548 -0.0139063485 -0.08195591
0.09582218 0.054684967 0.078406185 -0.11699137 -0.10493451 -0.055582058 -0.082714304 -0.04863141
0.005416723 0.056535166 -0.071527496 -0.09643414 -0.11210729 -0.035304025 -0.032985296 -0.03929779
0.0912201 -0.01428535 0.09409955 0.021771848 -0.0658295 -0.089901134 0.07871771 -0.07072222
0.051399525 0.045431327 -0.098579496 -0.08903988 0.07987817 0.022859763 -0.11433455 0.10118066
0.014078349 0.11495144 -0.11938903 0.09494744 0.07322157 -0.031513337 0.11247351 0.043021727
0.05449584 -0.107875675 -0.13937253 -0.09019589 0.08102828 0.012514894 0.11587298 0.11784096
-0.11273262 0.1083151 -0.05383474 0.0628775 -0.016036443 0.10373255 -0.05376199 -0.045858156
0.047398623 0.06093591 -0.11116278 0.00535658 -0.09818393 -0.018036425 0.07710096 -0.09278256
0.041737825 -0.08269303 0.011080116 -0.03941772 0.019063834 -0.06323258 -0.07541271 -0.08443947
0.06982715 -0.016051462 0.061173648 0.10509393 0.08458279 -0.10396293 0.07234344 0.020437913
-0.012085348 0.06459555 0.03538077 -0.04096096 0.10263251 0.077860296 -0.053065732 -0.027850337
0.09165663 0.028692484 -0.06954688 0.074282974 0.086012796 0.048552126 0.017983377 -0.0764945
0.07234829 -0.020665556 -0.083040625 0.037759107 0.002880718 0.05793421 0.004562832 0.035842363

functional_1/conv1d_1_2/convolution/ExpandDims_1:0 f4 [128, 64, 1, 1]
00000000: 544a 2abd 1c9c a1bd b83b e7bc dcc1 30be
00000010: 60f2 d5bb 3818 cf3c 201b 663c a6c3 a53d
00000020: 9eff 83bd c652 fa3d 53c9 d7bd 8464 83bd
00000030: 14de 3a3d 989a 08be c076 6bbc 3251 9ebd
00000040: 7c55 4dbd 4058 133d 96d8 aabd 9113 293e
00000050: 7ef1 9dbd 52b4 12be ed1d 29be 983c 863d
00000060: 3c18 8cbd 60b3 44bd b4f6 e1bd 2bc8 22be
00000070: a607 8a3d 8842 25be 6e5d a73d e8ee e2bc
00000080: 2fba 003e 6031 ed3c 54f1 8a3d 5031 2dbd
00000090: d817 13be 43d5 97bd f3d0 cebd 8faf 2f3e
000000a0: 5579 113e 05cb 30be 74ff 14bd c12e 16be
000000b0: 18d9 b8bc 8c9b 443d 60c8 88bc 3bb7 343e
000000c0: eceb 7a3d 4203 c73d 5e3a 7bbd 486c ec3c
000000d0: b2fe b73d be77 f4bd 7064 abbd d459 2cbd
000000e0: dc08 393d 3c38 563d e738 0b3e 4812 c93c
000000f0: e345 a5bd 5d28 febd e083 fcbd eff0 16be
00000100: aaa9 cebd af4f 7d3d 24ae 0cbe 7c45 03be
00000110: 2e34 1fbd 305f 003d c574 1abe 6ac8 b53d
00000120: 3bcc eebd f016 cf3d c144 1cbe aa9a 16be
00000130: 7827 423d bd74 d6bd daee fcbd 9cfe e23c
00000140: 84a5 ca3c 1be6 263e dd56 1b3e 0e7a ad3d
00000150: 008d cebc 4db6 123d a64a 113d bc15 8c3d
00000160: 1000 b3bc 6878 393d 00ad 973b 973e 493d
00000170: 14ef c7bc d6fd e0bd 692e 193e a58f 5d3d
00000180: a597 e03d 5c9d 1e3e 0ee9 5bbd a437 2fbe
00000190: 768f aa3d aecb 703d 0900 113e 675a c1bd
000001a0: 15c3 6ebd bbad a93d 1dfb 043e 7f99 903d
000001b0: 0397 003e 165d b7bd 0d5f 2bbe 1958 2f3e
000001c0: 709a 0c3e 8e69 8c3d 33f4 043e a2d3 ce3d
000001d0: 9c5d a43d 356a 133e ee22 1bbe 9c24 26be
000001e0: 97b8 1a3e 9b80 dfbd e306 dc3a ba95 dc3d
000001f0: 208d e53b 8b31 323e 114f 1d3e d076 a33a
00000200: feaf 00be 8781 233e 007f 723b 01a3 d2bd
00000210: 8d67 c9bb dc6c 1e3e a9e6 38be 80ad 633b
00000220: 80aa ff3c eb0f 57bc c5d2 303e 1cb7 333d
00000230: be6e f1bd 584b 2c3e eafa f7bd dddc 4f3d
00000240: c56c cebd b1b6 1bbe 6cf1 7b3d 680a fdbc
00000250: 1834 953d 5d86 e13d 940a 9a3d cc90 2ebd
00000260: 56ff f83d 2c37 40bc 404b 1cbe f851 e13d
00000270: d6ff 253e b430 babc d4ab 20be 320e ed3d
00000280: b38a 0dbe 69a3 873d c5f6 95bd 61ec f6bd
00000290: 5f22 223e aeca 223e e4d7 08be 5967 2d3e
000002a0: 2cf3 393d 5a9c cebd 0b3e 013e b066 44bd
000002b0: 88bf 3e3d d96d 04be b0ef 9b3d f3c0 b6bd
000002c0: d1be 013e 2bc5 1c3e 4388 1dbe ed97 41bd
000002d0: c5b6 083e b2cb ec3d 4f0e 1b3e 2d31 d6bd
000002e0: 8252 d8bd 68a6 04be 42cb c5bd 2dd0 75bc
000002f0: 0401 79bd 0044 91b9 1970 213e 7967 db3d
00000300: 1496 4c3d f144 cabd 6f03 073e 9d1e dc3d
00000310: 7f04 313e b193 b3bc 0882 09bd 2049 d4bc
00000320: e31b 15be 7b11 953d 0816 f0bd 00ae 813b
00000330: d052 0ebe e31b fb3c fd5b 0dbe 6d36 4f3d
00000340: 849b ce3c ff85 0bbe 62fa e7bd e8b2 b23c
00000350: 6809 cebc 650f edbd 172e a4bd 9b5c 333e
00000360: 9be9 2e3e 92a2 163e 3b19 1f3e 3e08 f6bd
00000370: 8878 aabd 0014 543d c4b7 16bd 6031 7abd
00000380: 7e6e d13d d632 963c 0220 cc3d e113 503d
00000390: 95c0 073e 94d1 55bd 3bc3 1bbe a19c 9bbd
000003a0: f51b c9bd c2cc fc3d cfcd 0e3e 5ff6 db3c
000003b0: 4342 a5bd bad2 c23c 2bab d6bd 8b13 cf3d
000003c0: c15e 013e 08e2 123d d901 0dbe 3c92 00be
000003d0: bc1f 5e3d deb6 a53d 9073 64bd a4c7 fb3d
000003e0: 2091 2c3e 369e b73d 9438 43bd 6e46 9c3c
000003f0: 3061 77bc e255 f1bd 8c0e 18be 0a92 d7bd
-0.04157479 -0.078911036 -0.028226718 -0.17261451 -0.0065291375 0.025280103 0.014044553 0.080939576
-0.064452395 0.12222819 -0.105364464 -0.06415656 0.045621946 -0.13340223 -0.014371574 -0.077303305
-0.050130352 0.035972834 -0.08342092 0.1651137 -0.077120766 -0.14326599 -0.16515322 0.06554526
-0.0684056 -0.048022628 -0.11033383 -0.1589667 0.0673974 -0.16138661 0.08172117 -0.02770181
0.12571023 0.028954208 0.06784311 -0.042283356 -0.14364564 -0.07413723 -0.10098448 0.17156814
0.14206441 -0.17264946 -0.03637643 -0.14666273 -0.022564456 0.047999904 -0.016697109 0.17648022
0.06126015 0.09717418 -0.06133496 0.028860226 0.08984126 -0.119369015 -0.08368766 -0.042077854
0.045174465 0.052299723 0.13595925 0.02454485 -0.080699705 -0.124100424 -0.12329841 -0.14740346
-0.100909546 0.06184357 -0.13738304 -0.12819475 -0.03886812 0.031340778 -0.15083607 0.088761166
-0.116600476 0.10111797 -0.15260603 -0.14707437 0.04740092 -0.10471485 -0.12350245 0.027709298
0.024737127 0.16298716 0.15169854 0.08470546 -0.025213718 0.035818387 0.03547158 0.06840083
-0.021850616 0.045280844 0.0046287775 0.049131956 -0.024405994 -0.10985915 0.1495911 0.05409207
0.10966424 0.15489715 -0.053689055 -0.17111069 0.08328144 0.058787994 0.1416017 -0.09441071
-0.058291513 0.082850896 0.12986417 0.07060527 0.12557606 -0.089533016 -0.16735478 0.1712345
0.13730788 0.068560705 0.1298378 0.100989595 0.08025667 0.14395984 -0.15150043 -0.16224903
0.15109478 -0.109132014 0.001678672 0.107707456 0.007005349 0.17401712 0.15362193 0.0012471322
-0.12567136 0.1596738 0.0037001967 -0.10284997 -0.0061463774 0.15471214 -0.1805674 0.0034740865
0.03120923 -0.013126354 0.17267902 0.0438758 -0.117887005 0.16825616 -0.12108405 0.05074774
-0.1007934 -0.1520641 0.061509535 -0.030888751 0.07285327 0.11011956 0.07521549 -0.042618558
0.121580765 -0.011731904 -0.1526308 0.110019624 0.16210875 -0.022728302 -0.15690547 0.11574973
-0.13822441 0.06622965 -0.07322458 -0.120568044 0.15833424 0.15897629 -0.13363606 0.16933955
0.045397922 -0.100884154 0.12621324 -0.047949493 0.046569377 -0.12932529 0.07614076 -0.08923521
0.12670447 0.15309589 -0.15384011 -0.04726403 0.13350971 0.11562289 0.15142177 -0.10458598
-0.10562612 -0.12954104 -0.09657909 -0.015003246 -0.060791984 -0.0002770722 0.15765418 0.10713095
0.049947813 -0.09876431 0.13184904 0.107480265 0.17286871 -0.02192101 -0.033571273 -0.025913775
-0.14561419 0.07278725 -0.11722952 0.00395751 -0.13898778 0.030652946 -0.13804622 0.050589014
0.02522064 -0.13625334 -0.113270536 0.021813825 -0.02515097 -0.11575202 -0.080166034 0.17515795
0.17081301 0.14710453 0.15536968 -0.12013291 -0.08323771 0.051776886 -0.036796346 -0.061082244
0.10226153 0.018334787 0.099670425 0.050800208 0.13257058 -0.052201822 -0.15211193 -0.07598234
-0.098197855 0.12343742 0.13945697 0.026850877 -0.08069279 0.023782123 -0.104818664 0.101111494
0.12633802 0.03586009 -0.13770236 -0.12555784 0.054229483 0.0809152 -0.05577427 0.12293938
0.16852236 0.08965723 -0.04766138 0.019076552 -0.015098855 -0.11783959 -0.14849299 -0.105259016

functional_1/conv1d_1/convolution/ExpandDims_1:0 f4 [64, 30, 1, 1]
00000000: 0083 313e 183a fbbc c48f 0f3e c408 48be
00000010: 6603 663e b050 053d 7a84 77be 0c62 5a3e
00000020: 98e0 27bd d057 7f3d ff91 2fbe a874 3fbe
00000030: 9489 883d 9acf ffbd 96ce 383e 7b19 59be
00000040: 20cc 353c 6460 0bbe 94ee 4abe 34a6 50be
00000050: baf0 a8bd 7828 fbbd fb00 31be 4ca9 ba3d
00000060: c274 213e b87b 113e 0478 57be 7069 8f3c
00000070: 7d55 46be 7eaf ddbd 533d bcbd 591d 5e3d
00000080: 93c9 c13c ea2a 5d3d 67ed 3b3e 8dd2 083e
00000090: 7708 c5bd 0777 cabd 0a99 17be 7591 81be
000000a0: 3a66 2abe 173e 7ebe c8cb 343e 1349 74be
000000b0: 0ad1 68be c528 063e b8a4 d93d fbda 143e
000000c0: 12d3 6dbe ae96 143c 3a4e 6f3e a016 773e
000000d0: 8b73 2ebe 4342 373e bf93 4fbe 3e2d 51be
000000e0: 020d 5abd 32bd 423d 44d7 1dbe 300f dbbd
000000f0: 0c12 623e aae6 7bbe d85d df3d 301a 7c3d
00000100: a206 a1bd 9030 b93c 8036 3dbc 04be 67be
00000110: 808d 043b 2eb3 5e3e 14f9 bc3d 9634 4cbe
00000120: ac77 703e f0cd 6fbe 5a20 763e 1804 3e3e
00000130: a856 393d 34c0 5abe 740f 60bd 7ce3 aebd
00000140: 30a2 7a3d 18f1 0b3e 56e3 bfbd b0b7 bfbd
00000150: 0473 973d 8c63 af3d 8e77 30be 586b b43d
00000160: 081d 893d 14fd 39bd ffdd 2ebe 832c 233e
00000170: b8d1 05be a751 d03c 752e 093e 271d 743e
00000180: fcad 51be f490 81bd 5efb 15be 20f3 a2bc
00000190: 9e78 283e e08a 5d3e 4f0f fa3c 6c88 e33d
000001a0: a76a 5cbd 301b 383e e676 2e3e 37bd ecbd
000001b0: 2079 c93a f003 25be 08cd 23be 19b1 c0bd
000001c0: 2769 b1bd 69a1 2ebd 708b 253e 15de d5bd
000001d0: 1898 dabd 441c 4ebd e7b8 85bd 7f29 1a3e
000001e0: f34a 323e 329d d5bd fdb2 7fbe 5dcb a2bd
000001f0: a512 1ebe db8d b63d d98d 173e 918c d6bd
00000200: c835 fa3d 210d ac3d d6d0 2dbd 76fe 6fbe
00000210: 14e7 afbd 52de f4bd 6ea3 7d3d e300 5c3c
00000220: 529b e7bd f2c5 66be 8943 38be 1bb8 153e
00000230: 71b6 86bd ddb1 433c 4ae4 3e3e 030e 5c3e
00000240: dd64 993c 1995 79bd f812 303d 7573 68bd
00000250: 7a4c 573c e8cd 433e ae7d 3a3d f0a8 883d
00000260: e763 44be 150f 4f3d b629 213e 6a61 813e
00000270: bcb6 6fbe 5d31 b73d e3df 333e c856 183e
00000280: 2357 21be db0f 3bbe 5d32 063d c105 7d3e
00000290: 3745 383e c357 cbbd 9fac e13c 89c5 813e
000002a0: 1af2 c1bd 0982 423e 846b a23d 6d13 683e
000002b0: b875 293d 5503 2b3e dbdc dbbd e834 c0bb
000002c0: b8c2 2ebe 69b5 3e3e 5c47 08be d99a 013e
000002d0: 8ae8 8d3e 7a32 493e 3fca 993d dbc0 c2bd
000002e0: 59d2 753e dac5 09be 01b5 10be f934 61bd
000002f0: f6c7 5d3e 6816 bdbc a939 813c f66c 49be
00000300: b7a7 913d 7a4d 2ebe 60e1 b03d 353f 4d3e
00000310: 2ca1 40bd c462 88bd cfec 8fbd 96fe 0b3e
00000320: 09aa 1abe d729 c53c b6d4 dcbd a139 be3d
00000330: 53bc 4abe 25f9 66be 1684 883e af61 0ebe
00000340: cf22 75be c46c f8bc 28d0 e9bc 3980 25be
00000350: ae53 613e 00ea e43a c9ef 19be abc3 6ebe
00000360: cc55 273e 30cf 38be 8035 b33b 4251 0cbe
00000370: 1477 0a3e ce07 b3bd ccc6 16be 40d0 0b3c
00000380: 2c8e ddbd 8cf2 9c3d 26bc 15be a870 a93d
00000390: d060 8cbc 227a 34be d0db 2f3d 9036 a33d
000003a0: a8e8 a1bc d49c 1d3e da5c 153e bfd7 05be
000003b0: 4036 a33c 4468 7dbe 60c7 fc3d 006f 0b3b
000003c0: 30e8 c03d 80cc a8bd a8e1 7bbd ac5f 3dbe
000003d0: 7c32 bf3d 12e1 3d3e e48b c7bd def0 463e
000003e0: 000c 0f3a 453a 23be 9022 a03d da8a 19be
000003f0: 0c9f 6fbd 168b 313e aa40 3f3e 4dd7 18be
0.17335129 -0.03066735 0.14019686 -0.19534594 0.22462234 0.032547653 -0.2417163 0.21326464
-0.040985674 0.062339604 -0.17145537 -0.18696845 0.06666866 -0.12490769 0.18047556 -0.21201126
0.0110960305 -0.13610989 -0.19817573 -0.20375901 -0.0824904 -0.12263578 -0.1728553 0.09114322
0.15767196 0.14207351 -0.21041876 0.017506331 -0.19368549 -0.10824488 -0.09191384 0.054227207
0.023655688 0.053996004 0.1835228 0.13361569 -0.09620755 -0.09885984 -0.14804474 -0.25306287
-0.16640559 -0.24828373 0.17655861 -0.23856 -0.22735992 0.1310149 0.10627121 0.1453666
-0.23225048 0.009069128 0.23369685 0.24129725 -0.17036264 0.1789637 -0.20271204 -0.20427415
-0.05323506 0.047543712 -0.15414149 -0.10696256 0.22077197 -0.2459971 0.10906571 0.06154841
-0.07862593 0.022606164 -0.011548638 -0.22631079 0.0020225942 0.21748039 0.092271954 -0.19941935
0.23483151 -0.23418403 0.24035779 0.18556249 0.045248657 -0.21362382 -0.054702237 -0.08539483
0.06118983 0.13666189 -0.09369533 -0.093612075 0.07394984 0.08563909 -0.17233106 0.08809537
0.066949904 -0.04540737 -0.17076872 0.15934949 -0.13068283 0.02542956 0.13396628 0.23839246
-0.20476526 -0.06326476 -0.1464667 -0.019891322 0.16452262 0.21635008 0.030524878 0.11110005
-0.05381265 0.17979121 0.17037544 -0.11559527 0.0015371181 -0.16114783 -0.15996182 -0.09408779
-0.08662634 -0.0426344 0.16166472 -0.104427494 -0.10673541 -0.050319925 -0.06529408 0.15054892
0.17411403 -0.10430373 -0.24970622 -0.07948945 -0.154368 0.089137755 0.14800204 -0.1047603
0.12217289 0.08400942 -0.04243549 -0.23436913 -0.085889965 -0.11956467 0.061923437 0.013427946
-0.11308922 -0.22536448 -0.17994513 0.14621012 -0.06577767 0.011944261 0.18641773 0.2148972
0.018724853 -0.060933206 0.04298684 -0.056750733 0.013140792 0.19121516 0.045530014 0.06672847
-0.19178735 0.050551493 0.15738568 0.25269634 -0.23409551 0.08944962 0.17565875 0.14876854
-0.15755896 -0.18267767 0.032762874 0.24709226 0.17995153 -0.099288486 0.027548132 0.2534602
-0.09470005 0.18994917 0.07930663 0.2266366 0.04137203 0.1670049 -0.10735484 -0.005865682
-0.17066467 0.1862389 -0.13308471 0.12656726 0.27716476 0.19648162 0.075092785 -0.095094405
0.24006023 -0.1345438 -0.14131548 -0.05498216 0.2165831 -0.023081973 0.015774565 -0.19670472
0.07112067 -0.17021742 0.08636737 0.20043643 -0.047028705 -0.06659463 -0.070275895 0.13671336
-0.15103926 0.024067802 -0.10782759 0.092883356 -0.19798402 -0.22555979 0.26663274 -0.13904451
-0.2393906 -0.030325301 -0.02854164 -0.16162194 0.22004578 0.0017464757 -0.15032877 -0.23316829
0.16341323 -0.18047786 0.005469024 -0.13702872 0.13521987 -0.08741723 -0.14724272 0.008533537
-0.10818133 0.0766345 -0.14622554 0.082734406 -0.017136008 -0.17624715 0.04293424 0.07969391
-0.01976426 0.15391856 0.14586201 -0.13070582 0.01992333 -0.24746805 0.12342715 0.0021275878
0.09419286 -0.0824213 -0.0614945 -0.18493527 0.09335801 0.18542889 -0.09743479 0.19427821
0.0005456805 -0.15940197 0.07819092 -0.14994374 -0.05850129 0.17338213 0.18677011 -0.1492588

const_fold_opt__182 f4 [1, 128, 1]
00000000: 4cfe a3bb 4883 babb 8864 08bc 0ce7 073c
00000010: 8129 4cbb ed20 013b 0000 0000 f77f 1cbc
00000020: 0000 0000 8d94 8e3b 9d5e 99bb d569 c3bb
00000030: bf76 c2bb 8bd3 efbb 7d7c b8bb 18ba b43b
00000040: 90d8 7538 226a c3bb e4c0 a0bb dfd4 95bb
00000050: 1b36 d1bb e7f7 b33b b9ae b33b 0000 0000
00000060: 0000 0000 4067 87ba 5c56 c33b 5a2a b43b
00000070: 0000 0000 cf6e c3bb d046 c33a 8e65 be3b
00000080: 9ad5 afbb 8e3b ffbb d6dd b43b 9ffa b33b
00000090: 0000 0000 d0af b33b 596e c3bb 7ff3 b43b
000000a0: a86c b7bb 2383 de3b 4351 b0bb b6de e5bb
000000b0: e762 b23b 2948 b33b 7c17 0a3a 792d 563c
000000c0: 3c3d 313a d416 ce3b 9914 4abc 0000 0000
000000d0: 0000 0000 ebea 9abb 0000 0000 66e7 d13b
000000e0: 5f63 32ba d265 b33b 7780 b9bb a2f6 be3b
000000f0: d65e 68bb 45cf d2bb b397 7ebb 0000 0000
00000100: 54b2 b7bb 0889 24bb febf 9c3b 6749 ae3b
00000110: 0000 0000 046b d03b 88a7 a23b 0000 0000
00000120: 754a 3e3c 7deb c7bb 4af2 f5bb f96e c3bb
00000130: cda1 c4bb e6e2 ad3b 0cc0 c1bb 4b99 b33b
00000140: 46d2 09bc 5e46 b43b 0000 0000 0000 0000
00000150: 0000 0000 3ddc d3bb 004e 573b 0000 0000
00000160: e875 773a 7b43 fc3b 4b06 bfbb 25f2 b13b
00000170: 4091 c2bb 274e 293b 28ec b43b df4c bbbb
00000180: a68e af3b cd17 e53b 95e2 d53b 0000 0000
00000190: d63b 9d3b f954 313c 0000 0000 c71a 38bb
000001a0: 66a7 cabb 0000 0000 0000 0000 0000 0000
000001b0: 85b0 fdbb 0000 0000 0000 0000 b968 713a
000001c0: faf4 023b 2c13 f3bb a293 c4bb 40ad 9839
000001d0: 0000 0000 674c af3b 794e d83b 0000 0000
000001e0: 10a0 fcbb 5ca0 b13b 58fa c43b 0000 0000
000001f0: 0000 0000 0000 0000 0acf fabb 2bd6 b43b
-0.00500468 -0.0056919195 -0.00832475 0.008294832 -0.0031152668 0.0019703463 0.0 -0.009551994
0.0 0.0043512047 -0.0046804682 -0.005963544 -0.005934566 -0.007318919 -0.0056300745 0.005515348
5.861424e-05 -0.0059635798 -0.004905807 -0.0045724954 -0.0063846237 0.0054921987 0.005483475 0.0
0.0 -0.0010330454 0.0059612226 0.0054982128 0.0 -0.005964137 0.0014898423 0.005810446
-0.0053660395 -0.007789082 0.005519609 0.005492523 0.0 0.005483605 -0.005964082 0.005522191
-0.0055976696 0.006790535 -0.005380781 -0.0070150746 0.005443919 0.0054712486 0.00052677817 0.013072365
0.0006761139 0.0062893424 -0.012334012 0.0 0.0 -0.0047277114 0.0 0.0064057587
-0.00068049686 0.0054747844 -0.005661066 0.0058277408 -0.0035456917 -0.0064334 -0.0038847744 0.0
-0.005605975 -0.002510609 0.0047836294 0.005318809 0.0 0.0063604135 0.004963819 0.0
0.011614432 -0.0061010704 -0.0075056897 -0.0059641567 -0.0060007335 0.0053065894 -0.0059127863 0.0054809204
-0.0084119495 0.0055015525 0.0 0.0 0.0 -0.0064654634 0.0032852888 0.0
0.00094398716 0.007698474 -0.0058296076 0.005430477 -0.0059377253 0.0025833936 0.005521316 -0.005715951
0.005357581 0.0069913627 0.006527255 0.0 0.0047983928 0.010823482 0.0 -0.0028092132
-0.006184506 0.0 0.0 0.0 -0.00774199 0.0 0.0 0.00092090253
0.0019982443 -0.007418057 -0.0059990445 0.0002912078 0.0 0.005349684 0.0066011515 0.0
-0.0077095106 0.0054207277 0.0060112886 0.0 0.0 0.0 -0.0076540755 0.005518695

const_fold_opt__180 f4 [1, 64, 1]
00000000: 0000 0000 349a 06bc 0000 0000 5ea3 bfbb
00000010: fcc5 ffbb d2cf cebb e760 d33c 0000 0000
00000020: 0000 0000 eb7d d03b 0000 0000 0000 0000
00000030: 0000 0000 20cc 673b 9faf 1fba 2a98 c2bb
00000040: 5a77 973b 0000 0000 0000 0000 0000 0000
00000050: 0000 0000 be0c d83b 2291 8139 0000 0000
00000060: 0000 0000 1896 753c 0000 0000 5698 a63a
00000070: dc8e 49bc d6f8 b23b 0000 0000 8ccb 8d39
00000080: f4d8 5bbb e911 0fbc 0000 0000 9026 59bb
00000090: ac64 1bbc a0f6 2f3c 0000 0000 0000 0000
000000a0: 9235 11bc ade8 38bc 0000 0000 8d04 fb3b
000000b0: a5c6 0cbc eac8 b33b 5860 12bc 8486 2f3b
000000c0: f792 87bb 0000 0000 4686 b23b 5ed6 32bc
000000d0: 1b53 44bb 0000 0000 0000 0000 c852 483c
000000e0: 5c42 c3bb 0000 0000 e34f f5bb c7d9 b23b
000000f0: 0000 0000 0000 0000 2b8b 253c 4a7b 88bb
0.0 -0.008215476 0.0 -0.0058483323 -0.007805584 -0.006311395 0.025803043 0.0
0.0 0.006362667 0.0 0.0 0.0 0.003536947 -0.0006091538 -0.0059385495
0.004622382 0.0 0.0 0.0 0.0 0.006593316 0.0002471293 0.0
0.0 0.014989398 0.0 0.0012710195 -0.012302127 0.0054617925 0.0 0.0002704527
-0.0033546062 -0.008732297 0.0 -0.0033134557 -0.009484451 0.010739952 0.0 0.0
-0.00886287 -0.011285943 0.0 0.0076604546 -0.008592282 0.0054865973 -0.008934103 0.0026783058
-0.0041373926 0.0 0.0054481355 -0.010915367 -0.0029956761 0.0 0.0 0.012226768
-0.0059588384 0.0 -0.00748633 0.00545809 0.0 0.0 0.010103981 -0.004165088

const_fold_opt__179 f4 [1, 256, 1]
00000000: 18e7 a6bb 26f9 ecbb 0000 0000 63c2 0dbb
00000010: 661e 3bba 77ce 943b 4456 cd39 5264 deba
00000020: 4cd8 173b b4bf cb3b be5c debb 9282 f3ba
00000030: 0000 0000 ac2b d6bb c6f6 d33a d271 e7bb
00000040: 9ebc 8e3b a4ee 65bb ba4e 283b c07b cf3b
00000050: 0000 0000 0000 0000 0000 0000 6132 c3bb
00000060: e4e1 5b3b c3cf 6b3b 3af0 873b c5e7 ccbb
00000070: 09de 5cbb 8cc4 4cbb ed6a 9e3b ed8a dd39
00000080: 0000 0000 0000 0000 501d 8fbb a2a9 f3ba
00000090: 14f0 16bc 0000 0000 8244 993b f9f9 aa3b
000000a0: 7417 623a 2cba 343b 198b aaba 0000 0000
000000b0: 55a8 cf3b fd04 c0bb b10d e83b 3d6a 75bb
000000c0: 0000 0000 a4d9 34bb 4198 c3ba 0000 0000
000000d0: 5d30 97ba 0347 cc3a af72 cdbb 39f4 503b
000000e0: 2d2a e73b fa5c b4bb 0000 0000 0000 0000
000000f0: 0000 0000 0000 0000 5d59 ab3b 0000 0000
00000100: a09e a3bb dbb3 fbbb e226 173b 5b86 4d3b
00000110: d4e8 42bb d8be a8bb 36f3 f5bb 4eb4 c93b
00000120: 3f1f 1cbb 0000 0000 bcfd e2bb 0acc 923b
00000130: 13ad e33b d0fb 69bb 1f62 cfbb 5f60 85bb
00000140: 0000 0000 a67a 1b3a 5a56 073b cf78 72bb
00000150: 73c7 043c d837 863b cdff 05bb 0000 0000
00000160: 0000 0000 0000 0000 7566 163b a05d c53b
00000170: 7737 ad3b 081e 863b 0000 0000 0000 0000
00000180: 917a a03b 1396 54bb b94f cbbb 6b00 41bc
00000190: f5f1 d23b 1aab 813b a33f 6c3b 0000 0000
000001a0: 0000 0000 3640 3ebc ba8d 65bb 0000 0000
000001b0: 0000 0000 eae2 c8bb 6c35 4e3b 0000 0000
000001c0: 2b62 a9bb 2bec c6bb 67f7 be3b 0000 0000
000001d0: f7cb a4bb 8968 b5ba 0000 0000 966b 05bc
000001e0: 1a51 e23a 50cb beba 4544 c83b c50c 9bbb
000001f0: 4030 053b dc03 ac3b c2d2 5b39 b34e d6bb
00000200: ac62 85b9 6b45 6ebb 0798 b63b b9d2 443b
00000210: 1285 a3bb 0000 0000 bee3 9b3b 0000 0000
00000220: 0000 0000 06be 343a 77de 723b 0000 0000
00000230: 0000 0000 0000 0000 c988 40bb d186 ad3b
00000240: 46a9 08bc 41e6 0a3c 5660 dabb e369 033c
00000250: 9c8e 55bb e32d 19bc 1d67 d53b 0000 0000
00000260: 0000 0000 0000 0000 f0bf 31bb bad3 29bc
00000270: e95c da3b b0c6 f0bb 9f47 acbb 0000 0000
00000280: 59ef f5bb 9d42 acbb 99c2 ffbb 7676 803a
00000290: 8524 903b 0000 0000 e2b4 25bc 3874 c4bb
000002a0: 14b7 aaba 0000 0000 8677 e6bb b44c a33b
000002b0: b74d c3bb a8d7 ee3a 0000 0000 0000 0000
000002c0: 0000 0000 a5bd 17bc 34e8 a8bb 014d e13b
000002d0: 0000 0000 0000 0000 9ee3 e9bb 4b24 7d3b
000002e0: 9711 f7bb e89f f3bb f2b6 2bbb 0000 0000
000002f0: 2a17 4c3c 54ce ad3b 48af c3bb b82f 08bc
00000300: 0a2c 21ba 5b71 28bc fe15 ab3b 0000 0000
00000310: a81f 813b b289 44ba d543 68bc 33e4 e6bb
00000320: 0000 0000 0000 0000 4791 00bc d631 ca3a
00000330: 0000 0000 0000 0000 2e63 a2bb 0000 0000
00000340: 79fc 0e3b 5cc4 04bc 5a20 afbb 117c fdbb
00000350: 5a06 77bb 0000 0000 76f1 0c3c 7a5d 783b
00000360: ccb4 24bc 0000 0000 8f2b cabb 8cdc 1b3b
00000370: aac0 963b d94a fa3b 55cb f5bb 1ef7 debb
00000380: 0000 0000 0000 0000 9906 0cbc 0000 0000
00000390: 0000 0000 6266 ce3a e91f 773b dfdd 08bc
000003a0: 0000 0000 afe1 4b3b 2792 8f3b 9402 27bc
000003b0: ef55 f8bb d75d eebb 0000 0000 0000 0000
000003c0: 1329 cebb 1fd0 07bc 2bcd 93bb 2231 c3bb
000003d0: ea73 c9bb 41c6 fc3b 415c d2bb 82f8 a4bb
000003e0: e297 a9bb 9e4f c3bb 0000 0000 0000 0000
000003f0: 0000 0000 0000 0000 dddd 003c 3d5d dabb
-0.0050934665 -0.0072318492 0.0 -0.0021630756 -0.00071380136 0.004541214 0.0003916492 -0.0016967154
0.0023169694 0.006217921 -0.006785958 -0.0018578342 0.0 -0.006535968 0.0016171567 -0.007063129
0.004355981 -0.0035084868 0.002568169 0.006331891 0.0 0.0 0.0 -0.0059569334
0.003355139 0.003598199 0.0041485103 -0.006253215 -0.003370168 -0.003124508 0.004834524 0.00042255913
0.0 0.0 -0.004367508 -0.0018589983 -0.0092125125 0.0 0.004677356 0.0052177873
0.00086247106 0.0027576787 -0.0013011425 0.0 0.0063372054 -0.0058599696 0.0070817103 -0.0037447356
0.0 -0.0027595544 -0.0014922695 0.0 -0.0011534799 0.0015585128 -0.006269775 0.003188385
0.0070545883 -0.0055042477 0.0 0.0 0.0 0.0 0.005229159 0.0
-0.004993275 -0.0076813526 0.0023063947 0.00313606 -0.0029740827 -0.0051497035 -0.0075057996 0.006155527
-0.0023822335 0.0 -0.00692722 0.0044798898 0.0069481223 -0.003570307 -0.0063288356 -0.004070326
0.0 0.0005931057 0.0020650835 -0.0036998277 0.008104193 0.0040960126 -0.0020446659 0.0
0.0 0.0 0.0022949253 0.006023124 0.005286153 0.0040929355 0.0 0.0
0.0048974236 -0.0032438084 -0.006204572 -0.011779885 0.006437535 0.0039571645 0.0036048673 0.0
0.0 -0.011611989 -0.0035027103 0.0 0.0 -0.006130566 0.0031464947 0.0
-0.0051691732 -0.006070634 0.0058278325 0.0 -0.0050291973 -0.0013840358 0.0 -0.008143326
0.0017266602 -0.0014556441 0.006111654 -0.004731747 0.0020322949 0.0052494835 0.00020963981 -0.0065401434
-0.00025441253 -0.0036357294 0.0055723223 0.0030032827 -0.0049902285 0.0 0.0047573736 0.0
0.0 0.0006894771 0.003705887 0.0 0.0 0.0 -0.0029378405 0.0052956124
-0.008341139 0.008477748 -0.006664316 0.008020851 -0.0032586223 -0.009349319 0.006512536 0.0
0.0 0.0 -0.002712246 -0.010365421 0.006663908 -0.007347904 -0.0052575613 0.0
-0.007505339 -0.0052569644 -0.0078051803 0.0009800929 0.0043988847 0.0 -0.010113927 -0.0059952997
-0.0013024532 0.0 -0.0070332913 0.004983509 -0.005960192 0.001822223 0.0 0.0
0.0 -0.009261523 -0.005154634 0.0068756347 0.0 0.0 -0.00713773 0.0038626369
-0.0075399387 -0.007434834 -0.0026201573 0.0 0.012456695 0.0053041372 -0.005971823 -0.008312158
-0.0006148225 -0.010280932 0.0052211275 0.0 0.0039405413 -0.0007497325 -0.014176329 -0.0070462464
0.0 0.0 -0.007847137 0.0015426229 0.0 0.0 -0.004955671 0.0
0.0021817966 -0.008103456 -0.005344433 -0.007735737 -0.0037692995 0.0 0.008602491 0.0037897513
-0.010052871 0.0 -0.0061697434 0.002378258 0.004600604 0.007638317 -0.0075010457 -0.006804361
0.0 0.0 -0.008546495 0.0 0.0 0.0015747065 0.003770823 -0.008353679
0.0 0.003110986 0.0043814364 -0.010193486 -0.0075786035 -0.00727437 0.0 0.0
-0.0062915175 -0.008289366 -0.004510542 -0.005956785 -0.0061478512 0.0077140634 -0.006419689 -0.0050345073
-0.0051755765 -0.005960419 0.0 0.0 0.0 0.0 0.007865396 -0.006663947

const_fold_opt__175 f4 [1, 128, 1]
00000000: 0000 0000 70ce 923b 13be 9b3b 3655 0c3b
00000010: 0000 0000 6d70 073c 0000 0000 e693 393b
00000020: 5760 9ebb 94c7 01bc 369f 413b 0000 0000
00000030: 63b8 6b3b 54b2 81bb 8f5c 8cba 0000 0000
00000040: 7394 17bc 630c 583b 0000 0000 d46b 5ebb
00000050: 0000 0000 a94f a6bb 5676 703b 0000 0000
00000060: 96ff cfbb 7961 0a3c 0000 0000 0000 0000
00000070: 2af2 973c fc48 50bb 1854 f8bb 3f3b d4bb
00000080: 0bb5 f6b9 e564 48bc a94c 29bc 6a43 d0bb
00000090: 9fe8 2a3c 4557 113c a6e8 31bc 0000 0000
000000a0: dbbc 9cba 472f 97ba 0000 0000 0000 0000
000000b0: c7f6 a83b 0024 a43b 0000 0000 a8e5 49ba
000000c0: 749e 543a 6662 0cbb 0000 0000 d7cf ccbb
000000d0: de35 cfbb a26d c1bb 0000 0000 9c1f 02bb
000000e0: 0000 0000 f681 d1bb 0000 0000 4ce8 eb3b
000000f0: 9209 103b 9db4 7bbb aade 1ebc ab28 cabb
00000100: 0000 0000 1449 88bb a8e4 c53b ff92 cabb
00000110: 0000 0000 82ff 7bbb b1d2 50ba 02ac 193b
00000120: 0000 0000 02b0 ad3b ce5c 08bc f704 abbb
00000130: ede6 e2ba 2570 acbb f4d0 a13b d91c 55b9
00000140: 5295 743b 106d f2bb b2c5 e53b 0000 0000
00000150: 0000 0000 0000 0000 fbaf 94bb 0000 0000
00000160: 0000 0000 066d 683c 0000 0000 8c41 57bc
00000170: 974d 6cbb a869 e13a 8c03 60bc 6725 83bb
00000180: d089 43bc 194a 743c 0000 0000 904c c1bb
00000190: 1912 893b 0000 0000 0000 0000 6c45 45bb
000001a0: 0000 0000 0000 0000 817b 873b 0ee4 07bc
000001b0: 751f 603b e613 ddbb 0dae bb3b 8fe3 2cbb
000001c0: 5ab2 983b 0000 0000 f8f2 f63b 0000 0000
000001d0: 6fd4 87bb 0000 0000 635c 0abc 9730 7dbb
000001e0: d326 e9ba 0000 0000 0000 0000 ef76 c8bb
000001f0: 6435 9db8 0c19 05bc 8a9a 193b c52b d8ba
0.0 0.0044801757 0.004752883 0.0021413094 0.0 0.0082665505 0.0 0.0028316914
-0.004833262 -0.007921118 0.002954436 0.0 0.0035968057 -0.003958026 -0.0010708737 0.0
-0.009251702 0.0032966367 0.0 -0.0033938782 0.0 -0.005075414 0.0036691627 0.0
-0.006347607 0.008446091 0.0 0.0 0.01854809 -0.0031781783 -0.007578384 -0.0064767892
-0.00047055664 -0.012231086 -0.010333219 -0.0063556926 0.010431438 0.008870904 -0.01085869 0.0
-0.0011958139 -0.0011534475 0.0 0.0 0.0051563713 0.0050091743 0.0 -0.0007701763
0.00081107696 -0.0021420955 0.0 -0.0062503624 -0.00632356 -0.005902962 0.0 -0.0019855266
0.0 -0.0063936664 0.0 0.007199323 0.002197836 -0.0038407214 -0.009696642 -0.006169399
0.0 -0.004159102 0.006039221 -0.006182074 0.0 -0.0038451855 -0.0007965966 0.0023448472
0.0 0.005300523 -0.008322908 -0.0052190977 -0.0017311253 -0.005262392 0.004938239 -0.0002032401
0.0037320447 -0.007398255 0.0070120925 0.0 0.0 0.0 -0.00453758 0.0
0.0 0.014186149 0.0 -0.013138186 -0.003605699 0.0017197626 -0.013672721 -0.0040022614
-0.0119347125 0.014910244 0.0 -0.0058990195 0.0041830656 0.0 0.0 -0.0030101193
0.0 0.0 0.004134596 -0.008294119 0.0034198437 -0.006746757 0.0057275356 -0.0026380753
0.004659933 0.0 0.0075362884 0.0 -0.004145197 0.0 -0.008444878 -0.0038633698
-0.001778806 0.0 0.0 -0.0061176936 -7.496288e-05 -0.008123647 0.002343806 -0.0016492537
